saved_models/model_sr:51.pth (torch, 87334 bytes, 18 tensors)

fc1.weight f4 [128, 17]
0	0x3ce8f2c0	0.028436065
1	0x3de9971e	0.114057764
2	0xbfb04874	-1.3772111
3	0x3e1b6e71	0.15178849
4	0xbe361186	-0.17780122
5	0x3dd61ba9	0.104544945
6	0xbea761ad	-0.32691708
7	0xbe011bb7	-0.12608229
8	0xbf556c0b	-0.83367985
9	0xbdb27972	-0.0871457
10	0xbef6dcf7	-0.48215458
11	0xbe72b1c2	-0.23700622
12	0x3e857d3c	0.2607211
13	0xbe91ea60	-0.28499126
14	0xbe5bce56	-0.2146543
15	0xbdca2bb1	-0.09871615
16	0xbddcdb08	-0.107839644
17	0x3cff6b10	0.031178981
18	0x3e2dd68c	0.16976374
19	0xbee031a9	-0.43787888
20	0x3f80b2c5	1.0054556
21	0x3c7eb173	0.015545237
22	0xbf529ed0	-0.8227358
23	0xbef6e300	-0.48220062
24	0x3e564bd1	0.20927359
25	0x3e53bb3a	0.2067689
26	0x3f227893	0.6346523
27	0xbe84d5af	-0.25944278
28	0x3ea6c60d	0.32572976
29	0x3d7609a8	0.060067803
30	0x3ee2060a	0.44145232
31	0x3df9da10	0.12199795
32	0x3dcf7253	0.101292275
33	0xbf349cbf	-0.70551676
34	0x3e47c938	0.19510353
35	0x3f23ae0a	0.6393744
36	0xbe977a6c	-0.29585588
37	0x3e38ff00	0.18066025
38	0x3f740f0a	0.9533545
39	0x3e4d967f	0.20076941
40	0xbd4fa533	-0.050694656
41	0x3e47153c	0.19441694
42	0xbeb07b74	-0.34469187
43	0xbec33dbc	-0.38133037
44	0x3ec9da70	0.39424467
45	0xbc410f02	-0.011783363
46	0xbec00152	-0.37501007
47	0x3e0639ea	0.1310803
48	0xbf375fbe	-0.71630466
49	0x3e777466	0.24165496
50	0xbf096057	-0.5366263
51	0xbdb21700	-0.08695793
52	0x3e51eb07	0.20499812
53	0xbf4038fd	-0.7508696
54	0x3e5046f4	0.20339566
55	0xbe7019fd	-0.23447414
56	0xbfc5ac66	-1.5443237
57	0x3d47320a	0.048631705
58	0x3bf1595a	0.007365388
59	0xbee29844	-0.44256794
60	0xbef94ff8	-0.48693824
61	0x3e7ce10a	0.2469522
62	0xbf4e24f5	-0.8052514
63	0x3da1670c	0.07880983
64	0xbf821aa3	-1.0164379
65	0xbef12f07	-0.47106192
66	0xbeac01a1	-0.33594993
67	0xbe8455f1	-0.25846818
68	0x3d90a284	0.070622474
69	0xbe40c444	-0.1882487
70	0x3d79338d	0.06084018
71	0x3d08e977	0.033425774
72	0xbff4b0ad	-1.9116417
73	0x3e67a83f	0.22622775
74	0xbe1e8a25	-0.15482385
75	0x3c891439	0.016733276
76	0x3ec58361	0.38576797
77	0x3ca1dd3a	0.01975881
78	0xbf373368	-0.71562815
79	0x3d0a832e	0.03381651
80	0xbea731a8	-0.32655072
81	0xbf30174b	-0.6878554
82	0x3eac2dad	0.33628598
83	0x3e27bd5d	0.1638083
84	0xbf552c7d	-0.8327101
85	0xbdddd990	-0.108325124
86	0xbe206bb7	-0.1566609
87	0x3e9ca96c	0.3059801
88	0xbcef0aaf	-0.029179899
89	0xbb1886e3	-0.0023273758
90	0xbdad1512	-0.084512845
91	0xbebc66c1	-0.36797145
92	0xbdbce707	-0.092237525
93	0x3f1c1913	0.6097576
94	0x3e9ae329	0.30251434
95	0xbe053f25	-0.13012369
96	0xbf27790c	-0.6541908
97	0xbe649a8c	-0.2232458
98	0x3f1783b3	0.5918533
99	0x3f2fe238	0.6870456
100	0xbfa304c5	-1.273583
101	0xbfa33415	-1.2750269
102	0xbdbcc58e	-0.09217368
103	0xbe10eefc	-0.14153665
104	0xbe87ba5a	-0.26509362
105	0x3ed75163	0.4205428
106	0xbec3e544	-0.38260853
107	0xbf1d672f	-0.6148557
108	0xbf2ac2ed	-0.66703683
109	0x3f0a3aed	0.53996164
110	0x3ecbd305	0.39809433
111	0x3edfe6ec	0.43730867
112	0xbe77cd69	-0.24199452
113	0xbfb9a56e	-1.450361
114	0xbed5cada	-0.41756326
115	0xbf2a732f	-0.66582006
116	0x3efc48cd	0.49274293
117	0xbe61a117	-0.22034107
118	0xbe988d7b	-0.2979544
119	0x3b92af80	0.0044764876
120	0xbc31a548	-0.010842629
121	0x3dcd44c0	0.10022879
122	0x3d0a910e	0.03382974
123	0xc0750658	-3.8285122
124	0xbc749e83	-0.01493037
125	0xbcaa3061	-0.020775022
126	0x3d1e6b0b	0.038676303
127	0x3dbc4a42	0.09193851
128	0xbd053fc6	-0.032531522
129	0x3d38d493	0.0451246
130	0xb9bbd1cf	-0.0003582374
131	0xbca42b7f	-0.020040272
132	0x3d51753a	0.051137187
133	0x3c9a0845	0.018802771
134	0x3c0bbcc1	0.008528889
135	0x3ca33e6e	0.01992723
136	0xbe34e986	-0.17667207
137	0xbe3dad8d	-0.18523236
138	0xbe6ef482	-0.2333546
139	0x3f1ba305	0.60795623
140	0xbf29ecdd	-0.6637705
141	0xbeb270df	-0.3485174
142	0xbda4e00f	-0.08050548
143	0xbf112254	-0.56693006
144	0x3f3900fb	0.7226712
145	0xbcc46bed	-0.023977244
146	0xbf8d2538	-1.1026983
147	0xbe9c9964	-0.30585778
148	0x3f2ea147	0.6821484
149	0xbeba048d	-0.36331597
150	0xbf006eca	-0.5016905
151	0xbf44b8fe	-0.76844776
152	0xbf24dbc1	-0.6439782
153	0x3b6abb80	0.0035817325
154	0x3e2dc12c	0.1696822
155	0xbf06bd40	-0.5263252
156	0xbe5ee1e0	-0.21765852
157	0x3e89d9f8	0.2692411
158	0x3cc46784	0.023975141
159	0xbf97094e	-1.1799715
160	0x3e3f79f8	0.18698871
161	0xbefe4cf0	-0.49668074
162	0x3e54c92c	0.20779866
163	0xbebe518f	-0.371716
164	0x3ee1c4c6	0.4409544
165	0xbe9e950d	-0.30973092
166	0xbcd294ec	-0.025705777
167	0xbe949fa1	-0.29028037
168	0x3f1cebe6	0.6129745
169	0x3ebff73e	0.37493318
170	0xbe3c8c80	-0.18412971
171	0xbff5a5d5	-1.9191233
172	0xbe1f4b40	-0.1555605
173	0xbf26d6b3	-0.65171355
174	0x3da18526	0.07886724
175	0x3eac5d5c	0.33664978
176	0xbd65d185	-0.056108017
177	0x3e8068ca	0.25079948
178	0x3d14c872	0.036323972
179	0xbe1ec0f9	-0.155033
180	0x3dfb8ef6	0.12283127
181	0xbdb638b5	-0.08897535
182	0x3e1dcd4e	0.15410349
183	0x3d511a90	0.051050723
184	0xbccc52ae	-0.024941768
185	0xbe5df424	-0.21675164
186	0x3e1d7666	0.15377197
187	0xbe0879d9	-0.13327731
188	0x3e1494d2	0.14509895
189	0xbf7141dd	-0.94241124
190	0xbea55a52	-0.3229547
191	0xbea08d0d	-0.31357613
192	0xbdc98ddf	-0.09841513
193	0xbf50553c	-0.8138006
194	0xbe7f89c4	-0.24954897
195	0xbe1fe403	-0.15614323
196	0x3dee57d7	0.11637848
197	0x3e0b63d6	0.13612303
198	0xbea6454d	-0.32474747
199	0xbfd40a2b	-1.6565603
200	0x3e024616	0.12722048
201	0x3e01eb89	0.12687506
202	0x3ebce804	0.36895764
203	0x3ea01b47	0.3127081
204	0xbe2c30f6	-0.16815552
205	0x3b4a3d4c	0.003085929
206	0xbdbb7a9b	-0.091542445
207	0x3d426e9a	0.04746876
208	0xbf30d700	-0.69078064
209	0xbf1b10cf	-0.6057252
210	0x3f13aa16	0.57681406
211	0x3f5c1837	0.8597445
212	0xbd1e6b9e	-0.03867685
213	0x3e99fa4d	0.30073777
214	0x3d86760d	0.06565485
215	0xbddaf7b4	-0.10691777
216	0xbd747b6c	-0.059688017
217	0xbec95f4f	-0.39330527
218	0xbe910186	-0.28321475
219	0x3c5b205c	0.013374414
220	0xbe31ac64	-0.17350918
221	0xbd0d6448	-0.034519464
222	0xbe537277	-0.20649134
223	0xbf882f41	-1.0639421
224	0x3ef3ac8f	0.4759259
225	0xbefe8f56	-0.49718732
226	0x3f27c445	0.6553386
227	0xbebf85ec	-0.37406862
228	0xbec90229	-0.3925946
229	0x3eb0bcf8	0.34519172
230	0xbeb2c6f4	-0.34917414
231	0x3dda0568	0.106455624
232	0xbe85178a	-0.2599452
233	0xbf830392	-1.0235465
234	0xbe1b3612	-0.15157345
235	0x3e8623f5	0.26199308
236	0xbee919ab	-0.45527396
237	0x3cef13c9	0.029184239
238	0x3e443754	0.19161731
239	0x3d82a097	0.06378286
240	0x3f25a72f	0.64708227
241	0x3ea66478	0.32498527
242	0x3d5b6a46	0.053568147
243	0xbeba640e	-0.3640446
244	0x3ee3f95e	0.4452619
245	0xbe532d80	-0.20622826
246	0xbf041acb	-0.5160338
247	0x3dac9e82	0.084286705
248	0xbfa3ad0d	-1.2787186
249	0xbf2df9cc	-0.67959285
250	0xbdaab426	-0.08335142
251	0xbf2b77e8	-0.6697984
252	0xbe6d1891	-0.23153903
253	0x3f310c30	0.6915922
254	0xbe3a736f	-0.18208097
255	0xbd2b490c	-0.04181771

fc1.bias f4 [128]
0	0x3dc404a9	0.09571201
1	0xbd4de8e4	-0.05027093
2	0x3dc8915c	0.0979335
3	0x3e26a3d7	0.16273437
4	0x3df5d863	0.12004163
5	0x3d740204	0.059572235
6	0xbe82451f	-0.2544336
7	0x3e81bd7d	0.2533988
8	0xbdbe2342	-0.09284069
9	0x3e225acc	0.15854949
10	0xbdb843da	-0.08997317
11	0x3e6edd2f	0.23326562
12	0xbdf05bc8	-0.11736256
13	0xbd0c96fa	-0.03432367
14	0xbcb68c1b	-0.022283604
15	0xbe6acd5c	-0.22929901
16	0x3d9a6c05	0.07540134
17	0x3e2d22a4	0.16907746
18	0xbe4932bb	-0.19648258
19	0x3e53654d	0.20644112
20	0x3e201ab4	0.15635186
21	0xbd467dfb	-0.048459988
22	0x3e1eff6e	0.15527126
23	0xbca01314	-0.019540347
24	0x3e49ae6b	0.19695441
25	0xbe2ead71	-0.1705835
26	0x3e3dfd3b	0.18553631
27	0x3dd70046	0.10498099
28	0xbbd43fdb	-0.0064773387
29	0x3d949f9a	0.07257004
30	0x3e3455e4	0.1761089
31	0x3e64e16f	0.22351621
32	0x3e587f46	0.21142301
33	0x3ca14a07	0.01968862
34	0xbddeff7e	-0.10888575
35	0xbd5fa850	-0.054603875
36	0xbe5f04fd	-0.21779247
37	0xbde51c03	-0.111869834
38	0xbd54e87e	-0.051979534
39	0xbe689bf2	-0.22715738
40	0xbd08e83d	-0.033424605
41	0xbd1c997e	-0.03823232
42	0xbd885aaa	-0.06657918
43	0x3d7aea6f	0.06125873
44	0xbd82383c	-0.06358382
45	0x3d08f4da	0.033436634
46	0xbe5cb2b7	-0.2155255
47	0x3db49ef0	0.088193774
48	0x3e2b3bc3	0.16722016
49	0x3c10d8f4	0.008840788
50	0x3dc87cb6	0.09789412
51	0xbe418efb	-0.18902199
52	0x3d426604	0.04746057
53	0xbccb5037	-0.024818523
54	0x3dc8cd07	0.09804731
55	0xbe194f09	-0.14971556
56	0x3e068fdb	0.13140814
57	0x3dd76a97	0.10518377
58	0x3e5779c4	0.21042544
59	0x3dbcd746	0.09220748
60	0x3d911917	0.07084864
61	0x3d3b0e24	0.045667782
62	0xbe5069ff	-0.20352934
63	0xbe4e91fb	-0.20172875
64	0xbe0fe245	-0.14051159
65	0xbd1c2fed	-0.038131643
66	0xbe18ab94	-0.14909202
67	0xbe5f687c	-0.21817201
68	0xbe596c2c	-0.2123267
69	0x3e55cd4a	0.20879093
70	0x3ddd5486	0.10807137
71	0x3d975122	0.07388522
72	0x3de144e1	0.10999466
73	0x3cb9e66c	0.022692882
74	0x3e6550e2	0.22394136
75	0xbde56fd7	-0.112029724
76	0xbd8e1fc4	-0.069396526
77	0xbe5740a1	-0.21020748
78	0x3ddbd995	0.1073486
79	0xbe4bc5d8	-0.1989969
80	0xbe196317	-0.14979206
81	0x3e01a0ea	0.1265904
82	0xbdb11c33	-0.08647957
83	0xbe271700	-0.16317368
84	0xbcd45571	-0.025919648
85	0xbdbb20bc	-0.09137103
86	0x3e8dfa61	0.27730086
87	0x3e7144c8	0.23561394
88	0xbe5e8c6f	-0.21733259
89	0xbe6d1677	-0.23153101
90	0x3de92595	0.11384121
91	0x3d36783b	0.044548254
92	0xbd80d013	-0.06289687
93	0xbe4d04ea	-0.20021406
94	0x3e58ec8f	0.2118399
95	0xbe77f469	-0.24214329
96	0xbd92d667	-0.071698
97	0x3e1679a2	0.14694837
98	0x3e295028	0.16534483
99	0xbdc2861f	-0.09498238
100	0x3e368279	0.17823209
101	0xbe0b8316	-0.13624224
102	0xbdf432ef	-0.11923777
103	0x3d20d035	0.03926106
104	0xbda90a73	-0.08253946
105	0x3e797241	0.2435999
106	0xbdec5dbf	-0.11541318
107	0x3e2d9458	0.1695112
108	0xbe3817e8	-0.1797787
109	0x3e6c0a34	0.23050767
110	0xbca1806b	-0.019714555
111	0xbda8e4d2	-0.08246769
112	0xbc8b01d6	-0.016968649
113	0x3e14381f	0.14474533
114	0xbd9d62d2	-0.07684864
115	0x3e04427e	0.1291599
116	0x3e6dfae1	0.23240234
117	0xbe65f99a	-0.22458497
118	0xbe0be9c8	-0.13663399
119	0xbe14d64d	-0.14534874
120	0x3d838f11	0.06423772
121	0xbe3ce0fc	-0.184452
122	0xbcfc0e28	-0.030768469
123	0x3e0566ae	0.1302745
124	0x3e650f45	0.22369106
125	0xbe3c2a01	-0.18375398
126	0xbd2e29b6	-0.042520247
127	0x3c31477e	0.010820268

bn1.weight f4 [128]
0	0x3ead8df9	0.3389738
1	0x3ea0cdd4	0.31407034
2	0x3f01d0a6	0.50709
3	0x3efe8cd2	0.49716812
4	0x3f11ff6b	0.5703036
5	0x3f0c73c8	0.5486417
6	0x3f07070f	0.52745146
7	0x3f7f37b5	0.9969438
8	0x3f0a4d08	0.5402379
9	0x3eef8f96	0.46789235
10	0x3f17d011	0.5930186
11	0x3ee78a02	0.4522248
12	0x3e097066	0.13421783
13	0x3eb7eab6	0.35921258
14	0x3f0aefd2	0.54272187
15	0x3f3bd1ec	0.7336719
16	0x3ea4a6a3	0.32158384
17	0x3ef2b588	0.47404122
18	0x3ee79c8a	0.45236617
19	0x3f0b5f7a	0.5444256
20	0x3f0c0bfa	0.54705775
21	0x3ee8fd32	0.45505673
22	0x3ed4b91a	0.4154747
23	0x3eae27b6	0.34014672
24	0x3ef9c5d0	0.4878373
25	0x3ea73c22	0.32663065
26	0x404caca8	3.198038
27	0x3fcf1946	1.6179588
28	0x3e1f889a	0.15579453
29	0x3f10b96a	0.5653292
30	0x3ed4b5a5	0.41544834
31	0x3f37df3f	0.7182502
32	0x401e1556	2.4700522
33	0x3e71587e	0.23568913
34	0x401c64f8	2.4436626
35	0x3f2b779e	0.66979396
36	0x3fdefbab	1.7420553
37	0x3ed008ad	0.4063162
38	0x3ed3f5a9	0.4139836
39	0x3f3f0f3f	0.7463264
40	0x3ebb6102	0.3659745
41	0x3e37c2bc	0.17945379
42	0x3f143930	0.5789976
43	0x3f9e16c2	1.2350695
44	0x3e8beabb	0.27327523
45	0x3dc5fc04	0.09667209
46	0x3f0fed06	0.56221044
47	0x3fcf8de0	1.6215172
48	0x3ec5df32	0.38646847
49	0x3f3e986e	0.7445134
50	0x3f0f0e63	0.5588133
51	0x3d6769b8	0.056497306
52	0x3ebc9f58	0.3684032
53	0x3f0b8b77	0.5450968
54	0x3f08caa5	0.5343421
55	0x3eb4bc28	0.35299802
56	0x3de8b142	0.11361934
57	0x3f01cef3	0.50706404
58	0x3eb8ec82	0.3611794
59	0x3f1ba378	0.6079631
60	0x3fa0fa8f	1.2576464
61	0x3f092599	0.53572994
62	0x3e69df79	0.22839154
63	0x3eba88f5	0.36432615
64	0x3f705016	0.938722
65	0x3fe6fc51	1.8045751
66	0x3e6883d6	0.22706541
67	0x3f82bc4f	1.0213717
68	0x3f245073	0.64185256
69	0x3ef7e793	0.48418865
70	0x3f05e01d	0.52295095
71	0x3f85c153	1.0449623
72	0x3e85bf5a	0.26122552
73	0x3e2143f8	0.15748584
74	0x3eb659e4	0.35615456
75	0x3f037977	0.51357216
76	0x3f08607d	0.5327223
77	0x3f019276	0.50614107
78	0x3ef3bf60	0.47606945
79	0x3f2f81e5	0.6855758
80	0x3ee3f19f	0.4452028
81	0x3f2954a2	0.66144764
82	0x3f63a9bd	0.88930875
83	0x3ee0ad8a	0.438824
84	0x3eb51271	0.35365632
85	0x3f6bb227	0.92068714
86	0x400a6712	2.162541
87	0x3ea3ff83	0.32030877
88	0x3f093a49	0.5360456
89	0x3ed17913	0.40912685
90	0x3edf7ec0	0.4365139
91	0x3f47afb2	0.78002465
92	0x3ed89836	0.42303628
93	0x3ea6833d	0.32522002
94	0x3dc807cb	0.097671114
95	0x3f1118c1	0.56678396
96	0x3e15e585	0.14638336
97	0x3efec1bc	0.49757183
98	0x3f81e3d6	1.0147655
99	0x3e9db663	0.30803213
100	0x3f0f8fbc	0.56078696
101	0x3f01b595	0.506677
102	0x3e80ecab	0.25180563
103	0x3e3beee3	0.18352847
104	0x3f748041	0.955082
105	0x3cb27a11	0.021786721
106	0x3f1b65e8	0.6070237
107	0x3e914564	0.28373253
108	0x3d688181	0.05676413
109	0x3ed2b8d3	0.41156635
110	0x3eefdcf8	0.46848273
111	0x3e6b1393	0.22956686
112	0x3f4e5bcc	0.8060882
113	0x3e8d6633	0.27617034
114	0x3f86ef3d	1.054176
115	0x3e93dda5	0.2888004
116	0x3edc27ea	0.42999202
117	0x3f1302c9	0.57426125
118	0x3ecb95d6	0.39762753
119	0x3e974b28	0.29549527
120	0x3f0bcb57	0.54607147
121	0x3fb1949f	1.387348
122	0x3ec1de5c	0.3786496
123	0x3f070fd7	0.52758545
124	0x3eec0388	0.46096444
125	0x3eabec63	0.33578786
126	0x3f80c4c4	1.0060048
127	0x3ea4d322	0.32192332

bn1.bias f4 [128]
0	0xbeae8332	-0.3408447
1	0xbf0d3741	-0.55162436
2	0xbe03479c	-0.12820286
3	0xbf08dd23	-0.5346243
4	0xbf304f1d	-0.6887072
5	0xbf05f098	-0.5232024
6	0xbf2f3dae	-0.6845349
7	0xbf5ebf97	-0.8701109
8	0xbf45fddd	-0.7734049
9	0xbdedcbac	-0.11611113
10	0xbf1af98a	-0.60537016
11	0xbeebc9c0	-0.4605236
12	0xbea04bc1	-0.31307796
13	0xbe692a13	-0.22769956
14	0xbf146a99	-0.57975155
15	0xbf3a7d20	-0.72847176
16	0xbe460652	-0.19338349
17	0xbe921be1	-0.28536895
18	0xbefc2250	-0.49244928
19	0xbf167ecc	-0.58787227
20	0xbe61ca3c	-0.22049803
21	0xbef4b629	-0.47795227
22	0xbed6866c	-0.4189943
23	0xbe70bb00	-0.23508835
24	0xbf3ec396	-0.7451719
25	0xbf12d178	-0.57350874
26	0xc00c8b7b	-2.1960132
27	0xbf1bc567	-0.6084809
28	0x3dc459b0	0.09587419
29	0xbf1abd2b	-0.604449
30	0xbf1e13c1	-0.6174889
31	0xbf484f46	-0.7824596
32	0xbfec714d	-1.8472077
33	0x3c80f473	0.015741562
34	0xbfed01fa	-1.8516228
35	0xbf172c31	-0.59051806
36	0xbffe22cc	-1.9854369
37	0xbed25d30	-0.4108672
38	0xbf4ffb34	-0.8124268
39	0xbf2f92e8	-0.68583536
40	0xbeb1c0fa	-0.34717542
41	0xbebbd224	-0.36683762
42	0xbeb759e6	-0.35810775
43	0xbf51f4ab	-0.8201396
44	0xbec86f33	-0.39147338
45	0xbf2e22c3	-0.6802179
46	0xbf0a29bd	-0.5396994
47	0xbf89dbde	-1.0770223
48	0xbf06e631	-0.52694994
49	0xbf5d5fc2	-0.8647424
50	0xbf20d87d	-0.62830335
51	0xbe2c68be	-0.16836831
52	0xbd433363	-0.047656428
53	0xbf1753dc	-0.59112334
54	0xbf51bc68	-0.8192811
55	0xbef0eb25	-0.470544
56	0xbec7a71c	-0.38994682
57	0xbe79dc21	-0.24400379
58	0xbf0ae409	-0.54254204
59	0xbf043bbf	-0.51653665
60	0xbf75fe8f	-0.9609155
61	0xbf10879c	-0.56456923
62	0xbea1ec1a	-0.31625444
63	0xbf0ca692	-0.54941666
64	0xbf37606c	-0.71631503
65	0xbf94ec4d	-1.1634613
66	0xbeb437b6	-0.35198754
67	0xbf1aeaef	-0.6051473
68	0xbf36c2c1	-0.7139092
69	0xbee4e5d0	-0.44706583
70	0xbf101f42	-0.56297696
71	0xbf44a5c2	-0.76815426
72	0xbe5177a7	-0.204558
73	0xbee7f647	-0.45305082
74	0xbd7d3120	-0.061814427
75	0x3cba8528	0.022768572
76	0xbf0f9880	-0.5609207
77	0xbe9f42a0	-0.31105518
78	0xbe9a380a	-0.3012088
79	0xbf06b54c	-0.5262039
80	0xbf39105e	-0.722906
81	0xbe60308e	-0.21893522
82	0xbf6fdb91	-0.93694407
83	0xbe888d78	-0.26670432
84	0xbf22694d	-0.63441926
85	0xbf313192	-0.69216263
86	0xbfcb669b	-1.5890688
87	0xbf1e20f7	-0.6176905
88	0xbf0381d9	-0.51370007
89	0xbf0aede4	-0.5426924
90	0xbf39da1d	-0.7259844
91	0xbf66f541	-0.9021798
92	0xbec7ade3	-0.38999853
93	0xbe6e4145	-0.23267086
94	0xbe7d2f61	-0.24725105
95	0xbf39d6e1	-0.72593504
96	0xbdd23ed3	-0.10265889
97	0xbf301e4a	-0.6879622
98	0xbf2fd773	-0.68688124
99	0xbf20cf7e	-0.6281661
100	0xbeb41dc1	-0.3517895
101	0xbecfb7b0	-0.4056983
102	0xbf03ced1	-0.5148745
103	0xbe97a58a	-0.29618484
104	0xbf1f5599	-0.62239987
105	0xbd3c0f1f	-0.045912858
106	0xbf2146b8	-0.62998533
107	0xbdb26e39	-0.087124296
108	0xbe0257a0	-0.12728739
109	0xbdda6a9c	-0.106648654
110	0xbf14a147	-0.5805859
111	0xbf1737ef	-0.5906972
112	0xbf010dd2	-0.50411713
113	0xbeb3efcf	-0.35143897
114	0xbf23fe25	-0.6405967
115	0xbefe0712	-0.4961477
116	0xbf79454f	-0.9737138
117	0xbf13d3fe	-0.5774535
118	0xbefdd91f	-0.49579713
119	0xbeb0b079	-0.34509638
120	0xbef280c0	-0.47363853
121	0xbf519366	-0.8186554
122	0xbef0ad4a	-0.4700721
123	0xbee870a7	-0.45398447
124	0xbf77cb0e	-0.9679421
125	0xbf0e47a2	-0.55578053
126	0xbf83c368	-1.0294008
127	0xbe71b17f	-0.23602866

bn1.running_mean f4 [128]
0	0xc2943162	-74.09645
1	0x41333af0	11.201889
2	0x410446b7	8.267264
3	0xc2db81e5	-109.7537
4	0xc289cdd9	-68.90205
5	0xc2159ac9	-37.401157
6	0xc27ae81f	-62.72668
7	0xc288f629	-68.48078
8	0xc2973feb	-75.62484
9	0xc1a6c8dd	-20.848078
10	0xc24c492c	-51.071457
11	0xc28986b5	-68.7631
12	0xc143d758	-12.240074
13	0xc268c53d	-58.192616
14	0xc1fec1b4	-31.844582
15	0x4274a1b6	61.15792
16	0xc24e51c6	-51.579857
17	0xc2a4fc53	-82.49282
18	0xc21fcce6	-39.950096
19	0xc255571c	-53.335068
20	0xc294b75a	-74.35811
21	0x3f984f7a	1.1899254
22	0xc26cfc0f	-59.24615
23	0xc21d01f1	-39.251896
24	0x42b431b7	90.0971
25	0xc18578e0	-16.684021
26	0xc36334f1	-227.2068
27	0xc2d59d1d	-106.80686
28	0xc10e4dbc	-8.893978
29	0xc2286292	-42.09626
30	0xc1d96753	-27.175451
31	0xc2542c6d	-53.043385
32	0xc354003c	-212.00092
33	0xc10992b4	-8.598316
34	0xc311ecbe	-145.92477
35	0x429b601f	77.68774
36	0xc2ccdea5	-102.43485
37	0x41d278aa	26.308918
38	0x4109c415	8.610372
39	0xc20a38dc	-34.555527
40	0x4269eb02	58.4795
41	0xc22bcb53	-42.94856
42	0xc23219d6	-44.52523
43	0xc2acf7e8	-86.48419
44	0xc21af35c	-38.737656
45	0x42573b53	53.807934
46	0xc12eb995	-10.920308
47	0xc2c63cae	-99.118515
48	0x42bba3d5	93.819984
49	0x421d40a0	39.31311
50	0x3e145959	0.14487208
51	0x413f439d	11.954007
52	0xc29edf3f	-79.43603
53	0xc1878a05	-16.942392
54	0xc1a3e745	-20.487925
55	0xc287bc45	-67.867714
56	0xbe85efe2	-0.2615958
57	0xc175b1e3	-15.355929
58	0xc1731ed3	-15.195025
59	0xc23c2515	-47.036213
60	0xc288f29e	-68.47386
61	0xc2858713	-66.76382
62	0xc22880d5	-42.125813
63	0xc2218640	-40.381104
64	0x41f1137f	30.13452
65	0xc3026906	-130.41025
66	0xc1cf4494	-25.908485
67	0xc2815ebd	-64.685036
68	0xc24d7259	-51.361668
69	0xc22f2464	-43.785538
70	0xc28314e7	-65.540825
71	0xc27de45e	-63.473015
72	0xc1ed1ed0	-29.640045
73	0x41912835	18.144632
74	0xc1df6fad	-27.92953
75	0xc28a5092	-69.157364
76	0xc0bf1b0f	-5.972053
77	0xc1ebcf59	-29.476244
78	0xc241cdda	-48.451027
79	0xc29a6797	-77.202324
80	0xc2a1058e	-80.51085
81	0x427393cb	60.89433
82	0xc2db48b4	-109.642
83	0xc2786d7c	-62.10692
84	0x41cc3360	25.525085
85	0x4279d9d7	62.462734
86	0xc31bf96c	-155.9743
87	0xc2233fdd	-40.812366
88	0x41efd6a6	29.979809
89	0xc226ad65	-41.66933
90	0xc237d949	-45.962193
91	0xc21a1c39	-38.52756
92	0xc232a641	-44.662357
93	0x42319328	44.393707
94	0xc0f54f54	-7.6659336
95	0x41aabb38	21.341415
96	0xc2914dde	-72.652084
97	0x41af95e0	21.948181
98	0x428bee4a	69.96541
99	0x42120ba0	36.511353
100	0xc219386c	-38.3051
101	0xc2852a5f	-66.582756
102	0x425e2d4d	55.54424
103	0xc2103809	-36.05472
104	0xc2929d07	-73.306694
105	0xc23f0e3d	-47.763905
106	0x3fb862d0	1.4405155
107	0xc21f8ea0	-39.889282
108	0xc1eabffb	-29.34374
109	0xc1c6ddba	-24.858265
110	0xc2b13a17	-88.61346
111	0xc20b7d58	-34.872406
112	0xc2601177	-56.017056
113	0xc2868203	-67.25393
114	0xc25d3e21	-55.310673
115	0xc20355a0	-32.83362
116	0xc25271df	-52.611202
117	0x41fce9ec	31.61422
118	0xc1aaafee	-21.335903
119	0xc2036cb5	-32.85616
120	0x41cd4358	25.657883
121	0xc2889ae2	-68.302505
122	0xc2829efa	-65.3105
123	0x40743a5b	3.8160617
124	0xc28451e3	-66.159935
125	0xc18e10b1	-17.75815
126	0xc261624d	-56.345997
127	0x416068bb	14.025569

bn1.running_var f4 [128]
0	0x455722b4	3442.169
1	0x44c3313a	1561.5383
2	0x44a64590	1330.1738
3	0x45c6e16b	6364.1772
4	0x45779e35	3961.888
5	0x4530e8e3	2830.5554
6	0x456af25a	3759.147
7	0x45ede093	7612.072
8	0x4571ad37	3866.826
9	0x44cef1fb	1655.5619
10	0x4530a574	2826.3408
11	0x456e614a	3814.0806
12	0x4481546d	1034.6383
13	0x4543e1c7	3134.111
14	0x450acaff	2220.6873
15	0x4545bdb9	3163.8577
16	0x44e6b55d	1845.6676
17	0x4590ecc8	4637.5977
18	0x451eaa43	2538.6414
19	0x45478fc1	3192.9846
20	0x456b59fd	3765.6243
21	0x4495a959	1197.2921
22	0x45290c8c	2704.7842
23	0x4523b916	2619.5679
24	0x45842a1d	4229.264
25	0x44a8e26c	1351.0757
26	0x475e5dbd	56925.74
27	0x467762bb	15832.683
28	0x4480aa1d	1029.316
29	0x451c886c	2504.5264
30	0x4505dedb	2141.9285
31	0x45639d98	3641.8496
32	0x47688634	59526.203
33	0x446ede5c	955.47437
34	0x46ea05c9	29954.893
35	0x457037d0	3843.4883
36	0x464f77ee	13277.982
37	0x4516ba72	2411.6528
38	0x44ae7a38	1395.8193
39	0x44ccdd28	1638.9111
40	0x45451364	3153.212
41	0x449806ca	1216.2122
42	0x45735576	3893.3413
43	0x45f9540f	7978.5073
44	0x44f7b026	1981.5046
45	0x4502dc78	2093.7793
46	0x44bdad85	1517.4225
47	0x46424ba6	12434.912
48	0x4585d8f5	4283.1196
49	0x451eacdb	2538.8035
50	0x45036651	2102.3948
51	0x449bbcd0	1245.9004
52	0x4567344f	3699.2693
53	0x44ca42c8	1618.0869
54	0x44d19d92	1676.9241
55	0x45593bc8	3475.7363
56	0x4494dac9	1190.837
57	0x448aca06	1110.3132
58	0x4504eae8	2126.6816
59	0x44e7eb5b	1855.3549
60	0x45d1b1d2	6710.2275
61	0x45484d3b	3204.827
62	0x44d700f2	1720.0295
63	0x452fa0c2	2810.0474
64	0x451d3b7c	2515.7178
65	0x46af8c49	22470.143
66	0x450182b9	2072.1702
67	0x45cebcb3	6615.5874
68	0x450a2ac1	2210.672
69	0x450b2ae0	2226.6797
70	0x4546927a	3177.1548
71	0x45c8f597	6430.6987
72	0x44c2a174	1557.0454
73	0x448baac0	1117.3359
74	0x44e3ee93	1823.4554
75	0x451fb1b2	2555.106
76	0x44c8645f	1603.1366
77	0x450cafca	2250.9868
78	0x450a8e90	2216.9102
79	0x45446508	3142.3145
80	0x458eae00	4565.75
81	0x454a0f9f	3232.9763
82	0x45d5fbe8	6847.4883
83	0x4549ec27	3230.7595
84	0x44c2e981	1559.297
85	0x45a9135a	5410.419
86	0x46fc8aa3	32325.318
87	0x44d0ccba	1670.3977
88	0x44df97c0	1788.7422
89	0x44c1a215	1549.0651
90	0x450f018d	2288.097
91	0x453f3037	3059.0134
92	0x4511d953	2333.5828
93	0x45294584	2708.3447
94	0x4469f5ab	935.83856
95	0x452f0d1f	2800.82
96	0x45539151	3385.0823
97	0x44dca8e9	1765.2784
98	0x459f3b53	5095.4155
99	0x44e3c807	1822.2509
100	0x452ece0f	2796.8787
101	0x459397fb	4722.9976
102	0x452288cc	2600.5498
103	0x44f61845	1968.7584
104	0x45e2072c	7232.8965
105	0x44b8287e	1473.2654
106	0x4500922e	2057.1362
107	0x44cfd071	1662.5138
108	0x448e6a2c	1139.3179
109	0x44f122dd	1929.0895
110	0x4588c859	4377.0435
111	0x44a1afa7	1293.4891
112	0x45589770	3465.4648
113	0x4575b26d	3931.1516
114	0x45b05f6a	5643.927
115	0x44df6c2d	1787.3805
116	0x45326535	2854.3254
117	0x44ddd2d8	1774.5889
118	0x450a4d6c	2212.8389
119	0x44d293a5	1684.6139
120	0x44fededc	2038.9644
121	0x45a2cea4	5209.83
122	0x45643aa7	3651.6658
123	0x44f5fe97	1967.9559
124	0x456f1a19	3825.631
125	0x44327a14	713.9075
126	0x4591509d	4650.0767
127	0x445c9d1d	882.4549

fc2.weight f4 [128, 128]
0	0x3eb21549	0.34781864
1	0x3d3f9adb	0.04677854
2	0xbe95d5f6	-0.29264802
3	0x3dd08b17	0.10182779
4	0xbdfd40fe	-0.12365912
5	0xbe0caff8	-0.13739002
6	0xbe45ab1f	-0.19303559
7	0x3e4d07d7	0.20022522
8	0x3e5db6af	0.2165172
9	0xbdc0f717	-0.09422129
10	0x3e3c1f4f	0.18371318
11	0x3e1ef5b6	0.15523419
12	0x3e5affe0	0.21386671
13	0x3e243e34	0.16039354
14	0xbf07a4c4	-0.5298579
15	0x3e0ebf9b	0.13940279
16	0x3d97f431	0.07419623
17	0xbd2bb88f	-0.041924056
18	0xbe8ed25d	-0.2789487
19	0x3c97422f	0.018464176
20	0xbeb8cec1	-0.3609524
21	0x3e18c290	0.1491797
22	0xbe219792	-0.15780476
23	0xbeb3af06	-0.3509447
24	0x3e7b14ec	0.245197
25	0xbe3c4a3c	-0.18387693
26	0x3e403405	0.18769844
27	0x3f531f5a	0.82469714
28	0x3c5093ce	0.012730552
29	0xbd4a4cb7	-0.049389567
30	0x3e51e0b5	0.20495875
31	0xbe9f1a21	-0.31074622
32	0x3c21e1f9	0.009880536
33	0xbce3a6ec	-0.027789555
34	0x3f970a6e	1.1800058
35	0x3dd8ee26	0.10592298
36	0x3e63509b	0.22198717
37	0xbdf120ec	-0.117738575
38	0xbe854bb7	-0.26034328
39	0x3e5d12de	0.21589229
40	0x3e17aa8a	0.14811149
41	0xbdb200a2	-0.08691527
42	0x3e180fab	0.14849727
43	0x3eb75833	0.35809478
44	0x3dc02e58	0.09383839
45	0xbeadc705	-0.33940902
46	0xbe9f94f7	-0.3116834
47	0x3ca3be87	0.019988311
48	0xbba793a2	-0.0051140347
49	0xbf337993	-0.7010738
50	0xbe9bca07	-0.30427572
51	0x3c75460e	0.014970316
52	0x3ddce522	0.10785891
53	0x3eabad36	0.33530587
54	0xbf8aa1c4	-1.0830617
55	0xbe1ee2fe	-0.15516278
56	0xbd4a6510	-0.049412787
57	0x3d48622c	0.04892175
58	0xbcabd8b5	-0.020977357
59	0xbc645521	-0.013936312
60	0x3f66f50a	0.9021765
61	0xbee5cf4f	-0.44884726
62	0xbf0553a5	-0.52080756
63	0x3e483337	0.19550787
64	0xbf24b2ea	-0.643355
65	0xbeb66b19	-0.35628584
66	0x3e4e802f	0.20166086
67	0x3ed2905c	0.41125762
68	0x3d0d5882	0.034508236
69	0x3edc5ca5	0.43039432
70	0xbf325c44	-0.69672036
71	0x3f2d160e	0.6761178
72	0x3d272dec	0.04081528
73	0xbd5668d3	-0.052346062
74	0x3e5f7044	0.2182017
75	0x3dd4b79f	0.103865854
76	0x3e51abe1	0.20475723
77	0xbd777bea	-0.060420908
78	0xbe77c122	-0.24194768
79	0x3dfff3b7	0.12497657
80	0x3f03e3a7	0.51519245
81	0x3e128b69	0.14310993
82	0x3e3b467b	0.18288605
83	0xbe383639	-0.17989434
84	0x3e9231a5	0.285535
85	0xbe969b1b	-0.2941521
86	0x3e96424d	0.29347458
87	0xbec8936c	-0.39174974
88	0xbe12b198	-0.14325559
89	0xbeb8a4f0	-0.36063337
90	0x3e82f289	0.25575665
91	0x3e5abec4	0.21361834
92	0x3cda6b25	0.026662419
93	0xbe583a13	-0.21115904
94	0xbdbc14ae	-0.09183632
95	0x3ead0d59	0.33799246
96	0x3d8e0607	0.069347434
97	0x3e91c8eb	0.284736
98	0xbbac29ab	-0.0052539906
99	0xbbcc29a7	-0.0062305513
100	0x3d3593b6	0.04433032
101	0xbe0d3972	-0.13791445
102	0xbdc4ec45	-0.09615377
103	0x3d472f21	0.04862893
104	0x3e8b6efc	0.27233112
105	0xbde17079	-0.110077806
106	0xbf21a3ab	-0.6314036
107	0xbe934b0b	-0.2876819
108	0xbe889ed0	-0.26683664
109	0x3d45749d	0.048206914
110	0x3e813bea	0.25241023
111	0xbe7e26f8	-0.24819553
112	0x3e962aa3	0.29329404
113	0x3e03d251	0.12873198
114	0xbd8e9fd7	-0.06964081
115	0xbdf942f8	-0.121709764
116	0xbf8b7ff5	-1.0898424
117	0xbe9918e8	-0.29901814
118	0xbdb2adf8	-0.08724588
119	0xbe6a7d8d	-0.22899456
120	0x3d9bdd5f	0.076105826
121	0x3ee7bc09	0.45260647
122	0xbdebaf7f	-0.115080826
123	0xbe8a684d	-0.270327
124	0xbe7bbbe4	-0.24583393
125	0x3e67ae04	0.22624975
126	0x3f355188	0.7082753
127	0x3e0fa2d0	0.14026952
128	0xbe4200d9	-0.18945636
129	0x3dc5ce8b	0.096585356
130	0xbf9ac394	-1.2090936
131	0xbe71b287	-0.23603259
132	0xbe769617	-0.24080692
133	0xbf11935d	-0.56865484
134	0x3e06fb7f	0.13181876
135	0xbe1537b4	-0.1457203
136	0xbf35fe2a	-0.7109095
137	0xbd2b6348	-0.04184273
138	0x3e08030d	0.13282414
139	0x3cf8d95a	0.030377079
140	0xbbd23796	-0.0064153178
141	0xbe95407f	-0.2915077
142	0xbd81ca67	-0.06337433
143	0xbf0069f6	-0.50161684
144	0xbf03432d	-0.5127438
145	0x3e3f3cf4	0.18675596
146	0xbd8815fe	-0.0664482
147	0x3e6c5a35	0.23081286
148	0x3e65da49	0.2244655
149	0xbe569cab	-0.20958202
150	0xbdf17541	-0.117899425
151	0xbe46896d	-0.19388361
152	0xbed488fd	-0.41510764
153	0x3c5de54c	0.013543438
154	0x400946ea	2.1449533
155	0x3f2c7a64	0.67374253
156	0xbc910a78	-0.017705187
157	0xbc9bfac3	-0.019040471
158	0xbeedbe67	-0.46434328
159	0x3dafaf8c	0.08578405
160	0x3cdfba22	0.027310435
161	0xbebc180f	-0.36737105
162	0x3e63242c	0.22181767
163	0xbe741ca0	-0.23839045
164	0x3db67cc4	0.08910516
165	0xbdbb2bff	-0.09139251
166	0xbdc94793	-0.09828105
167	0x3e36a303	0.17835622
168	0xbd1c328e	-0.03813415
169	0xbdc4b664	-0.09605101
170	0x3d5ca071	0.053863946
171	0x3f1a3a43	0.6024515
172	0xbce95184	-0.028481252
173	0x3e4740fe	0.19458386
174	0xbef9459b	-0.48685917
175	0xbf416870	-0.75549984
176	0x3f18067b	0.5938489
177	0xbe3c30d4	-0.18378001
178	0x3d205b48	0.039149553
179	0x3db9781e	0.09056114
180	0xbe26bb4f	-0.1628239
181	0x3e95cd7b	0.29258332
182	0x3e1acac1	0.15116407
183	0x3ea26703	0.31719217
184	0x3d4bad26	0.049725674
185	0xbd69c87f	-0.057075974
186	0x3e8b3a16	0.27192754
187	0x3e8ffdbe	0.28123277
188	0x3dd62496	0.10456197
189	0x3f14894e	0.5802201
190	0x3dd7c3c5	0.10535387
191	0xbdfb2040	-0.122620106
192	0x3e4e64ce	0.20155641
193	0x3d339e9d	0.043852437
194	0xbe6545a2	-0.22389844
195	0x3d088022	0.033325322
196	0x3e13679e	0.14394996
197	0xbe3ed346	-0.18635282
198	0xbeb6fc6a	-0.35739452
199	0x3dfc35bf	0.12314939
200	0x3df231e9	0.11825926
201	0xbda421da	-0.08014269
202	0xbde56baf	-0.1120218
203	0xbe7f4c2f	-0.24931405
204	0x3e1dbb7a	0.15403548
205	0x3e8371d0	0.2567277
206	0xbe112ec2	-0.14177993
207	0x3e0586c6	0.13039693
208	0xbe4a8dc8	-0.19780648
209	0x3ed56570	0.41678953
210	0xbe5b30d5	-0.21405347
211	0xbd33faf0	-0.043940485
212	0xbf1b4512	-0.6065227
213	0xbeb5a95b	-0.3548077
214	0x3e316ad7	0.17325912
215	0xbe6a0abb	-0.22855656
216	0xbf02a0d5	-0.5102666
217	0xbdbd9e06	-0.09258656
218	0xbded6df0	-0.115932345
219	0xbdf1e837	-0.118118696
220	0xbfde9aa2	-1.739094
221	0x3def8e0c	0.11697015
222	0x3de614e7	0.112344556
223	0xbe44a32e	-0.19202873
224	0x3e03084d	0.12796135
225	0xbe5d08a2	-0.21585324
226	0xbec9644f	-0.39334342
227	0xbd84eb3d	-0.06490181
228	0x3e09dc65	0.1346298
229	0x3f1ae3d9	0.6050392
230	0xbd9e5bc3	-0.07732346
231	0x3e256690	0.16152406
232	0x3ea8de27	0.3298199
233	0xbea36766	-0.31914824
234	0xbd3cf2c3	-0.046129953
235	0xbe0c4501	-0.13698198
236	0x3e6e91f2	0.23297861
237	0xbdcec8c7	-0.10096889
238	0x3e02ea70	0.12784743
239	0xbe87a007	-0.2648928
240	0x3e32372d	0.1740386
241	0x3d8951ab	0.0670503
242	0x3e2849b8	0.16434371
243	0x3e8055a8	0.2506535
244	0x3d704c0b	0.05866627
245	0xbd79a3ae	-0.060947113
246	0xbdc3d4df	-0.09562086
247	0xbb54a4d0	-0.0032446869
248	0xbf2d3cdc	-0.6767099
249	0x3e128243	0.14307503
250	0x3dcc75e8	0.09983426
251	0xbedc2074	-0.4299351
252	0x3d681164	0.05665721
253	0x3e00fab3	0.12595634
254	0xbd8db5fe	-0.06919478
255	0xbe408286	-0.1879979

fc2.bias f4 [128]
0	0xbdddf0cb	-0.10836943
1	0x3d125c9f	0.03573286
2	0xbdc608e5	-0.09669665
3	0x3cbb2438	0.022844419
4	0x3e17530c	0.14777774
5	0xb8adbe46	-8.284724e-05
6	0xbddb34f9	-0.10703463
7	0x3db6465a	0.08900137
8	0xbece6e4d	-0.40318528
9	0xbda45fba	-0.08026071
10	0x3ec3cf8c	0.38244283
11	0x3d765148	0.06013611
12	0x3ebc200f	0.3674321
13	0x3df76b38	0.12080997
14	0xbde7d211	-0.11319364
15	0xbe44ec17	-0.19230686
16	0x3dd2261e	0.102611765
17	0x3db53e15	0.08849732
18	0xbe1a975c	-0.15096802
19	0xbb957a18	-0.004561674
20	0xbd97a37e	-0.074042305
21	0xbd5ecc87	-0.05439427
22	0x3db95aa3	0.09050491
23	0x3e4694bd	0.19392677
24	0xbdc3af40	-0.09554911
25	0x3fa6a259	1.3018295
26	0xbe557078	-0.20843685
27	0xbc6b3913	-0.014356869
28	0xbe77ea49	-0.24210466
29	0xbe2d1682	-0.16903117
30	0xbeab3b82	-0.33443838
31	0x3e96ecbe	0.29477495
32	0xbe848219	-0.25880507
33	0x3e177d1b	0.14793818
34	0x3e49b5b0	0.19698215
35	0x3db98782	0.09059049
36	0x3c146ea1	0.009059579
37	0xbdbe3791	-0.09287942
38	0xbaf88081	-0.0018959196
39	0xbe39b11e	-0.18133971
40	0x3e415af5	0.18882354
41	0x3db684bf	0.08912038
42	0xbca5b8b3	-0.020229673
43	0x3db9d2c6	0.09073405
44	0x3e1e6375	0.15467627
45	0x3d362ed4	0.044478253
46	0x3e2d0dc4	0.16899782
47	0xbdcdd5e7	-0.10050564
48	0x3e6bb6ec	0.23018998
49	0x3ee59dd4	0.44846976
50	0x3d804151	0.06262458
51	0xbe26e6d3	-0.1629899
52	0x3e9786cb	0.29595026
53	0x3e4197e1	0.18905593
54	0xbef6d99b	-0.48212895
55	0xbe2102aa	-0.15723673
56	0xbd907533	-0.07053604
57	0xbc8fc276	-0.01754878
58	0xbe8915c8	-0.2677443
59	0xbe0eaffa	-0.13934317
60	0x3d19caba	0.03754685
61	0xbdba5e6d	-0.091000415
62	0xbd5ea89d	-0.05436002
63	0xbe287396	-0.16450343
64	0x3dc7d1b0	0.097567916
65	0x3e3d3755	0.18478139
66	0xbe10d3c9	-0.1414329
67	0xbed158d4	-0.40888083
68	0xbd195187	-0.037431266
69	0xbda99b94	-0.08281627
70	0x3e6ce15d	0.23132844
71	0x3eb3b28f	0.35097167
72	0x3ef7b506	0.48380297
73	0xbd379553	-0.04482014
74	0x3e18c45e	0.14918658
75	0x3e26599c	0.16245121
76	0xbd030c55	-0.031994183
77	0xbe95730f	-0.29189345
78	0x3d830761	0.06397892
79	0x3d7e5368	0.06209126
80	0xbe4b4e46	-0.19854078
81	0xbdb34ded	-0.087550975
82	0xbe0b5765	-0.13607557
83	0xbe43250c	-0.19057101
84	0x3e97f156	0.29676312
85	0xbe84deca	-0.25951225
86	0x3e227cf7	0.15867983
87	0x3d0e177c	0.034690365
88	0x3ea72a6b	0.3264955
89	0x3cad4c91	0.021154674
90	0x3b980057	0.0046387124
91	0xbd744f07	-0.05964568
92	0x3caa7801	0.020809175
93	0xbf1ffe42	-0.6249734
94	0x3cbed20c	0.023293518
95	0xbebc6aee	-0.3680033
96	0xbdb1b126	-0.086763665
97	0x3e367732	0.17818907
98	0x3de9cf71	0.114165194
99	0xbf676670	-0.9039068
100	0x3dca2527	0.098703675
101	0xbdce38f1	-0.100694545
102	0xbe2e74f8	-0.17036808
103	0x3e007166	0.12543258
104	0xbdd2dd15	-0.10296074
105	0xbd12faa0	-0.035883546
106	0x3d9985df	0.07496237
107	0x3e3ef2be	0.18647286
108	0xbebba619	-0.3665016
109	0x3db3ade6	0.08773403
110	0x3da22ee3	0.07919099
111	0xbdd4632f	-0.1037048
112	0xbe470a92	-0.19437626
113	0xbc6b7f48	-0.014373608
114	0xbce59d92	-0.028029237
115	0x3e60b650	0.21944547
116	0xbe088a3b	-0.1333398
117	0x3e4101bb	0.18848316
118	0x3d2655f3	0.04060931
119	0x3e3beb51	0.18351485
120	0x3e8489f2	0.25886494
121	0x3e00d675	0.12581809
122	0x3e1b6f69	0.15179218
123	0x3e148db3	0.14507179
124	0x3d6e958b	0.058248084
125	0x3dc1bb65	0.09459571
126	0xbed98588	-0.4248469
127	0xbe638a96	-0.22220835

bn2.weight f4 [128]
0	0x3f10fe9b	0.566385
1	0x3f0fd97b	0.56191224
2	0x3eac4ee1	0.3365393
3	0x3e151be7	0.14561425
4	0x3ea3d9a0	0.32001972
5	0x3f0989e3	0.53726023
6	0x3e97dcb4	0.2966057
7	0x3eb416f1	0.35173753
8	0x3e404468	0.18776095
9	0x3e882a9e	0.26595014
10	0x3ed02ae3	0.4065772
11	0x3f11c9f6	0.5694879
12	0x3f2cc8b3	0.6749374
13	0x3ed9f114	0.4256674
14	0x3e62b39b	0.22138827
15	0x3f4701a6	0.7773689
16	0x3e7bcb34	0.24589235
17	0x3ef99b37	0.48751232
18	0x3ee86f09	0.45397213
19	0x3ea21164	0.31653893
20	0x3e6239df	0.22092389
21	0x3f1e2b55	0.6178487
22	0x3f258983	0.6466295
23	0x3e77da70	0.24204421
24	0x3e9880ef	0.2978587
25	0x3f5b1b6d	0.85588723
26	0x3f24ea61	0.64420134
27	0x3ec31231	0.38099816
28	0x3e85d056	0.2613551
29	0x3eb0542c	0.34439218
30	0x3eea33a3	0.4574252
31	0x3f078bc2	0.5294763
32	0x3f07fbd5	0.5311864
33	0x3e012fa2	0.12615827
34	0x3dd70410	0.10498822
35	0x3e97ed7a	0.29673368
36	0xbcf319d2	-0.029675398
37	0x3e82335a	0.25429803
38	0x3ec336f6	0.3812787
39	0x3e9c0d77	0.30479023
40	0x3ebd9de4	0.37034523
41	0x3e84e9a8	0.25959516
42	0x3e8186ca	0.25298148
43	0x3eaf172c	0.34197366
44	0x3f1da215	0.6157544
45	0x3e8f3267	0.2796814
46	0x3f005d9a	0.50142825
47	0x3e72c90d	0.23709507
48	0x3ef92e0a	0.48667938
49	0x3f44204a	0.7661177
50	0x3ef83082	0.4847451
51	0x3f0a32ab	0.53983563
52	0x3ede8466	0.43460387
53	0x3f0e4a6d	0.55582315
54	0x3f283401	0.6570435
55	0x3ea8c13a	0.3295992
56	0x3e44fd78	0.19237316
57	0x3e3786d3	0.17922525
58	0x3e58546c	0.21125954
59	0x3e964cdd	0.29355517
60	0x3eac6d6f	0.3367724
61	0x3f161f87	0.58641857
62	0x3eeb9cac	0.4601797
63	0x3eaf18e2	0.34198672
64	0x3f0514da	0.5198494
65	0x3e7e6dc8	0.24846566
66	0x3e80de63	0.25169668
67	0x3e9176f5	0.2841107
68	0x3ea05031	0.3131118
69	0x3e60b6c8	0.21944726
70	0x3f070c3f	0.5275306
71	0x3eeefaee	0.4667582
72	0x3f290d68	0.6603608
73	0x3ed98cfa	0.4249037
74	0x3df26618	0.11835879
75	0x3e598864	0.21243435
76	0x3f5981ba	0.8496357
77	0x3e94f625	0.29094043
78	0x3f129e94	0.5727322
79	0x3f112668	0.5669923
80	0x3e9ac7d1	0.30230573
81	0x3e9ae334	0.30251467
82	0x3eef2e42	0.4671498
83	0x3e11521a	0.14191476
84	0x3ec6c838	0.3882463
85	0x3ec37345	0.3817388
86	0x3ea6184a	0.32440406
87	0x3ea3699e	0.31916517
88	0x3ec213f8	0.3790586
89	0x3e7747f6	0.24148545
90	0x3ebad92c	0.36493814
91	0x3f253a5f	0.6454219
92	0x3eb008ae	0.34381622
93	0x3ef4a7bc	0.4778422
94	0x3f0a0120	0.53907967
95	0x3e96ee0c	0.2947849
96	0x3e9e6106	0.30933398
97	0x3ea65f35	0.32494512
98	0x3ea0df94	0.31420577
99	0x3eeedfe1	0.4665518
100	0x3e91cd13	0.28476772
101	0x3e8f6cc6	0.28012675
102	0x3ee0d106	0.43909472
103	0x3e895f45	0.26830497
104	0x3e6fef9a	0.23431244
105	0x3f103d32	0.56343377
106	0x3f06f308	0.52714586
107	0x3ecd65b4	0.40116656
108	0x3f499bda	0.78753436
109	0x3f0dca84	0.5538714
110	0x3d2ab9fc	0.041681275
111	0x3eda958a	0.42692214
112	0x3e5c79c2	0.21530822
113	0x3ea546e2	0.32280642
114	0x3e6b7008	0.22991955
115	0x3ea12588	0.31473947
116	0x3e91c387	0.28469488
117	0x3ec76421	0.3894358
118	0x3e8ce411	0.2751775
119	0x3ea318a7	0.31854746
120	0x3ecc3155	0.39881387
121	0x3ef83636	0.4847886
122	0x3ed784ef	0.42093608
123	0x3f031cae	0.51215637
124	0x3ec5d7ce	0.38641208
125	0x3ca01cbb	0.01954495
126	0x3eb3267d	0.34990302
127	0x3efb0c2c	0.49032724

bn2.bias f4 [128]
0	0xbfe4343c	-1.7828441
1	0xbfc09ba6	-1.50475
2	0xbf7f46e2	-0.99717534
3	0xbeeceb6a	-0.46273357
4	0xbf816c95	-1.0111262
5	0xbfbb9186	-1.4653785
6	0xbf8b672c	-1.089086
7	0xbf4fc444	-0.8115885
8	0xbf4dcf49	-0.8039442
9	0xbf805aa6	-1.0027664
10	0xbf78dd46	-0.97212636
11	0xbfbf626b	-1.495191
12	0xbfb7bd5c	-1.4354663
13	0xbf92dc1c	-1.1473422
14	0xbf596afb	-0.84928864
15	0xbfd312d2	-1.6490119
16	0xbf796b57	-0.9742941
17	0xbf8e8252	-1.1133521
18	0xbf722a38	-0.9459567
19	0xbf4e09b3	-0.8048355
20	0xbf5f5e42	-0.872532
21	0xbfd6d189	-1.6782695
22	0xbfc22586	-1.5167701
23	0xbf3fd1ef	-0.7492971
24	0xbf65a8e4	-0.8971083
25	0xbf3b8a0c	-0.7325752
26	0xbfbb2020	-1.4619179
27	0xbfbf6135	-1.495154
28	0xbf662fb0	-0.89916515
29	0xbf780828	-0.96887445
30	0xbf8f60fd	-1.1201473
31	0xbfc5bbf9	-1.544799
32	0xbfb2d48f	-1.3971118
33	0xbce5aa3e	-0.02803528
34	0xbd055343	-0.032550108
35	0xbf64b246	-0.89334524
36	0xbdce21de	-0.100650534
37	0xbf54ab77	-0.83074135
38	0xbf688ea5	-0.9084266
39	0xbf6dcab0	-0.928874
40	0xbf6fe01a	-0.93701327
41	0xbf522bc7	-0.8209805
42	0xbf416b67	-0.7555451
43	0xbf67709b	-0.904062
44	0xbfb9ac48	-1.4505701
45	0xbf8a3fa3	-1.080067
46	0xbf8183f3	-1.0118393
47	0xbf2a1446	-0.66437185
48	0xbf798b9a	-0.9747864
49	0xbf7848ab	-0.9698588
50	0xbfc0adc3	-1.5053028
51	0xbfabcae9	-1.3421298
52	0xbf95fcb1	-1.171774
53	0xbfb97727	-1.4489487
54	0xbf2543e5	-0.64556724
55	0xbf528d86	-0.822472
56	0xbf3dfd5d	-0.74214727
57	0xbf4027ed	-0.7506092
58	0xbf37ff39	-0.71873814
59	0xbf5b6a17	-0.85708755
60	0xbf893d11	-1.0721761
61	0xbfbf5c08	-1.4949961
62	0xbff41bdd	-1.9071003
63	0xbf6e9bfd	-0.9320677
64	0xbfd6183e	-1.6726148
65	0xbf56d318	-0.83915854
66	0xbf354337	-0.70805687
67	0xbf66f674	-0.9021981
68	0xbf8d4c70	-1.1038952
69	0xbf48bf2d	-0.7841671
70	0xbf5e9acf	-0.8695497
71	0xbeb33f0b	-0.35009035
72	0xbf325357	-0.69658417
73	0xbf79ac30	-0.9752836
74	0xbeabed37	-0.33579418
75	0xbf6df093	-0.9294521
76	0xbffdb82e	-1.9821832
77	0xbf5d1d36	-0.863727
78	0xbfbc0508	-1.4689035
79	0xbf961188	-1.17241
80	0xbf748c93	-0.95527
81	0xbf47ea3f	-0.78091806
82	0xbf8662e6	-1.0498931
83	0xbf48ad5a	-0.78389513
84	0xbfb51714	-1.4147668
85	0xbfc0e960	-1.507122
86	0xbf81d918	-1.0144377
87	0xbf8ac16b	-1.0840276
88	0xbf568dbd	-0.83810025
89	0xbf6a957e	-0.91634357
90	0xbf94f952	-1.1638587
91	0xbface88d	-1.3508469
92	0xbf85d6da	-1.0456192
93	0xbed7ef16	-0.42174596
94	0xbfbdd39b	-1.4830202
95	0xbf673113	-0.90309256
96	0xbf7a857a	-0.9785992
97	0xbf6af8e1	-0.9178601
98	0xbf7ff7df	-0.99987596
99	0xbede5945	-0.43427482
100	0xbf60f6cf	-0.878766
101	0xbf5d6102	-0.8647615
102	0xbfe58a1c	-1.7932773
103	0xbf63c32e	-0.88969696
104	0xbf48c1de	-0.7842082
105	0xbf816438	-1.0108709
106	0xbfb8f378	-1.4449301
107	0xbfc41c6b	-1.5321172
108	0xbfad7ad4	-1.3553109
109	0xbfa22852	-1.2668555
110	0xbe0fe1f1	-0.14051034
111	0xbfab70f1	-1.3393842
112	0xbf31f349	-0.6951185
113	0xbf88d3d6	-1.0689647
114	0xbf5412a5	-0.8284095
115	0xbf8ba544	-1.090981
116	0xbf5f87be	-0.873165
117	0xbf86b83f	-1.0524977
118	0xbfc2061b	-1.5158113
119	0xbf6b55ff	-0.91928095
120	0xbf773a91	-0.9657374
121	0xbfbe4e46	-1.4867637
122	0xbf34be9f	-0.70603365
123	0xbf891e0f	-1.0712298
124	0xbf85090b	-1.0393385
125	0x3ded0547	0.11573272
126	0xbf955302	-1.1665957
127	0xbf9929fc	-1.1965938

bn2.running_mean f4 [128]
0	0x3e91280c	0.28350866
1	0x3f1b0cad	0.60566217
2	0x3f773be6	0.9657577
3	0xbeb0f207	-0.34559652
4	0x3f69866a	0.91220725
5	0x3ee87d6e	0.45408195
6	0x3eb41c64	0.3517791
7	0x3ec5a20b	0.3860019
8	0xbe7d86c7	-0.24758445
9	0xbdc587a2	-0.096450105
10	0xbe18733e	-0.14887711
11	0x3f0b8e4e	0.54514015
12	0x3f327a27	0.6971764
13	0x3f57cbec	0.84295535
14	0x3ea5d92a	0.32392246
15	0x3ee7d191	0.45277074
16	0x3eaa533c	0.33266628
17	0xbf046375	-0.5171426
18	0xbdc1751a	-0.094461635
19	0x3f4c05cc	0.79696345
20	0x3f1f29f3	0.62173384
21	0x3f58b355	0.8464864
22	0x3f766fc2	0.9626428
23	0xbe70914f	-0.23492931
24	0xbeb5edce	-0.35532993
25	0x40395a16	2.8961234
26	0x3eaa1745	0.33220878
27	0x3fcdac30	1.6068172
28	0xbe62e6a4	-0.22158295
29	0x3f1bfc81	0.60932165
30	0xbf702ed3	-0.9382145
31	0x3f9905da	1.1954911
32	0xbd1afe0d	-0.037839938
33	0xbf784ff8	-0.9699702
34	0xbef3a0ef	-0.4758372
35	0xbe2746b8	-0.16335571
36	0xbea17f26	-0.3154232
37	0x3ec8a4ea	0.3918832
38	0x3f0eccfb	0.55781525
39	0xbd9be4c8	-0.07611996
40	0xbed52ef9	-0.416374
41	0xbd18b330	-0.03728026
42	0x3ecc6ad2	0.39925247
43	0x3e6f6e6e	0.2338197
44	0x3dfe5960	0.12419391
45	0xbf15e713	-0.58555716
46	0x3f8b722a	1.0894215
47	0x3fa66817	1.3000516
48	0x3e6b6cd8	0.2299074
49	0x401497f2	2.321774
50	0x3f0ec02d	0.55761987
51	0x3f74be81	0.95603186
52	0x3edd640d	0.43240395
53	0x3f43bafa	0.7645718
54	0x3f413f09	0.7548681
55	0x3f8158da	1.010524
56	0xbf4c63d1	-0.7983981
57	0x3dfdd2df	0.12393736
58	0xbe08cef1	-0.13360192
59	0x3e05ce36	0.13066944
60	0x3f2de892	0.67933
61	0x3ebb0810	0.3652959
62	0x3ec80b25	0.39071003
63	0x3fbd429a	1.478595
64	0x3e787e16	0.24266848
65	0xbe69c397	-0.22828518
66	0x3f95456e	1.1661813
67	0xbe4211c3	-0.18952088
68	0xbd36ea28	-0.044656903
69	0x3ee39888	0.4445231
70	0x3fd72461	1.6807977
71	0x3fd655ad	1.6744896
72	0x400dc732	2.215283
73	0x3e71627d	0.23572727
74	0x3e77bfc3	0.24194245
75	0x3ed387a8	0.41314435
76	0x3e56b47d	0.20967288
77	0x3e5e6934	0.2171982
78	0x3e06433c	0.13111585
79	0x3f131ff1	0.57470614
80	0x3fa5b6ed	1.294645
81	0x3f022e07	0.5085148
82	0xbf10e91f	-0.56605715
83	0xbf6475e3	-0.8924238
84	0x3f964fb7	1.1743077
85	0x3f39a63c	0.7251928
86	0x3f33bd33	0.7021057
87	0x3ea21e9f	0.31663987
88	0x3ef39333	0.47573242
89	0xbecab62c	-0.3959211
90	0xbf4c7cc1	-0.7987786
91	0x3f2d65a8	0.6773324
92	0x3d80dbd8	0.06291932
93	0x40313bde	2.769279
94	0x3d02a1f0	0.031892717
95	0x3f3a147a	0.72687495
96	0x3f033500	0.51252747
97	0x3fd67867	1.6755494
98	0xbf06f0f9	-0.52711445
99	0x401f2c2c	2.487071
100	0x3ea0bc85	0.3139383
101	0x3f2ec995	0.6827634
102	0x3f80b3e8	1.0054903
103	0xbed52204	-0.41627514
104	0x3f261c41	0.6488686
105	0x3e64cab3	0.22342949
106	0x3f7aa2b8	0.9790454
107	0x3fa33c06	1.2752693
108	0x3accc2d6	0.001562203
109	0x3fb7e43e	1.4366529
110	0xbf52e272	-0.8237678
111	0x3ff94178	1.9473104
112	0x3e4c7810	0.19967675
113	0x3e4d28b5	0.2003506
114	0x3f21beef	0.63181967
115	0x3f0503f2	0.51959145
116	0x3f021fb0	0.508296
117	0x3f164556	0.5869955
118	0x3bcd9139	0.0062734154
119	0xbec6228b	-0.3869823
120	0x3f8775c6	1.0582817
121	0x3f212c7e	0.62958515
122	0x3f3e90c0	0.7443962
123	0x3e60a03a	0.21936122
124	0x3de981f3	0.11401739
125	0x3f616a95	0.88053256
126	0x3fd991db	1.6997637
127	0x3ecb1bf4	0.39669764

bn2.running_var f4 [128]
0	0x3f1ebfc2	0.6201135
1	0x3ffee923	1.9914898
2	0x3f8d0132	1.101599
3	0x3ed7dc58	0.42160296
4	0x3f7e614d	0.9936722
5	0x3f04531e	0.51689327
6	0x3f2544df	0.64558214
7	0x3f32f653	0.6990711
8	0x3efad44d	0.48990098
9	0x3f053347	0.5203137
10	0x3fee8e83	1.8637241
11	0x3fc524a6	1.5401809
12	0x3fbad832	1.4597228
13	0x3f91a19d	1.1377445
14	0x3f226a35	0.6344331
15	0x3eeb6ba2	0.45980555
16	0x3f55689f	0.83362764
17	0x3f7826c2	0.9693414
18	0x3fa2bcfb	1.2713922
19	0x3f0879a0	0.53310585
20	0x3f5e8291	0.8691798
21	0x3fbc387e	1.470474
22	0x3fe5ca48	1.7952356
23	0x3fc36326	1.5264633
24	0x3f092fab	0.5358836
25	0x40334815	2.8012745
26	0x3f5632cd	0.83671266
27	0x40602594	3.5022936
28	0x3f910c3b	1.1331857
29	0x3fd28d77	1.6449422
30	0x3face5bc	1.3507609
31	0x40065d4c	2.0994444
32	0x3e80574e	0.25066608
33	0x4013b3ad	2.3078415
34	0x3f918431	1.1368467
35	0x3f5a54d6	0.852857
36	0x3ef5d05a	0.48010522
37	0x3f0c024a	0.5469099
38	0x3fa1e4d3	1.2647957
39	0x3f271aa9	0.65275055
40	0x3f07d7fe	0.5306395
41	0x3ec3bd95	0.38230577
42	0x3f96dc2a	1.1785939
43	0x3f06a74c	0.52599025
44	0x3f90542c	1.1275687
45	0x3fa8f2bc	1.3199077
46	0x409ba336	4.863673
47	0x40068566	2.101892
48	0x3f7b49e1	0.98159605
49	0x4055f3e1	3.3430102
50	0x3f3dc05f	0.7412166
51	0x4027949c	2.6184454
52	0x3f46ef4f	0.77708906
53	0x3f366f7a	0.7126385
54	0x40801e3a	4.00369
55	0x3fed7e07	1.8554085
56	0x3f3bd284	0.73368096
57	0x3f0c1ea2	0.5473424
58	0x3f5f8eb8	0.87327147
59	0x3f5a023b	0.85159653
60	0x3f39f731	0.7264281
61	0x3f1a5d68	0.60298777
62	0x3e59d910	0.21274209
63	0x402600fc	2.59381
64	0x3e6ce0d9	0.23132648
65	0x3faa39e8	1.3298922
66	0x3f8c87bc	1.0978923
67	0x3f2651a0	0.649683
68	0x3f1e31f8	0.61794996
69	0x3ed8b7ac	0.4232763
70	0x40dde4f7	6.9342
71	0x400e0f28	2.219675
72	0x4012aa7d	2.2916558
73	0x3fa36941	1.2766496
74	0x3ed492eb	0.4151834
75	0x3eeada44	0.45869648
76	0x3e7b66a7	0.24550878
77	0x3f2b7645	0.6697734
78	0x3f81a7f0	1.0129375
79	0x3fd93ffe	1.6972654
80	0x3f8eda85	1.1160437
81	0x3fa7508e	1.3071458
82	0x3feb2dca	1.8373349
83	0x3f262b32	0.6490966
84	0x40148df4	2.3211641
85	0x3fd2d746	1.6471946
86	0x3f266260	0.6499386
87	0x3eea1312	0.45717674
88	0x3f786301	0.9702607
89	0x3faa373e	1.3298109
90	0x3f3a90ce	0.72877204
91	0x3f617335	0.88066417
92	0x3f7115c9	0.94173867
93	0x4184d1e2	16.602482
94	0x3ea40168	0.32032323
95	0x3fee8a8d	1.8636032
96	0x3f10ad7a	0.56514704
97	0x3fc81266	1.5630615
98	0x3f2245fc	0.6338804
99	0x41769543	15.411441
100	0x3f4c05cf	0.79696363
101	0x3f448f5c	0.7678125
102	0x3fbf0e85	1.4926306
103	0x3f618418	0.88092184
104	0x3f4154b3	0.75519866
105	0x400736e5	2.1127255
106	0x3fb4154b	1.4068998
107	0x4040bbf1	3.011471
108	0x3f938398	1.1524534
109	0x4081f3bf	4.061004
110	0x3ef4ec81	0.47836688
111	0x406a4c17	3.6608942
112	0x3edec12f	0.43506762
113	0x3efc9ac8	0.4933684
114	0x3f149635	0.580417
115	0x3ed854a1	0.42252067
116	0x3f652436	0.8950838
117	0x3f83b510	1.0289631
118	0x4018feb4	2.3905458
119	0x3f57924f	0.84207624
120	0x3f8a7a56	1.0818584
121	0x3eec0246	0.46095484
122	0x3f89085e	1.0705678
123	0x3fde3ad8	1.7361708
124	0x3f50897c	0.81459785
125	0x3fb703fb	1.429809
126	0x4053681f	3.30323
127	0x3f6e87e2	0.9317609
