neural_network44_2.pth (torch, 87334 bytes, 18 tensors)

fc1.weight f4 [128, 17]
000000 28 f4 b3 3d 56 af f7 bd a8 89 df 3d 9d c9 dd bf
       0.087868035 -0.120939896 0.10914928 -1.7327152
000010 33 ac 34 3e 3b de 70 3d a6 77 71 be 16 fd 4d 3e
       0.17643814 0.058805685 -0.23580799 0.20116076
000020 7c 81 49 3d 40 ab 45 be 28 7f 5c 3e cf a1 dd bd
       0.04919575 -0.19303608 0.21532881 -0.10821878
000030 e1 5f 0d 3e b5 99 1c 3e 8f 38 6e 3e 9a e2 06 bd
       0.13806106 0.1529301 0.23263763 -0.032930948
000040 98 cf c2 3d 60 bf 06 bc 57 68 3a be d4 f6 4d bf
       0.095122516 -0.008224338 -0.18203865 -0.80454755
000050 9d 37 b9 3a f8 ac a9 3d b0 d8 16 bf e6 cb fd be
       0.0014130954 0.08284944 -0.5892439 -0.49569625
000060 69 d1 cf 3e 35 ef a2 be ff f7 e7 3e 02 b5 4e be
       0.40589455 -0.31823125 0.45306394 -0.20186237
000070 4a fe ed bd 7c 04 c9 be 65 2c f1 be bd 74 14 3e
       -0.116207674 -0.39261234 -0.47104183 0.14497657
000080 ee 54 29 3f df 49 c2 3e 00 dd 51 3e 6c 3b 23 3e
       0.6614522 0.37946984 0.20494461 0.15940636
000090 57 01 11 bf 9d 0b 0f bf 72 47 4c bf a2 a5 cf bd
       -0.5664267 -0.55877095 -0.79796517 -0.10139014
0000a0 1a 58 d3 3e 3f d9 da bd d1 8e 4c 3e f9 38 30 bf
       0.41278154 -0.10685968 0.19976355 -0.68836933
0000b0 ee b1 cf bd 9b c0 8c be ae 48 71 be 48 68 8c be
       -0.10141359 -0.27490696 -0.23562881 -0.2742331
0000c0 2b 17 a5 3d 78 d5 5d bf 3b 11 af bc 8e 32 9a bd
       0.080610596 -0.8665385 -0.02137052 -0.07529174
0000d0 26 15 a1 be 27 db 26 be fe 37 b0 bb c2 b6 7d bf
       -0.31461447 -0.16294537 -0.0053777685 -0.9910699
0000e0 5b da 3f bf 2b 9e e3 bd 95 92 77 be f3 eb fc 3d
       -0.7494256 -0.111141525 -0.2417701 0.12349691
0000f0 71 3e c4 3e 1f 68 18 bc 7b 31 7f be 10 e5 a1 3d
       0.3832889 -0.009302168 -0.24921219 0.07905018
000100 1f f7 40 3d e5 a7 9b be 23 77 03 3d 01 b5 8f bd
       0.047110673 -0.3040153 0.03209604 -0.07016946
000110 f4 0f 2c be b2 c9 0d 3e 81 50 8d 3e 49 fc 92 be
       -0.1680296 0.13846472 0.27600482 -0.28708103
000120 d7 c6 f5 bf 1c 3f 03 be fd af 1a bd ae 2b 94 be
       -1.9201306 -0.12817043 -0.03776549 -0.28939575
000130 63 0e 6a 3e 09 c6 e6 3d 6c ca 46 be 04 5a 0b be
       0.2285705 0.11268241 -0.19413155 -0.13608557
000140 3a fe 52 be b2 74 2d be 11 8d 29 bd 1e b6 cd 3d
       -0.20604792 -0.16939047 -0.041394297 0.10044502
000150 f7 b9 19 3e dc 93 22 3e 85 bb 38 be 6e f9 8d 3e
       0.15012346 0.15876716 -0.18040283 0.27729362
000160 6e e0 83 3f 90 ab 4c 3f 74 a8 98 3d 58 89 96 be
       1.0302866 0.79949284 0.07454005 -0.2940166
000170 df 89 83 3e 72 de a6 3e 06 77 15 be 80 03 b0 be
       0.25691125 0.32591587 -0.14596185 -0.3437767
000180 90 a3 49 3e 18 6e 90 3b cb 84 16 be c9 6c 34 bd
       0.196913 0.0044076554 -0.14699094 -0.044049058
000190 ac 33 48 3e 38 b4 2b be 38 3d 59 3d cf e4 6f be
       0.19550961 -0.16767967 0.0530369 -0.23427127
0001a0 f9 df 2d 3f ff 6c 68 3b 65 49 3e 3e 45 45 3b bf
       0.6791988 0.0035465357 0.18582685 -0.7315257
0001b0 7b 64 d6 3e 7d 15 ec be a3 dc 38 be 6e eb 37 bd
       0.41873536 -0.46110144 -0.18052916 -0.044902258
0001c0 7e e3 a3 be 66 b0 50 be 1a 9f 13 3d 25 98 ef 3d
       -0.320095 -0.2037979 0.036040403 0.11698941
0001d0 28 21 a3 3c 2a b8 f1 3d b2 a8 ff be 0a 43 16 be
       0.019913271 0.11802705 -0.49933392 -0.14674011
0001e0 58 df 5b bd b9 38 26 bf 99 b1 79 bd f4 67 3b 3f
       -0.053679794 -0.649303 -0.060960386 0.73205495
0001f0 76 d4 40 3e 6d 60 a1 bd 27 81 f7 be ea 04 b1 3e
       0.18831047 -0.0787972 -0.48340723 0.34574062
000200 13 2b d2 3d 65 f1 1f bd 84 e1 fc bd 56 90 fe bd
       0.10262122 -0.03904857 -0.12347701 -0.12429874
000210 26 7b 97 3e ad b5 c4 bd 50 6c e6 bc e9 b8 f1 bd
       0.29586142 -0.096049644 -0.02812782 -0.11802847
000220 28 cc ba 3d 27 a4 8a 3e 9d 52 99 3f c8 58 0d 3f
       0.09120971 0.27078363 1.1978337 0.55213594
000230 97 59 b4 3e a5 fe 1e be 19 c1 0a bd d3 37 23 3e
       0.35224602 -0.15526827 -0.03387556 0.15939264
000240 11 b8 cf 3d 73 74 f7 bd e2 44 1e 3d 75 6d 16 bf
       0.1014253 -0.12082758 0.03863991 -0.5876077
000250 a6 bf 3e 3c 11 3a 68 3e 8a 95 25 3e b2 c5 26 be
       0.011642372 0.226784 0.16170326 -0.16286352
000260 a4 42 d9 bd 8a 3f 64 3e 2a ba 79 c0 b7 fe 61 bd
       -0.10608414 0.22289863 -3.9019876 -0.055174556
000270 81 ce e4 bd 7b 25 48 bd e1 17 23 bd e4 9e 02 3d
       -0.111722 -0.04886387 -0.039817695 0.03188981
000280 83 9a 2c 3d 18 c6 3b 3d f0 26 12 bd 08 c7 3d bd
       0.04213954 0.045843214 -0.035681665 -0.04633239
000290 2a b3 03 3d a5 61 58 bc 6d ee b3 3d b7 de ec 3c
       0.032153286 -0.013206874 0.087857105 0.028914792
0002a0 40 86 84 bd 39 89 3f bd f0 9d f9 3c e5 2b 1b 3b
       -0.06470919 -0.046761725 0.030470818 0.0023677286
0002b0 6d 25 6e bf db f0 04 be 38 21 21 3e dc bc f6 3e
       -0.9302586 -0.12982504 0.15735328 0.48190963
0002c0 92 b9 9a 3d d8 98 3d 3e 38 26 06 bf 24 4d f0 be
       0.07554926 0.18515337 -0.5240207 -0.46933854
0002d0 d0 5f e6 bd e5 2b 42 bd 59 db 6c bf 26 c4 0b bf
       -0.112487435 -0.047405142 -0.925222 -0.54596174
0002e0 57 80 30 3e c9 dc 33 bf 6e 0f fc bd 13 ce 5b be
       0.17236458 -0.70258766 -0.123076305 -0.2146533
0002f0 97 ba 4b bf 91 43 76 3e a1 40 7f 3e 4d 3f fd 3d
       -0.7958159 0.24049212 0.24926998 0.12365589
000300 37 ba 2a bf e9 4d 1c 3e 7f bf 7f bd e9 a4 6c 3e
       -0.6669039 0.15264095 -0.062438484 0.23109783
000310 84 61 94 3d 18 c4 61 be 60 19 8f bd 00 48 ee 3e
       0.07245162 -0.2204746 -0.06987262 0.46539307
000320 81 1e 5f 3d ea 55 ef 3c 53 2e 0a 3f d6 e7 4c be
       0.05447245 0.029215772 0.53976935 -0.20010313
000330 f0 cf 66 3d 89 d8 97 3e 37 a5 75 3f 80 21 cf bd
       0.05635065 0.2965739 0.9595522 -0.101138115
000340 38 12 e2 be 81 dd 57 bd 66 60 f3 3d 54 6d 21 3f
       -0.44154525 -0.052701477 0.11883621 0.63057446
000350 7f ad b5 3e 9f e1 83 3e 14 77 f7 3e ab aa 39 3e
       0.3548393 0.25758073 0.48333037 0.18131511
000360 d1 60 1b bf 3b 15 ba be 31 f5 09 3e e5 da b4 bd
       -0.60694605 -0.36344323 0.1347244 -0.08830813
000370 d8 81 69 3e fb fc 77 be e6 2a 98 be c9 20 24 bf
       0.22803438 -0.24217598 -0.2972023 -0.64112526
000380 c4 c0 bc bb 7e 44 aa 3d 48 ea d0 be 23 dc d9 be
       -0.005760284 0.08313845 -0.40803742 -0.42550763
000390 a7 c7 41 bf 86 87 69 bd 79 b3 bb bf ea 87 2b bd
       -0.7569527 -0.05701401 -1.4664146 -0.041877665
0003a0 88 cd 0e 3e e1 ee 8b bd 63 14 8f be e5 66 06 bf
       0.13945591 -0.06832672 -0.2794524 -0.52500755
0003b0 55 ac 85 bd 07 75 03 3f c1 13 70 be 35 ee af be
       -0.0652701 0.51350445 -0.23445036 -0.34361425
0003c0 e9 88 84 3e 04 46 85 3e b8 8e e0 3d f8 1d e5 3d
       0.25885704 0.2602998 0.109647214 0.11187357
0003d0 63 84 88 3e 2e 56 b8 3e ab 2c e9 be 0a e8 df 3e
       0.26663503 0.3600325 -0.4554189 0.4373172
0003e0 06 eb 19 bf 98 3f f3 bd f7 37 41 3e 42 4c 48 be
       -0.6012424 -0.11877364 0.18869005 -0.1956034
0003f0 31 71 86 be c7 41 a9 be 5c a6 d5 3e fc d8 9d bd
       -0.26258233 -0.33057997 0.41728485 -0.07707402

fc1.bias f4 [128]
000000 a0 9f 66 be 27 67 70 3d b1 25 c4 3d b4 a4 13 3e
       -0.2252183 0.058692124 0.095775016 0.14418298
000010 b5 86 33 be 76 a3 0d be 4d d4 75 3e ad fa 2c 3e
       -0.17531855 -0.13831887 0.24006768 0.168925
000020 5b f0 0b 3d 1b 96 42 3e f5 62 54 be a6 c2 e4 3d
       0.034164768 0.19002573 -0.20740874 0.11169939
000030 de c7 c8 39 76 ff 84 bd 5c 1f a0 3c 4f d9 f2 3d
       0.00038295885 -0.06494038 0.019546203 0.118578546
000040 93 ec 25 3e c0 84 58 3d 0b 94 f6 bd f8 fa 45 be
       0.16203527 0.052860975 -0.12039956 -0.19334018
000050 4d 65 5e 3d 3d 46 af bd a3 3c 63 3d 8f 5d 11 3e
       0.054295827 -0.08558319 0.05547775 0.14195846
000060 08 18 2e 3e 19 cd 6b 3d 5c 56 3b 3b 71 bd 48 be
       0.17001355 0.057568643 0.002858541 -0.19603516
000070 c0 c8 1b bd 25 18 64 3e bb 7e cc be e9 76 57 be
       -0.038033247 0.22274835 -0.39940438 -0.21041454
000080 eb 92 53 3d 00 d1 44 3e c2 d3 24 be 02 4e 95 3d
       0.051653784 0.19220352 -0.16096404 0.072902694
000090 6b a0 1f be e6 43 c8 bd 79 ab 46 be 6d fd 9c bd
       -0.15588538 -0.097785756 -0.19401349 -0.07665525
0000a0 37 26 bd bd 1d 0c 9b bd 2f e2 0c 3e bb cd 8e be
       -0.092358045 -0.0757067 0.13758157 -0.27891335
0000b0 75 27 43 be 0a 96 3d be 87 c3 5f 3e 2b 6f 6c be
       -0.1905802 -0.18514267 0.21851932 -0.23089282
0000c0 d1 88 f7 bd 42 55 20 bd b4 db a5 bd 74 c9 8d 3d
       -0.120866425 -0.03914381 -0.08098546 0.0692319
0000d0 4a 98 0a 3e c7 49 6d 3e 29 ef 72 be e0 fa 4e 3d
       0.13534656 0.23172675 -0.23724045 0.05053222
0000e0 90 53 ba bd 30 3e 77 be 1b 74 fa bd 50 25 4f 3e
       -0.090979695 -0.24144816 -0.122291766 0.20229077
0000f0 5f c8 bd be 55 fa ee 3d 56 54 7b 3e 0e d7 60 3c
       -0.37066934 0.11668841 0.2454389 0.013723148
000100 ab 15 b5 bc 04 a8 75 be d1 79 94 3d c5 69 26 3e
       -0.022105059 -0.23989874 0.07249797 0.16251285
000110 b8 5b 1a be f1 c0 c8 3c 0d 72 74 3c 0b 4d 1f be
       -0.1507405 0.024506064 0.01491977 -0.15556733
000120 f5 96 2c be 74 ad 08 3e 75 2d 42 3e 33 fe bb bd
       -0.1685446 0.13347417 0.18962653 -0.09179344
000130 97 f3 4d be f1 04 56 3e e8 68 ef ba 2d 34 9d bb
       -0.20112453 0.20900322 -0.0018265517 -0.0047974796
000140 f5 ce 95 bd ca b1 6d bd f8 9a 5a be a9 12 3c 3d
       -0.073148645 -0.05803088 -0.21348178 0.045916233
000150 78 ee 38 bc 99 59 88 3c 02 70 76 3e 85 2a f6 bd
       -0.011287324 0.016644286 0.24066165 -0.12019829
000160 ad f6 6a be 88 eb 6f be 05 4a 22 be 12 83 43 3e
       -0.22945662 -0.23429692 -0.15848549 0.19092968
000170 b2 77 7d 3e f8 d0 17 bd fd 43 4a bc 6d 0b 8c 3d
       0.24752691 -0.037064523 -0.012345311 0.06838117
000180 7d 43 1e be 50 94 54 be 5f 81 15 be 30 75 34 3e
       -0.15455432 -0.20759702 -0.14600132 0.17622828
000190 88 71 30 3e 8e 40 af 3d 4f fc d7 3d a8 01 14 be
       0.17230809 0.08557235 0.10546171 -0.14453757
0001a0 80 f7 a0 3d 23 e5 5e 3e a5 24 ad bd 74 5c 3c be
       0.07859707 0.21767096 -0.08454255 -0.18394643
0001b0 b5 57 24 bd 7c d0 06 bc d7 04 48 bd af 86 e8 bd
       -0.040122706 -0.0082284175 -0.04883274 -0.11353814
0001c0 5e c7 fc 3c ae 26 fc 3d bf 18 00 3e 8b e2 d5 bd
       0.030856784 0.12312065 0.1250944 -0.104436
0001d0 a4 f1 dc bd 8f b1 5f 3e 4a 09 ff 3d e4 6f 75 bd
       -0.10788277 0.21845077 0.124529436 -0.05992116
0001e0 0c 95 e0 bd 11 4e 32 be 4c 4b 54 be 65 83 cd bd
       -0.109659284 -0.17412592 -0.20731848 -0.10034827
0001f0 d1 a0 1e be c6 d9 6c 3e 70 14 36 be cc a8 24 be
       -0.15491034 0.23129949 -0.17781234 -0.16080016

bn1.weight f4 [128]
000000 27 eb a0 3e bd c3 40 3e 57 48 f5 3e 45 f1 aa 3e
       0.31429407 0.18824668 0.47906753 0.333872
000010 dd c8 a5 3e 36 98 b3 3e 55 83 9a 3e 7e 44 b6 3c
       0.3237981 0.35077065 0.30178323 0.022249456
000020 5c 35 e9 3e a8 11 92 3f 89 74 81 3e fe 38 97 3d
       0.45548522 1.1411638 0.25284222 0.07383917
000030 8c 98 c7 3d a7 5b 44 3d 9b e1 13 bc 5f e3 d2 3e
       0.09745893 0.04793897 -0.0090259565 0.41189095
000040 87 31 da 3f 17 38 cb 3f 96 e3 c4 3e 70 62 64 3f
       1.7046365 1.5876492 0.38454884 0.89212704
000050 55 19 64 3e 9d 3e 9e 3e 53 98 3d 3e 75 f2 90 3e
       0.22275288 0.30907145 0.18515138 0.2830998
000060 cd 6a 4e 3e 10 07 28 3e 2b 15 c9 3f 3b 46 81 3e
       0.20157929 0.16408944 1.5709585 0.25248894
000070 77 58 d0 3e a2 29 5f 3f c0 ad 14 40 c3 4e a3 3e
       0.40692493 0.871729 2.3231049 0.31896028
000080 34 7f a1 3e f3 a4 a6 3e 69 77 ff 3d 35 ed 8f 3e
       0.3154236 0.3254772 0.124739476 0.28110662
000090 70 36 c2 3e dd cc 96 3e f1 59 a4 3e 90 19 89 3e
       0.37932158 0.29453173 0.3209987 0.26777315
0000a0 01 0c 1e 3e d7 cf 04 3f 1a 48 ce 3e 38 24 5d 40
       0.15434267 0.5187964 0.40289384 3.4553356
0000b0 4f 55 9d 3e 35 3c f6 3d 50 25 b3 3d b0 04 96 3e
       0.30729148 0.12023202 0.08747351 0.2930045
0000c0 e1 44 cd 3f a6 0d 41 3d c3 ed b2 3e 81 3d 84 3e
       1.6036645 0.047132157 0.34947023 0.25828174
0000d0 3f 31 1e 3e 98 0f 8b 3f 3b 21 da 3e 5f f9 62 3e
       0.15448473 1.0864134 0.42603478 0.2216544
0000e0 0f 95 ab 3e 72 77 63 3f 86 db 5b 3e c6 12 b7 3e
       0.3351216 0.88854134 0.2147046 0.3575651
0000f0 16 27 02 40 b0 69 5f 3e 85 86 21 3c b1 56 8a 3e
       2.0336356 0.2181766 0.009858732 0.27019265
000100 d7 b5 82 3f 4e b4 64 3e 52 8f 29 3e b2 de f4 3e
       1.0211743 0.22334406 0.16558579 0.47826153
000110 fa f9 a3 3e 5b 32 10 3e 00 ac 67 3e 30 15 18 3f
       0.32026654 0.14081709 0.22624207 0.5940733
000120 d6 b9 5a 3e b0 05 03 3f 42 4b 07 3e 42 bf e0 3e
       0.21359953 0.51180553 0.13212302 0.43895918
000130 95 50 a9 3e 49 b7 47 3e e3 e8 38 3f bc 01 ff 3f
       0.33069292 0.19503511 0.72230357 1.9922404
000140 25 2f b3 3d 3c f3 6c 3e 76 48 2d 3e 11 6d b1 3d
       0.087492265 0.23139662 0.16922173 0.08663381
000150 30 76 01 3e 2d 28 aa 3e 8d ac 1a 3e 8f f8 f7 3f
       0.12642741 0.33233777 0.15104885 1.9372729
000160 3c 5b db 3f 33 39 83 3e 64 c6 9b 3e 94 6d 4b 3e
       1.7137218 0.25629577 0.30424798 0.1986602
000170 7b c8 66 3d 0d 07 39 3e 5b a4 67 3e 05 2f 95 3e
       0.056343537 0.18069096 0.2262129 0.29137436
000180 83 9d 7c 3e bf 13 89 3e 09 7b 5d 3e 3f e9 7b 3e
       0.24669461 0.26772878 0.21628965 0.24600695
000190 ff ce a8 3e fa fe da 3e 8c 7a 15 3f 89 64 87 3e
       0.32970425 0.42772657 0.58390117 0.2644389
0001a0 a7 8c 31 3d 45 91 3c 3e 4d 4f 85 3e 7d db a6 3e
       0.043347027 0.18414791 0.26037064 0.3258933
0001b0 3a 27 af 3e e0 4c 09 3e 5f 35 c2 3f 56 91 65 3e
       0.34209615 0.13408232 1.5172538 0.22418723
0001c0 88 e3 5a 3e 38 e2 00 bc f2 d2 59 3e 52 91 86 3e
       0.21375859 -0.007866435 0.21271876 0.26282746
0001d0 bd c9 bf 3d f8 77 8f 3e e9 5f 39 3e 78 12 c3 3f
       0.093646504 0.28021216 0.18102993 1.5240011
0001e0 34 88 87 3e 08 80 a2 3e 31 fc 1d 3c e4 7e 0e 3e
       0.26471102 0.31738305 0.009642647 0.13915592
0001f0 9d 2d 93 3d 6a b1 15 3e 42 cf d4 3e 4c 4c 04 3f
       0.071864344 0.1461846 0.41564375 0.5167892

bn1.bias f4 [128]
000000 56 95 89 3e 0a 2d ce be 68 c0 6b bf 1e 81 0e bf
       0.26871747 -0.40268737 -0.92090464 -0.5566577
000010 42 b5 88 be 11 63 16 bf 8b c7 36 bf d7 75 ba bd
       -0.2670079 -0.58744913 -0.7139823 -0.091045074
000020 d3 e7 48 bf 73 9d 99 bf c0 ca f3 be 79 6a 98 be
       -0.78478736 -1.2001175 -0.47615623 -0.29768732
000030 1a 2e 85 be 4e 35 2d bf 9f d7 a9 3d 15 b3 ad be
       -0.26011735 -0.6765946 0.082930796 -0.3392569
000040 f8 84 a8 bf 15 8c 76 bf 16 5c 22 bf d0 69 2b bf
       -1.3165579 -0.963075 -0.6342176 -0.6695833
000050 1b 99 f9 be c5 58 48 bf 17 28 fd be 79 5c 45 bf
       -0.48749623 -0.7826045 -0.4944465 -0.7709423
000060 f1 17 b2 be 83 5f cc be f8 11 b8 bf d6 ed 13 bf
       -0.3478389 -0.3991662 -1.4380484 -0.57784784
000070 cc aa aa be c7 b1 39 bf de 66 28 c0 8f 22 0d bf
       -0.33333433 -0.7253689 -2.6312785 -0.5513086
000080 74 76 2a bf 0e d1 82 be a8 51 e1 be 55 6b 18 bf
       -0.66586995 -0.2555012 -0.4400761 -0.59538776
000090 ba 47 1e bf 87 22 48 be 9d cd 2c bf 40 4b 82 bf
       -0.61828196 -0.19544421 -0.6750124 -1.0179214
0000a0 91 8a d8 be c7 1a 01 bf 58 ac 6d bf 1c ba c0 bf
       -0.42293218 -0.50431484 -0.928411 -1.5056796
0000b0 2a 13 15 bf 7d fd a2 be e7 52 51 be 95 70 0e bf
       -0.5823237 -0.3183402 -0.20441781 -0.55640537
0000c0 6e 3a a6 bf a9 74 34 be 72 9a 8c bf 71 66 a0 be
       -1.2986581 -0.17622627 -1.0984633 -0.31328157
0000d0 a9 18 e5 be 5c 14 82 bf a2 95 58 bf 4d 96 d0 be
       -0.44745377 -1.0162463 -0.8460332 -0.4073967
0000e0 4c b4 21 bf 00 e1 43 bf 0c 4a fb be 89 78 45 bf
       -0.63165736 -0.765152 -0.4907993 -0.7713705
0000f0 ab 5c b1 bf f6 5e a6 be 60 48 98 bd 55 14 71 bf
       -1.3856405 -0.32494324 -0.074356794 -0.9417165
000100 f1 72 8a bf a0 41 ef be d5 1d 0d bf 6f cd 19 bf
       -1.0816327 -0.46729755 -0.55123645 -0.6007909
000110 ba 8b 2c bf 52 3c c2 be 8d 49 99 be 86 90 ea be
       -0.67400706 -0.37936646 -0.29938927 -0.45813388
000120 ed 42 f3 be 17 2a 18 bf 48 56 ae be c1 45 30 bf
       -0.47511998 -0.59439224 -0.34050202 -0.68856436
000130 df 65 38 bf ab 99 5a bf 73 c1 04 bf e9 5c 85 bf
       -0.7203044 -0.8539073 -0.5185768 -1.0418979
000140 b4 92 24 be 45 5d 26 bf 1c 49 40 bf c6 0f 8b be
       -0.16071588 -0.6498607 -0.75111556 -0.27160472
000150 a8 15 32 be 56 72 1b bf 20 69 9f be cc 20 a0 bf
       -0.17391074 -0.6072134 -0.31134892 -1.2510009
000160 ca 3e a0 bf c6 1f d4 be ea 49 1b bf bf c6 0d bf
       -1.2519162 -0.4143049 -0.6065966 -0.5538139
000170 eb 1a 1d be bb be be be 68 d1 01 bf 6c f6 71 bf
       -0.153423 -0.3725489 -0.50710154 -0.94516635
000180 4d e6 14 bf 3c 3f 18 bf 5e ff dc be 58 fa 11 bf
       -0.5816391 -0.5947149 -0.4316358 -0.5702262
000190 6a 9d 2f bf c9 07 21 bf df 89 53 bf 79 1c 01 bf
       -0.6859957 -0.62902504 -0.8263225 -0.5043407
0001a0 aa 5a 3a be 47 cf a0 be 3b d5 3e bf b6 3c 1b bf
       -0.18198648 -0.3140814 -0.74544114 -0.6063951
0001b0 18 59 3a bf 9c ff b5 be 04 ef 5a bf f5 e1 37 bf
       -0.72792196 -0.35546577 -0.8552096 -0.7182916
0001c0 07 33 12 bf 91 d9 38 3e f3 ad 02 bf 0c 7b 59 bf
       -0.5710911 0.18051745 -0.51046675 -0.8495338
0001d0 6d c4 4f be 68 9d 3a bf ca 5d c6 be c3 7e aa bf
       -0.20289774 -0.7289643 -0.3874343 -1.3319935
0001e0 ca cf 03 bf 24 6e 52 bf d0 18 0f 3e e0 af 77 be
       -0.51488936 -0.8219931 0.13974309 -0.24188185
0001f0 ef fe 32 be 40 13 a7 be 7e 6d 2b bf 67 08 36 bf
       -0.17480062 -0.32631874 -0.66963947 -0.7110657

bn1.running_mean f4 [128]
000000 93 25 95 c1 62 81 ff c1 85 39 81 c2 0d a7 34 c2
       -18.643347 -31.938175 -64.61234 -45.163136
000010 16 5c cf c1 38 7f cd 41 9c 3f a5 c1 90 90 6a c1
       -25.919964 25.687119 -20.65606 -14.660294
000020 39 ba 29 42 7b 38 02 c3 65 e8 8c c2 8b a6 eb c0
       42.431858 -130.22063 -70.453896 -7.36408
000030 f6 6d 4e 42 79 fc b3 c2 93 5d 1f c0 ed 93 80 c2
       51.607384 -89.99311 -2.4900863 -64.28892
000040 c8 32 12 c3 fd 3a 95 c2 19 30 3f c2 62 56 8d c2
       -146.19836 -74.61521 -47.79697 -70.66872
000050 2b 60 11 c2 0c 30 20 c2 b5 29 47 42 06 77 11 42
       -36.343914 -40.04692 49.79073 36.366234
000060 1e 30 99 be a7 41 bb c1 c1 37 bc c2 25 ff e0 c1
       -0.29919523 -23.407057 -94.108894 -28.124582
000070 ae 38 b6 c1 61 9d aa c2 07 ed 69 c3 36 be fc 41
       -22.777676 -85.30738 -233.92589 31.592876
000080 98 21 47 c2 83 9d af c0 18 9a 25 42 38 6b c9 40
       -49.782806 -5.4879775 41.400482 6.294338
000090 75 09 9e c2 47 df 0d c2 4b 98 a2 41 67 9a 2c c1
       -79.01847 -35.468044 20.324362 -10.787696
0000a0 8c 8d c5 c1 cf e1 88 42 9f 6a 1a 42 84 56 e1 c2
       -24.694115 68.44103 38.604122 -112.668976
0000b0 12 48 cd 40 38 94 0b c2 a4 37 ff c1 59 e9 3c c2
       6.4150476 -34.894745 -31.902168 -47.22788
0000c0 77 57 fd c2 08 39 c1 c1 5e 6d 54 42 82 2d e5 c1
       -126.67083 -24.152847 53.106804 -28.64722
0000d0 cc f1 69 c0 fa b2 ad c2 c2 2b 51 c2 9e e4 dd c1
       -3.655383 -86.84956 -52.292732 -27.73663
0000e0 9d 5c db c1 04 a0 72 c2 1c 63 95 42 e7 db 47 c2
       -27.420221 -60.656265 74.69357 -49.96475
0000f0 9e 25 e5 c2 33 ff bf c1 2a 4c ce c0 7d d7 a6 42
       -114.57347 -23.999609 -6.4467974 83.420876
000100 8e 42 1c c3 d1 55 22 41 b8 66 aa 41 89 95 01 c2
       -156.25998 10.145951 21.300156 -32.39603
000110 6d 11 33 c2 79 f8 93 42 40 ff 57 42 86 b6 98 c2
       -44.767017 73.9853 53.999268 -76.35649
000120 2e 27 18 c2 96 56 04 c2 55 db ac 42 64 be 49 c2
       -38.03826 -33.084557 86.42838 -50.43593
000130 f2 c7 ca c1 1b 0d b8 c2 60 81 10 c2 7a a8 b3 c2
       -25.34763 -92.0256 -36.126343 -89.829056
000140 d5 50 f8 c1 e0 8d c4 41 bb 89 4e c1 af 5a 0e 42
       -31.039469 24.569275 -12.908626 35.58856
000150 a1 fe fe c1 83 f2 99 c2 0b 25 50 c2 f3 a0 da c2
       -31.87433 -76.973656 -52.036175 -109.314354
000160 59 41 56 c2 ad 4e 24 c2 f9 7e 3e c2 f9 9c 76 42
       -53.563816 -41.07683 -47.623997 61.653294
000170 f7 9e ab c1 23 6e 29 c2 42 2c 2f c0 09 58 5d 42
       -21.45262 -42.357555 -2.7370763 55.33597
000180 d2 46 e1 c0 e4 5e da c1 32 b0 2b 42 02 30 b1 c1
       -7.039895 -27.296333 42.922066 -22.148441
000190 dd c5 0f c2 dd f8 36 c0 21 7a fa c1 18 77 94 c2
       -35.943226 -2.8589394 -31.309633 -74.232605
0001a0 54 dd 19 41 a9 35 3a c2 39 56 63 42 7b 06 d6 c1
       9.616535 -46.552402 56.8342 -26.753164
0001b0 9d a8 09 c2 3c a4 49 c2 79 ae 22 c2 32 47 78 41
       -34.41466 -50.410385 -40.670383 15.517382
0001c0 a8 14 55 c1 1c ea 58 c1 1b 12 2b c2 0a 4c e0 c2
       -13.317543 -13.557156 -42.76768 -112.14851
0001d0 5c 48 ce c1 83 62 96 42 08 0b 11 c2 b9 c8 f7 c2
       -25.785332 75.192406 -36.260773 -123.89204
0001e0 de 4f 89 42 78 ae a2 c1 ab dc cf 40 24 f1 be c1
       68.65599 -20.33519 6.495687 -23.867744
0001f0 51 38 ef c1 44 a0 e0 c1 99 87 bc c2 95 2c a6 c2
       -29.902498 -28.078255 -94.26484 -83.087074

bn1.running_var f4 [128]
000000 fc 71 ac 44 4f 09 c2 44 0c 91 25 45 b1 7b a5 44
       1379.562 1552.2909 2649.0654 1323.8654
000010 8a b4 bb 44 a4 54 94 44 df 60 58 44 8f 2c 1d 44
       1501.6418 1186.645 865.5136 628.6962
000020 91 90 e8 44 ad 72 23 46 72 3b 3f 45 75 e2 34 44
       1860.5177 10460.669 3059.7153 723.5384
000030 a3 9b 00 45 ff f7 8b 45 89 73 34 44 48 f6 97 45
       2057.7273 4478.9995 721.80524 4862.785
000040 92 07 ae 46 17 b4 19 46 28 f3 d9 44 f1 d7 9e 45
       22275.785 9837.022 1743.5986 5082.9927
000050 6b f5 99 44 6b 03 d0 44 a6 18 dc 44 5f b2 08 45
       1231.6693 1664.1068 1760.7703 2187.1482
000060 e3 0d 77 44 e5 aa 81 44 09 ff 0f 46 d8 0d b9 44
       988.217 1037.3405 9215.759 1480.4326
000070 99 af b5 44 e5 d4 eb 45 a1 04 06 47 b8 44 df 44
       1453.4874 7546.612 34308.63 1786.1475
000080 b1 51 1d 45 d3 29 90 44 12 60 b7 44 11 0a 9c 44
       2517.1057 1153.307 1467.0022 1248.3146
000090 ec 96 64 45 ae fa 04 45 87 6f 9b 44 64 72 8c 44
       3657.4326 2127.6675 1243.4852 1123.5747
0000a0 15 30 fd 44 e2 72 56 45 74 bd ea 44 cd fa 01 47
       2025.5026 3431.1802 1877.9204 33274.8
0000b0 09 ce 83 44 61 a4 8b 44 40 0e 97 44 02 7d 05 45
       1054.4386 1117.1368 1208.4453 2135.813
0000c0 a7 91 80 46 5f 6c 51 44 ac 8d 15 45 8f 44 b5 44
       16456.826 837.6933 2392.8545 1450.1425
0000d0 9d 1b 8f 44 bb d9 fa 45 b0 94 fc 44 48 8d a1 44
       1144.8629 8027.2163 2020.6465 1292.415
0000e0 d7 c0 95 44 79 d7 6a 45 94 9c 50 45 2d 19 0c 45
       1198.0262 3757.467 3337.7861 2241.5735
0000f0 cf 28 af 46 59 76 99 44 30 a4 05 44 15 0f 55 45
       22420.404 1227.6984 534.5654 3408.9426
000100 6a aa 6d 46 fd 3b 8a 44 4f 2b b4 44 60 fb e6 44
       15210.604 1105.8746 1441.3534 1847.8555
000110 d9 e6 0d 45 8e 1a 27 45 3a 1f cf 44 12 c5 bf 45
       2270.428 2673.6597 1656.9758 6136.634
000120 67 bf a9 44 41 d3 0c 45 e4 5d 6f 45 67 ba be 44
       1357.9813 2253.2034 3829.8682 1525.8251
000130 d1 51 bb 44 ab 30 9b 45 d5 3c 17 45 94 59 56 46
       1498.5568 4966.0835 2419.802 13718.395
000140 b2 11 be 44 4a f3 bf 44 84 d5 83 44 13 76 e2 44
       1520.553 1535.6028 1054.6724 1811.6898
000150 a3 43 c1 44 1a 04 4e 45 8f 3f dc 44 85 b5 a2 46
       1546.1136 3296.2563 1761.9862 20826.76
000160 7d 89 9a 45 7b 10 d2 44 85 0a d3 44 de 66 3b 45
       4945.186 1680.515 1688.3287 2998.4292
000170 37 f9 9d 44 e2 29 b8 44 3b 96 a6 44 b1 f1 0a 45
       1263.788 1473.3088 1332.6947 2223.1057
000180 09 95 a2 44 88 4b 95 44 2d 09 f9 44 6f e6 b7 44
       1300.6573 1194.3604 1992.2867 1471.201
000190 30 eb ec 44 d2 33 9b 44 01 82 02 45 ab 03 1c 45
       1895.3496 1241.6194 2088.1252 2496.2292
0001a0 23 f0 7d 44 8b 29 b6 44 9b d3 13 45 20 05 b4 44
       1015.75214 1457.2982 2365.2253 1440.1602
0001b0 ce e0 cb 44 ac 5d e5 44 79 14 8a 45 be c6 89 44
       1631.0251 1834.9272 4418.559 1102.2107
0001c0 9a 3a 82 44 f0 ca 25 44 be 44 f2 44 9d ce bd 45
       1041.8313 663.1709 1938.1482 6073.8267
0001d0 de ea a6 44 09 c6 54 45 26 1f c8 44 2a 0d 78 46
       1335.3396 3404.3772 1600.9734 15875.291
0001e0 33 01 3b 45 39 6e ab 44 5c eb 0c 44 83 04 af 44
       2992.075 1371.4445 563.6775 1400.141
0001f0 df db 4a 44 9e 6d 84 44 a7 4b 81 45 b4 6c 53 45
       811.4355 1059.4255 4137.4565 3382.794

fc2.weight f4 [128, 128]
000000 7c 3c 6d 3e 4e 96 c7 3e 66 40 ab 3e f6 3b 29 be
       0.23167604 0.3898186 0.3344757 -0.1652678
000010 1c 2d 3d 3e b1 fd 9a 3b 88 1c bc be ce 16 cb 3e
       0.18474239 0.0047299494 -0.36740518 0.39665836
000020 13 57 76 3f ac 90 44 3f 12 88 54 bf 4b 97 d4 3e
       0.96226615 0.7678325 -0.83020127 0.41521677
000030 31 59 57 3e 3c 6a c8 3e 6f 8a 33 3d 06 c7 15 3f
       0.21030118 0.3914355 0.043833192 0.5850681
000040 00 ac 63 3f 92 cd ac 3c d6 cf c0 be 0a b2 f0 3e
       0.88934326 0.021094117 -0.37658566 0.47010833
000050 6c 68 2a 3e 7e 4d c5 3d 57 d9 cd 3e 1a 2d 2e bf
       0.16641396 0.09633921 0.4020488 -0.6803757
000060 b5 dd 95 be 9b 47 84 be 20 38 23 3f b3 d1 03 3f
       -0.29270712 -0.2583588 0.63757515 0.5149185
000070 ce 8c fa 3e 99 05 9f 3e 8a e9 c8 3e 7d d0 f4 3d
       0.4893555 0.31058958 0.39240676 0.119538285
000080 8e 2f 63 bf b0 ea 11 bf bc d2 17 bf 2b 81 a9 3d
       -0.8874444 -0.5699873 -0.5930593 0.0827659
000090 e2 43 2d 3f 7e 9e e4 bc 1d 75 65 3e 03 17 3d be
       0.67681706 -0.027907606 0.22407956 -0.1846581
0000a0 bb 94 04 bf 21 5e 28 3f d1 8d a3 bd 8a 36 93 3f
       -0.51789445 0.6576863 -0.07986034 1.1501019
0000b0 79 86 30 bf 36 3e 81 3d 88 b5 3a 3f 0f 81 b2 3e
       -0.6895519 0.06310694 0.72933245 0.3486409
0000c0 07 bf e7 3e ad ea 33 3f bd 51 40 be 99 00 9f bd
       0.4526293 0.7027996 -0.1878118 -0.07763786
0000d0 6e fd 91 be fc d6 0b 3f e0 77 dc 3e 33 c0 b1 3d
       -0.28513664 0.54624915 0.43060207 0.08679237
0000e0 94 36 05 be 1a 6b 03 3f e2 e7 04 3f 22 fb 9c 3e
       -0.13009101 0.513353 0.51916325 0.3066035
0000f0 4f 65 bd be 9a e6 82 3f 74 85 e6 3d a7 e3 d7 be
       -0.36991355 1.0226624 0.11255923 -0.42165872
000100 f4 cb d9 3e e7 79 fa 3e fa 99 4d 3b 00 e9 2b 3e
       0.42538416 0.4892113 0.0031372295 0.16788101
000110 55 35 a6 be e6 45 81 be cd 5c 2c 3c a7 f5 2d 3f
       -0.32462564 -0.2524864 0.010520172 0.6795296
000120 b1 aa c5 be e8 11 14 3d 7b 04 8f be cb 3b 2f 3f
       -0.3860679 0.03614989 -0.27933106 0.6845061
000130 be 28 29 bf 54 94 d1 3e b6 e1 2c 3e 2e b3 bd bd
       -0.6607779 0.40933478 0.16882977 -0.092626914
000140 22 30 9d bd 8c fe 42 bd 78 0b 04 3e 74 13 17 3e
       -0.07675196 -0.047606036 0.12895 0.14753515
000150 36 55 97 be 2a 96 7c 3e 4c 07 cd 3c 1c 01 1c bf
       -0.29557198 0.24666658 0.025027893 -0.6093919
000160 c1 ae 29 bd 16 e5 08 bf 48 5d 12 3f f5 75 07 3e
       -0.041426424 -0.5347456 0.57173586 0.13228591
000170 17 e1 f1 be 28 d4 d1 be 52 b0 14 3e 73 96 ba 3e
       -0.47242042 -0.40982175 0.14520386 0.3644291
000180 d8 ce 7c 3f 3c 56 cd 3e 17 d5 b5 3e 56 70 aa be
       0.9875312 0.40104854 0.35514137 -0.3328883
000190 67 3c 4b 3d 9d 51 0e bf bb 90 a2 3d 18 da a9 3e
       0.04961815 -0.5559328 0.079377614 0.33174205
0001a0 0d b0 9f 3b 8c 9b 91 3f 35 6a bd be dc 45 ed be
       0.004873282 1.1375594 -0.36995092 -0.4634236
0001b0 2d ad a9 bc 08 1e e6 be b6 96 d0 3d c5 5b 55 bd
       -0.02071246 -0.44944787 0.10184996 -0.05208947
0001c0 18 64 9a bc 8a 65 65 3e 7f 18 76 bf b8 2f 13 3f
       -0.018846557 0.22402015 -0.9613113 0.5749469
0001d0 9c 90 3d 3f eb 07 6c 3e 63 5e 40 3d 7a 75 39 3f
       0.7404878 0.23049895 0.046965014 0.7244488
0001e0 a5 dd b1 be de 5e e6 3c 36 c6 41 3e 98 49 33 3e
       -0.34739414 0.028121408 0.18923268 0.17508543
0001f0 fc 01 c1 3e ea 2a 11 3f a6 d1 90 be ca 4b 0c 3e
       0.37696826 0.56706107 -0.2828495 0.13700786
000200 99 14 87 be f9 4e d0 39 52 23 7f bd 29 3e dd be
       -0.26382902 0.0003973169 -0.062289543 -0.43211487
000210 36 bf f3 3e b9 26 3d be bc d4 0d 3f 02 05 7e bf
       0.4760682 -0.18471803 0.5540273 -0.9922639
000220 f4 61 26 3e 5e 36 ea 3d bb 9b d5 bd 09 39 f0 3d
       0.16248304 0.11436151 -0.10430094 0.117296286
000230 0f 6c 9b 3c d4 79 35 3e 36 cd 0a bf b5 08 f2 be
       0.018972425 0.17722255 -0.5421938 -0.47272268
000240 04 5a d9 3e a5 bb 82 3d 6f 52 ac 3e e9 f1 0d 3f
       0.4245149 0.063834466 0.33656642 0.5544725
000250 4d 6a 99 bd 05 fd 54 3f 97 eb ee 3c 00 72 f2 3c
       -0.074909784 0.8319858 0.029165072 0.029595375
000260 86 60 b3 be cd e3 36 be 05 83 0d 3f 8f db c1 be
       -0.3503458 -0.17860337 0.55278045 -0.37862822
000270 5c 6c 07 3f 17 5e 13 3f 62 a1 4d 3f 6a 99 5e be
       0.5289972 0.57565445 0.80324376 -0.2173821
000280 db 8e db be 02 3c 8b be 41 dd 9b bd 59 fd 08 3e
       -0.42882428 -0.2719422 -0.0761056 0.13377894
000290 18 a7 8b 3d 6b ff 31 3f 20 91 07 bf 06 1c 1b 3e
       0.0681898 0.6953036 -0.5295582 0.15147409
0002a0 54 25 52 3d 4c 94 9c 3e c4 bf be 3e 4d 6e 93 3f
       0.05130513 0.30581892 0.3725568 1.1518036
0002b0 9d 0e 2b be 1c 2c 76 3e 4c 08 b3 bf be 50 2b be
       -0.16704793 0.24040264 -1.3986907 -0.1673002
0002c0 cc 24 c4 bb 3e 23 ae 3e a1 9b 0b 3c 86 dd e8 be
       -0.005985832 0.34011263 0.008520992 -0.4548151
0002d0 b3 9c 6b be 0e e6 02 3f 72 73 88 3d 82 47 d2 be
       -0.23008995 0.51132286 0.066626444 -0.4107018
0002e0 47 06 88 3e 8e ce 17 3f ed d5 4b 3d 5e 58 ed 3d
       0.2656729 0.5929955 0.049764562 0.1158912
0002f0 81 44 13 bf 65 f8 2a bf a2 d2 04 be 9e 59 b1 3e
       -0.57526404 -0.6678527 -0.12970975 0.34638685
000300 b0 95 5a 3f 16 ed 8e be e0 9d cf 3c 4b 2f 61 3f
       0.85384655 -0.27915257 0.025343835 0.8796279
000310 98 19 09 be b6 65 ad 3d 94 4e 20 bd 60 49 5b 3e
       -0.1338867 0.084666654 -0.039137438 0.21414709
000320 e5 2c eb be 8c 5b 34 be f3 ea 02 bd 42 13 e9 3e
       -0.4593269 -0.17613047 -0.031962346 0.45522505
000330 a0 ce fd bc ff 32 e7 3e be 71 7d bc 95 40 01 3e
       -0.030982316 0.45156094 -0.015469013 0.12622292
000340 74 98 61 bf 3a 8a 9c 3e bc 60 99 3e f1 2a 01 bf
       -0.8812325 0.30574208 0.29956615 -0.5045615
000350 6f 98 d8 3d f6 ed 65 bd 5a 6f 56 be 3d ac 8c 3e
       0.105759494 -0.05613514 -0.20940915 0.27475157
000360 8e 5b 4e bf 79 e4 03 3f 8d a7 36 3f c3 81 3d be
       -0.8060845 0.51520497 0.7134941 -0.18506531
000370 5a 1f e9 be d1 db 98 be 6d 19 4e 3e 66 85 98 3e
       -0.45531732 -0.29855207 0.20126887 0.29789275
000380 59 b6 23 3f d4 77 40 3f 5e a4 8e 3e eb 8a b8 3d
       0.63950115 0.75182843 0.27859777 0.090108715
000390 be fa e7 be b7 7e 23 3f f8 6c 0f 3f 3b b8 a2 3e
       -0.4530849 0.63865227 0.5602565 0.31781182
0003a0 39 1e 8a be 9c a0 5a be 89 ac 9c be 96 ba 24 be
       -0.26976183 -0.2135033 -0.30600384 -0.16086802
0003b0 99 26 95 be 6e d3 60 3c 5f 27 3b 3f be 5c 6b bd
       -0.2913101 0.013722284 0.7310695 -0.057461493
0003c0 bf 65 85 bd 00 f7 55 bd 94 bd ce be 14 7c 0e 3f
       -0.06513547 -0.05223751 -0.40379012 0.5565808
0003d0 90 c7 13 bf 4c 69 31 3e 4f dc 14 be 1d 4e e4 3e
       -0.57726383 0.17325324 -0.14537166 0.44590846
0003e0 62 99 6f 3d 82 39 25 be df 0c 89 3e 6b 2a 6e 3e
       0.058495887 -0.16135219 0.26767632 0.23258369
0003f0 ce a8 c4 bd 66 6e 30 3f 04 a6 fd be fa 3a 0c 3f
       -0.096025094 0.68918455 -0.49540722 0.5477749

fc2.bias f4 [128]
000000 d7 87 2d be 0c 02 f4 bb 82 f6 84 bd 2e 4f 35 3e
       -0.1694635 -0.007446533 -0.0649233 0.17705986
000010 d1 55 d4 bc a4 d9 89 bc dc 9f 78 3e a2 8a 0e be
       -0.025919827 -0.016827412 0.24279732 -0.13920072
000020 9c 61 df 3d 25 b0 8d 3b 84 d0 ba bb 3b 44 c0 3c
       0.109072894 0.0043239766 -0.0057011265 0.023470035
000030 af b6 16 3e 56 e3 47 3d 18 1f 21 bd dd 8c e1 bd
       0.14718126 0.04880079 -0.039336294 -0.11013196
000040 17 5b 52 3e 4c f5 79 3e e1 ab 73 3d e5 6f 21 be
       0.2054256 0.2440998 0.05949009 -0.1576534
000050 af 0d 9f 3f d9 c0 35 3e ec 5d f6 3d 2c a0 33 3e
       1.2426051 0.17749347 0.12029633 0.1754157
000060 a9 42 35 3e 7b 2a a3 bc cc 46 3f be 9d b5 97 bd
       0.1770121 -0.019917717 -0.1867935 -0.07407687
000070 2b 32 b4 3d 69 32 37 be 0d 9a b2 bd c3 1d 78 3f
       0.08798631 -0.17890324 -0.08720789 0.9692041
000080 70 12 9c 3e 7c a8 ac bd fa 77 d4 bb fc 79 7e bc
       0.30482817 -0.08430573 -0.006484029 -0.015532013
000090 f9 9c 08 be a8 2b f2 3a 81 b4 a9 3d a5 c2 ad 3d
       -0.1334113 0.0018476145 0.082863815 0.08484391
0000a0 03 e1 9d 3b 1d c2 db bb 7f f3 2a bd ce 3d 69 bd
       0.0048180833 -0.0067064897 -0.041736122 -0.056943707
0000b0 f6 00 b1 be 3c 6d 2d 3c 9b 4e 22 3e 8b ab 06 3c
       -0.34571046 0.010585126 0.15850298 0.00821961
0000c0 5b b3 75 bd 4c bc a2 3c 85 a0 41 bd 66 e4 5b bd
       -0.0599855 0.019865178 -0.047272224 -0.053684615
0000d0 42 01 89 bd 20 82 eb bd 7d b2 92 3d 23 46 78 be
       -0.06689693 -0.11499429 0.0716295 -0.24245505
0000e0 95 c1 44 bd 3e c1 84 be ac 28 1a be 36 5d 03 bc
       -0.048036177 -0.25928682 -0.15054578 -0.008017829
0000f0 10 3e 1e be fe d8 62 be a0 be 02 bd 93 7f 9c be
       -0.15453362 -0.22153088 -0.031920075 -0.3056608
000100 7d 86 27 be 10 3e ae 3c 74 85 74 ba 12 f7 0a be
       -0.16359897 0.021269828 -0.00093277474 -0.13570812
000110 67 ac 46 be 2f fc 37 3c b1 1a d5 bd 7f 85 95 3d
       -0.19401704 0.011229559 -0.104054816 0.07300853
000120 e6 5b 54 be c1 2f 96 3e 07 24 6f 3d 9c b3 6f 3d
       -0.20738181 0.29333308 0.058383968 0.0585209
000130 06 25 91 3d bb 75 2d be 29 e9 60 ba 2a 27 64 be
       0.0708714 -0.16939442 -0.00085796654 -0.22280565
000140 7c 16 5c bd 84 f8 6b bd 97 66 e5 3d 5d 63 2d bc
       -0.05373238 -0.05761005 0.11201208 -0.010582772
000150 de 5a 53 3d bb d2 ab 3c 3f e0 7c 3d 78 95 78 3d
       0.05160033 0.020974508 0.061737295 0.06068942
000160 4e 8b e5 be 7c 82 4c 3e b3 c6 cc 3b 6e 87 2b 3d
       -0.44832844 0.19971651 0.0062492727 0.041877203
000170 90 5d 72 3b 3c bb 6a bf a1 94 93 3e a7 2e 36 3e
       0.0036982037 -0.91691947 0.28824332 0.17791234
000180 f7 e4 13 bd 6e 8d de bd 99 de c5 bd 58 90 91 3d
       -0.03610703 -0.10866819 -0.09661598 0.071076095
000190 57 f5 a3 bd 60 93 2b be 00 8f 42 3f 3c 0b 88 be
       -0.08005779 -0.16755438 0.7599945 -0.2657107
0001a0 66 14 3d 3c 4d 42 d6 3d 42 9c 30 be 55 ac 08 3d
       0.011540508 0.104618646 -0.17247108 0.033367474
0001b0 ce 6e 9c 3c 04 fb b4 3d ea d4 a5 3b 98 5d ba bd
       0.019095805 0.0883694 0.0050607817 -0.09099883
0001c0 58 0a a9 be f3 d7 fd bd b5 80 6d 3d 6c 90 db bd
       -0.33015704 -0.12394705 0.057984073 -0.10720906
0001d0 04 69 ac be 79 32 42 bd 81 82 fd bc 45 d9 b2 bd
       -0.3367387 -0.047411416 -0.030946018 -0.08732847
0001e0 17 11 b4 3c 7e cf ec b9 a3 38 65 bd 88 8d 36 bd
       0.021980805 -0.00045168021 -0.055962216 -0.04456857
0001f0 fb 3f 84 3d 8d 72 d3 bd 13 09 b4 3d 98 8c 18 be
       0.06457516 -0.10324583 0.08790793 -0.14897382

bn2.weight f4 [128]
000000 22 69 67 3e a8 f1 ad 3e 3c 68 ba 3e 67 d0 bc 3e
       0.22598699 0.33973432 0.3640765 0.36877748
000010 e7 6b 79 3e ad ea cf 3e 56 ba 22 3f 09 4f 27 3f
       0.24357568 0.4060873 0.63565576 0.65354973
000020 f1 8d fc 3e 18 4a 2d 3e 67 80 22 3f 0d 0c 86 3e
       0.49327043 0.16922796 0.63477176 0.2618107
000030 81 fd f0 3e 2c 92 7d 3e 44 c4 e3 3e 35 00 09 3f
       0.47068408 0.24762791 0.44485676 0.5351594
000040 02 00 02 3f 0a 3e ac 3e 80 4b 25 3f b2 b7 c1 3e
       0.5078126 0.33641082 0.6456833 0.3783546
000050 8c 09 3f 3f a4 58 31 3d f4 e4 6a 3e d9 05 a7 3e
       0.7462394 0.043297425 0.22938901 0.3262165
000060 1c ad bb 3e 89 48 c1 3e c4 50 36 3f 84 41 bf 3e
       0.3665551 0.37750652 0.7121699 0.37354672
000070 72 a8 df 3e 2b 79 55 3f f7 86 2e 3f 05 bc 19 3f
       0.436832 0.8338801 0.6817469 0.6005252
000080 27 2b 04 3f 61 5d 93 3e 72 42 71 3f 4d 20 25 3f
       0.51628345 0.2878218 0.9424201 0.6450241
000090 1e b0 90 3e bc 98 b9 3e 18 fe 3e 3f e9 58 d2 3e
       0.28259367 0.3624934 0.74606466 0.41083458
0000a0 d0 6d b1 3e b9 b9 ce 3e 88 06 17 3f 8b 8b c7 3e
       0.34654093 0.4037607 0.5899434 0.3897365
0000b0 c3 32 de 3e 25 92 10 3f d3 23 02 3f 90 54 a8 3e
       0.43398103 0.56473 0.50835913 0.32877016
0000c0 5b b2 0d 3f 1f be aa 3e ef 86 a6 3e 95 28 91 3e
       0.55350274 0.33348176 0.3252482 0.28351274
0000d0 23 39 c0 3e 1c 72 bb 3e 98 40 03 3f 08 08 b1 3e
       0.37543592 0.36610496 0.5127044 0.3457644
0000e0 76 f4 84 3e 4d 69 ee 3e 3f 03 ce 3e db fc a6 3e
       0.2596776 0.46564713 0.40236852 0.32614788
0000f0 79 22 33 3f f8 b1 00 3f b1 35 c7 3e 9d fd 29 3f
       0.69974476 0.5027156 0.3890815 0.6640261
000100 2d 14 84 3e a4 3b a3 3e 75 8e ae 3e 33 b4 b5 3e
       0.25796643 0.3188144 0.3409306 0.35489044
000110 4d 78 44 3f a8 dd df 3e 8d 08 bc 3e b3 bd ac 3e
       0.76746064 0.43723798 0.36725274 0.3373848
000120 01 b0 c0 3e 3e 4f ed 3e 41 ce 1f 3f 4d 23 2b 3f
       0.3763428 0.4634952 0.62424093 0.6685074
000130 d0 8b aa 3e 16 d9 b9 3e 0d 23 d7 3e 7b 9b ea 3e
       0.33309793 0.36298436 0.4201893 0.45821747
000140 32 44 8e 3e 2a 3f 91 3e 7f a7 01 3f 9f c9 ec 3e
       0.27786404 0.28368503 0.50646204 0.46247575
000150 33 3a 5d 3f cc 3c f2 3e 67 0e d9 3e f0 fb a8 3e
       0.8641693 0.4731201 0.423938 0.33004713
000160 50 6d db 3e 42 ab ab 3e 8a 3c a2 3e d0 a0 67 3e
       0.42856836 0.33529097 0.31686813 0.22619939
000170 e2 84 51 3e 14 c0 fa 3e 4b 48 01 3f 15 13 e7 3e
       0.20460847 0.4897467 0.50500935 0.45131746
000180 22 e6 ce 3e 51 02 0a 3f 49 f1 cf 3e 8f 53 d6 3e
       0.40409952 0.53909785 0.40613773 0.41860625
000190 5d 0a db 3e e0 25 8b 3e fe 78 38 3f 14 44 1f 3f
       0.42781344 0.27177334 0.7205962 0.62213254
0001a0 ef f8 b0 3e 45 ff 94 3e 92 0f dc 3e b5 35 b8 3e
       0.3456492 0.29101005 0.4298063 0.35978475
0001b0 3f ae bf 3e 12 9c bb 3e 45 2c a3 3e 94 0f e8 3e
       0.37437627 0.3664251 0.31869712 0.45324385
0001c0 f1 b9 0d 3f 28 58 d9 3e fd 54 f4 3c 99 95 d2 3e
       0.5536185 0.4245007 0.029825682 0.4112976
0001d0 36 bf fd 3e 0b 8b bf 3e 79 a9 af 3e c6 b1 d9 3e
       0.49559945 0.3741077 0.34308985 0.42518443
0001e0 23 00 cc 3e ab 7e 3b 3f f0 1c 3a 3f 1b ef fc 3e
       0.39843854 0.73240155 0.72700405 0.49401173
0001f0 7f ea d4 3e d6 e3 c6 3e e3 f7 b0 3e 9e 25 54 3f
       0.41585156 0.388457 0.34564123 0.828699

bn2.bias f4 [128]
000000 24 34 2f bf 76 55 b4 bf 76 4a 6b bf 6f 43 68 bf
       -0.68438935 -1.4088581 -0.91910493 -0.90727895
000010 83 4f 18 bf 53 51 73 bf e0 3f 8e bf b6 9a 4a bf
       -0.59496325 -0.95045966 -1.1113243 -0.7914232
000020 51 14 7a bf 63 17 35 bf bf 25 c8 bf 51 f3 31 bf
       -0.9768725 -0.7073881 -1.5636519 -0.69511896
000030 72 02 71 bf e0 c0 6d bf 38 a9 75 bf e2 97 b2 bf
       -0.94144356 -0.9287243 -0.9596133 -1.3952601
000040 7c 08 72 bf 60 d4 67 bf 32 0a b9 bf 70 10 78 bf
       -0.94544196 -0.90558434 -1.4456236 -0.9690008
000050 26 64 28 bf 2f 3f c5 bd 27 ba d5 be 40 fb a7 bf
       -0.65777814 -0.09631192 -0.41743585 -1.312355
000060 07 e8 19 bf 99 24 9f bf 48 f3 c5 bf 15 8d 62 bf
       -0.6011967 -1.2433044 -1.5464869 -0.88496524
000070 4c 2b ad bf 8f f2 cf bf aa 32 cf bf b8 a4 e3 be
       -1.3528838 -1.6245898 -1.6187336 -0.44461608
000080 e7 20 31 bf 0c f5 81 bf ff 74 06 bf a4 06 c2 bf
       -0.6919083 -1.0152907 -0.5252227 -1.5158277
000090 86 5f 69 bf 05 b1 4c bf bc bd c9 bf 2f e6 68 bf
       -0.9116138 -0.7995761 -1.5761027 -0.9097623
0000a0 ba 41 7b bf 08 33 7b bf 02 b0 d4 bf 91 e0 82 bf
       -0.98147166 -0.9812474 -1.6616213 -1.0224782
0000b0 b4 e2 68 bf 46 30 a9 bf ed 85 2c bf f2 f5 39 bf
       -0.9097092 -1.3217857 -0.67391855 -0.7264091
0000c0 dc d5 97 bf 49 50 78 bf 78 08 55 bf 58 c2 59 bf
       -1.186214 -0.96997505 -0.8321605 -0.8506217
0000d0 90 5b 90 bf ee 80 8b bf 4c b3 84 bf e5 3d 3e bf
       -1.1277943 -1.0898721 -1.0367217 -0.74313194
0000e0 93 00 5b bf 24 00 5f bf 90 32 a1 bf 10 86 32 bf
       -0.8554775 -0.8710959 -1.2593555 -0.69735813
0000f0 ec 40 f5 bf 74 d4 29 bf 4c 03 9e bf 74 80 f6 bf
       -1.9160438 -0.663398 -1.2344756 -1.9257951
000100 b1 d5 99 bf fc 13 88 bf 3f bd 87 bf b7 8b 87 bf
       -1.2018338 -1.0631099 -1.0604628 -1.0589513
000110 e1 ba 3e bf eb c1 79 bf 44 d8 5a bf 99 f9 96 bf
       -0.74503905 -0.9756152 -0.85486245 -1.1794921
000120 11 18 2d bf 0f c0 5a bf 4f cd d7 bf 7b 77 bb bf
       -0.6761485 -0.8544931 -1.685953 -1.4645838
000130 49 6a a3 bf 12 81 69 bf 65 d4 97 bf 8e 6e 97 bf
       -1.2766811 -0.9121257 -1.1861693 -1.1830614
000140 d0 ca 85 bf f0 5b a3 bf 0a 2f 95 bf 61 dc 96 bf
       -1.0452518 -1.2762432 -1.165498 -1.1786004
000150 9c 3a b9 bf aa 26 9a bf 16 db 6f bf 6a a6 62 bf
       -1.4471011 -1.2043049 -0.93693674 -0.8853518
000160 85 1d 4b bf 8f e2 87 bf 5d 86 49 bf 02 85 f3 be
       -0.7934192 -1.0616015 -0.7872065 -0.47562414
000170 13 22 41 bf 91 6b 88 bf db 43 9e bf 6b 4b 7a bf
       -0.7544262 -1.0657827 -1.2364458 -0.9777133
000180 9b 5d 63 bf 53 9f a7 bf 07 a7 87 bf 95 86 81 bf
       -0.88814706 -1.3095497 -1.0597848 -1.0119196
000190 61 ab 9c bf a6 9d 33 bf 45 d4 03 bf 55 71 ac bf
       -1.2239801 -0.7016243 -0.5149577 -1.3472086
0001a0 91 28 2e bf 89 e0 80 bf 2e 79 76 bf ac 0f 3e bf
       -0.6803065 -1.0068523 -0.96278656 -0.74242663
0001b0 d0 c2 40 bf 94 ad 84 bf 52 68 72 bf 55 7c 6a bf
       -0.7529726 -1.0365472 -0.9469043 -0.91595966
0001c0 3c bf 91 bf d4 b0 70 bf ed f1 3d be 21 66 4b bf
       -1.1386485 -0.9401982 -0.18549319 -0.7945271
0001d0 02 7e 84 bf 12 f7 ae bf ea f5 61 bf 80 4e 92 bf
       -1.0350955 -1.366915 -0.8826586 -1.1430206
0001e0 1d 86 77 bf 28 36 e7 bf 33 61 d6 bf 84 29 80 bf
       -0.96689016 -1.8063402 -1.6748413 -1.001267
0001f0 61 ac 99 bf 5d c6 7e bf 2c 02 46 bf 37 5d dc bf
       -1.2005731 -0.9952143 -0.77347064 -1.7215947

bn2.running_mean f4 [128]
000000 f8 f1 3e 3f 04 54 2a 3f ef 85 16 3f f1 dc 72 3f
       0.74587965 0.6653445 0.58798116 0.9486838
000010 9d 27 8c 3e 82 8f 96 3f 5e 5d 86 3f db 11 68 3f
       0.27373973 1.1762545 1.0497243 0.90652245
000020 46 01 90 3f 74 ff 0f 3f 3a 46 ea 3e c0 07 8c 3e
       1.1250389 0.56249166 0.45756704 0.27349663
000030 91 28 79 3f e3 2e 0b 3d 9e 4a 52 3f c3 94 2d 3e
       0.97327524 0.03398026 0.82145107 0.1695128
000040 12 af 30 3f 5d 5a 32 3f d2 38 35 3f ae f9 2b 3f
       0.69017136 0.69669133 0.70789826 0.67177856
000050 06 fd 22 40 7d 6b 47 bf 34 d7 96 3f 56 b6 6d 3c
       2.5466933 -0.7789839 1.1784425 0.014508804
000060 4b 38 a3 3f 84 b7 ad 3e 08 a4 3f 3e 0b dc 03 3f
       1.2751554 0.33929074 0.18714917 0.51507634
000070 16 b3 61 3f 25 94 1f 3e e1 d8 1a 3f 39 b9 27 40
       0.8816389 0.15583856 0.6048718 2.62068
000080 be 91 9b 3f 9d dd 5a 3e 5d 8e 2e 40 16 c1 87 3f
       1.2153852 0.21373601 2.7274392 1.06058
000090 44 52 06 3f 6e 7f 78 3e 0c c4 5c 3f ce 92 02 3f
       0.5246928 0.2426736 0.86236644 0.51005256
0000a0 4a 82 74 3f 6c ee 88 3f 8f 52 36 3f 1a 91 ae 3f
       0.95511305 1.069776 0.71219724 1.3638031
0000b0 40 bc 7d 3e 8f 84 8a 3f cc 8f 8c 3f ee a7 91 3f
       0.24778843 1.0821704 1.0981383 1.1379373
0000c0 d8 75 08 3f 51 9a a8 bc d9 9b 31 3f 5f 1d e9 3e
       0.53304815 -0.020581396 0.6937843 0.4553022
0000d0 1f a1 21 3f 33 87 dd 3e 3e 6a c5 3e 5c 46 91 3e
       0.63136476 0.4326721 0.3855762 0.28373992
0000e0 69 0d 66 3e 50 07 84 3e 16 88 1f 3e 8c fb a0 3f
       0.22466053 0.2578683 0.15579256 1.2576766
0000f0 9b f6 0e 3f e5 e8 b5 3f 2a c6 87 3f 52 9f 06 be
       0.5584504 1.4211699 1.060735 -0.13146713
000100 24 4d 21 3f ab a0 32 3f 13 ff 8a 3f 86 bc 04 3f
       0.6300833 0.6977641 1.0859092 0.51850164
000110 41 7e 5e 3f 40 15 62 3f c9 65 b6 3e e1 1f aa 3e
       0.869114 0.88313675 0.3562453 0.33227447
000120 31 d6 47 3f e7 16 86 3f 3b 90 55 3f 48 f5 80 3f
       0.78061205 1.0475739 0.83423203 1.0074854
000130 0b 26 91 3d 8e d2 fd 3e 11 da b5 3e 72 ef 12 3f
       0.07087334 0.49574703 0.35517934 0.57396615
000140 39 45 5a 3f 8a f0 bf 3d d0 20 68 3f 8a 72 41 3f
       0.85261875 0.09372051 0.9067507 0.755654
000150 88 aa a5 3e d5 36 15 3f 39 e9 93 3e af bc 36 3e
       0.32356668 0.5828679 0.28888872 0.17845415
000160 83 ab 36 3f d2 35 b7 3e 91 5e 78 3f b6 76 ba 3f
       0.71355456 0.3578325 0.97019297 1.4567478
000170 f9 16 a2 3e 4d a0 ab 3e 02 eb 38 3f d9 9c 79 3f
       0.31658152 0.33520737 0.72233593 0.97504956
000180 09 95 8a 3f 7e 50 43 3f 71 13 44 3f d6 ec 13 3f
       1.0826732 0.76294696 0.76592165 0.5778326
000190 4b 28 08 3f 4b 8e d9 3c 75 e0 20 40 3f 45 d5 3e
       0.5318648 0.026557108 2.5136998 0.41654393
0001a0 1d 59 5e 3f 57 19 4a 3f 6c 59 53 3f 0d 95 2c 3f
       0.86854726 0.78944916 0.8255832 0.67414933
0001b0 bd 74 4b 3f 63 0d 01 3f d4 7a 30 3f 02 6f 34 3f
       0.79475003 0.5041105 0.6893742 0.70481884
0001c0 bd b1 f1 3e 13 06 b2 3e 21 9b 0a bf ff 1d 2b 3f
       0.47205916 0.3477026 -0.5414296 0.66842645
0001d0 77 38 f3 3e 58 51 fc 3e 4a 5c 0a 3f f6 b5 10 3f
       0.47504017 0.4928081 0.5404707 0.5652765
0001e0 ba 28 51 3f a4 33 cc 3e 4b 64 d3 3e 6d 77 0a 3f
       0.8170277 0.3988315 0.41287455 0.5408848
0001f0 1d 5a 39 bc e8 71 bf 3e aa fa 9b 3f 21 ee 05 3f
       -0.011312989 0.3739159 1.2185872 0.5231648

bn2.running_var f4 [128]
000000 5b 2d c5 3e 98 4e 91 3e 70 e2 30 3f 20 75 ad 3e
       0.38511166 0.28380275 0.69095516 0.33878422
000010 17 fe 75 3e fe 7c b1 3f 08 86 e7 3e fe 88 91 3f
       0.24022709 1.386627 0.45219445 1.1369932
000020 b3 db 51 3f 0a 99 d2 3e 4c 6d 8b 3e 93 01 be 3e
       0.8197586 0.41132385 0.27231824 0.37110576
000030 c1 2a 1a 3f 59 77 9e 3d 83 32 2b 3f 33 ef be 3e
       0.6022149 0.077376075 0.6687395 0.3729187
000040 fc ba 1f 3f d8 77 f0 3e 94 8a cc 3e 25 96 fb 3e
       0.6239469 0.46966434 0.39949477 0.4913799
000050 7c b1 2c 40 f7 1b d7 3f f7 9a 88 3f 84 27 ca 3d
       2.6983328 1.6805409 1.0672292 0.09870818
000060 41 f5 9f 3f 95 5f cd 3d 51 3d 85 3e 65 3e 36 3f
       1.249672 0.100279965 0.26023343 0.71188956
000070 fc 6b b1 3e 99 67 92 3e cb f5 b7 3e a8 fa 35 40
       0.34652698 0.28594664 0.35929713 2.8434238
000080 af 12 92 3f 49 ca 0d 3e bb 20 9f 40 d4 a9 40 3f
       1.1411952 0.13846697 4.9727454 0.7525914
000090 47 14 27 3f df 18 df 3e da cd c7 3e a2 70 31 3f
       0.65265316 0.43573663 0.3902424 0.6931249
0000a0 52 6e 1d 3f 05 b5 74 3f 28 37 33 3e fa 14 a1 3f
       0.6149646 0.95588714 0.17501509 1.2584527
0000b0 a4 1a db 3e 56 e5 70 3f f4 7f 69 3f 9f 5e 82 3f
       0.42793763 0.9409994 0.91210866 1.0185126
0000c0 7d 66 ae 3e 16 51 88 3e e9 d3 4e 3f 25 fb 7c 3e
       0.34062567 0.26624364 0.807921 0.24705179
0000d0 85 6c 33 3f c0 05 0e 3f 19 fb f5 3e 99 01 f1 3e
       0.7008746 0.55477524 0.48043135 0.4707153
0000e0 87 2c cc 3e 0e 2b 26 3f 83 ed 6a 3e 0d 71 80 3f
       0.39877722 0.64909446 0.22942166 1.00345
0000f0 d9 42 ce 3e 0d 59 02 40 13 27 47 3f 99 84 14 3e
       0.40285376 2.0366852 0.77794 0.14503707
000100 2f 65 89 3e 82 c0 16 3f 57 95 78 3f 23 de c5 3e
       0.2683501 0.58887494 0.97102875 0.3864604
000110 d9 1e 18 40 cb 19 53 3f 58 cf 09 3f b9 47 f6 3d
       2.3768828 0.8246123 0.53832006 0.12025399
000120 4d 30 44 3f 65 6a 21 3f 6a 78 84 3e d6 a3 03 3f
       0.766362 0.6305297 0.2587312 0.5142187
000130 0e 34 92 3d 64 06 e1 3e aa ae e1 3e e4 43 0f 3f
       0.07138835 0.43950188 0.4407857 0.5596297
000140 25 9c 0f 3f 57 15 96 3d 14 99 e8 3e d0 fe 23 3f
       0.5609763 0.07328289 0.4542929 0.6406069
000150 e9 a0 7d 3e da 31 31 3f fc aa 65 3e f8 c0 90 3e
       0.24768414 0.6921669 0.22428507 0.28272223
000160 4e 1c a6 3f 68 3e 21 3e 50 e9 45 3f d9 83 bf 3f
       1.2977388 0.15746462 0.7730913 1.4962112
000170 eb c2 37 3e e1 ca 36 3f 71 d4 c1 3e 0b a0 e5 3e
       0.17945449 0.7140332 0.37857392 0.44848666
000180 06 cb 44 3f 39 06 f3 3e 0e 1a 0a 3f c3 e7 4c 3f
       0.7687229 0.47465685 0.53946006 0.8004114
000190 d3 95 5d 3e d6 b3 1f 3e 7b 61 28 40 ac 89 de 3e
       0.21639185 0.15595946 2.6309497 0.4346441
0001a0 6c 5e 81 3f fc 4e b9 3e 41 41 31 3f 4f ea 07 3f
       1.010694 0.36193073 0.69240195 0.530919
0001b0 69 56 f6 3e d1 06 ec 3e 87 4e 55 3f 97 28 50 3f
       0.481128 0.4609895 0.8332295 0.81311935
0001c0 01 3d 18 3f 15 4b 2c 3f dd d0 8c 3e 7c a9 f0 3e
       0.59468085 0.67302066 0.275031 0.47004306
0001d0 e7 a7 ee 3e 68 f3 ae 3e 07 9a 02 3f e2 93 ce 3e
       0.46612474 0.3417008 0.5101628 0.403472
0001e0 70 03 20 3f d2 32 3f 3e 8b 51 bc 3e ef 04 50 3f
       0.62505245 0.1867173 0.36780962 0.8125753
0001f0 71 39 30 3e 1b 31 d9 3e 69 44 06 3f 81 26 aa 3e
       0.17209412 0.42420277 0.52448136 0.332325
