neural_networks/neural_network47_2.pth (torch, 87334 bytes, 18 tensors)

fc1.weight f4 [128, 17]
0	0x3db3f428	0.087868035
1	0x3e3aeb81	0.182539
2	0x3d14a5b8	0.036290854
3	0xc002b178	-2.0420818
4	0xbd5a27a2	-0.053260453
5	0xbce90401	-0.028444292
6	0xbea28007	-0.31738302
7	0x3da81ee6	0.082090184
8	0xbdf2f0a1	-0.118623026
9	0x3da63cdb	0.08117076
10	0x3bbee4ef	0.005825631
11	0x3de869d8	0.11348313
12	0xbdf60c83	-0.12014105
13	0x3e4cd302	0.20002368
14	0x3e2b78f2	0.16745356
15	0xbd7776d3	-0.060416054
16	0xbdbbc67f	-0.091687195
17	0xbc06bf60	-0.008224338
18	0xbef0c16c	-0.4702257
19	0xbf43e0f8	-0.7651515
20	0xbe277508	-0.16353238
21	0x3e98fb7a	0.2987936
22	0xbf08792c	-0.53309894
23	0xbeada712	-0.33916527
24	0x3ea37fef	0.31933543
25	0xbf261a25	-0.64883643
26	0x3f28530c	0.6575172
27	0xbe2fd946	-0.17172727
28	0x3e176ec8	0.14788353
29	0xbe7fa208	-0.24964154
30	0xbf1f995a	-0.6234337
31	0x3f02c817	0.5108656
32	0x3f27e5b7	0.6558489
33	0x3cc6fea7	0.02429135
34	0x3e51dd00	0.20494461
35	0x3da01433	0.07816353
36	0xbf1abbdc	-0.604429
37	0xbe990f91	-0.2989469
38	0xbf783df5	-0.9696954
39	0xbeacaeaf	-0.33727023
40	0x3e9194c6	0.28433818
41	0x3ea4c8fe	0.32184595
42	0x3e6a2e9c	0.22869343
43	0xbf2aac73	-0.66669387
44	0xbf01595b	-0.5052697
45	0xbf1467b9	-0.5797077
46	0xbe87fd86	-0.2656061
47	0x3da443db	0.08020755
48	0xbef401c2	-0.4765759
49	0xbf76c991	-0.96401316
50	0xbddb9457	-0.10721653
51	0xbd9a328e	-0.07529174
52	0xbe834a0c	-0.2564243
53	0xbe61d98c	-0.22055644
54	0x3d5927d4	0.0530165
55	0xbf864373	-1.0489334
56	0xbf4ea126	-0.80714643
57	0xbd6b1eb3	-0.057402324
58	0xbe978a1e	-0.29597563
59	0x3d85d311	0.06534398
60	0x3ea695fc	0.32536304
61	0x3d417ac6	0.047236226
62	0xbe9cca07	-0.30622885
63	0x3e0b107d	0.13580509
64	0xbc3b3e43	-0.011428419
65	0xbeba46e9	-0.36382225
66	0x3db7f725	0.08982686
67	0xbd8b17cc	-0.06791648
68	0xbe2c0ff4	-0.1680296
69	0x3da62514	0.08112541
70	0x3e7bc1e8	0.24585688
71	0xbe8fb62a	-0.28068668
72	0xc002e281	-2.0450747
73	0xbdb97b50	-0.09056723
74	0xbe61db50	-0.22056317
75	0xbe88184a	-0.2658103
76	0x3df0e437	0.117622785
77	0x3e0603be	0.13087365
78	0xbebc0ded	-0.36729375
79	0xbe292281	-0.16517068
80	0xbe21ed2b	-0.15813129
81	0xbe2faa52	-0.17154816
82	0xbd71f11e	-0.059067838
83	0xbc51d2c1	-0.012806595
84	0x3d8fb1ae	0.070163116
85	0x3e2293dc	0.15876716
86	0x3d0b0f81	0.033950333
87	0x3f0c67fc	0.5484617
88	0x3f97b88b	1.1853193
89	0x3f5d12a7	0.86356586
90	0x3d8915f8	0.06693643
91	0x3e30353e	0.1720781
92	0x3e015f2f	0.12633966
93	0x3e9731d2	0.29530197
94	0x3dc8fbb2	0.09813632
95	0x3c794b86	0.01521576
96	0x3ee7078c	0.45122945
97	0x3e3506ae	0.1767833
98	0xbdef1334	-0.116735846
99	0xbd8abfc0	-0.06774855
100	0x3e2f5c21	0.17124988
101	0xbc5d1bd8	-0.013495408
102	0x3d593d38	0.0530369
103	0xbe909368	-0.28237462
104	0x3f205139	0.62623936
105	0xbd35ccdb	-0.04438482
106	0x3e4dbdf5	0.20091994
107	0xbf49fa50	-0.7889757
108	0x3ebb781c	0.36615074
109	0xbf0a2d31	-0.53975207
110	0xbe6121c3	-0.21985535
111	0xbdaacc1a	-0.083397105
112	0xbe8dc851	-0.27691892
113	0xbe7e2612	-0.2481921
114	0xbc287065	-0.010280703
115	0x3d8866d6	0.066602394
116	0xbceaf6ed	-0.028682197
117	0x3d999b10	0.07500279
118	0xbf0c7cc4	-0.5487788
119	0xbe16430a	-0.14674011
120	0xbea01d7c	-0.31272495
121	0xbf65eff1	-0.89819247
122	0x3e6475a4	0.22310501
123	0x3f0a6945	0.5406688
124	0xbe01ecd4	-0.12687999
125	0xbe852799	-0.26006773
126	0xbf3185e4	-0.69344926
127	0x3ddd02be	0.10791539
128	0xbe08ddbf	-0.1336584
129	0xbe5b294a	-0.2140247
130	0x3e989b37	0.2980592
131	0xbe966b05	-0.29378524
132	0x3c2d41e5	0.0105747925
133	0x3e235388	0.15949833
134	0xbe1d332c	-0.15351552
135	0xbeacda30	-0.33760214
136	0x3dbacc28	0.09120971
137	0x3e5398ac	0.20663708
138	0x3f933df5	1.1503283
139	0x3e894657	0.26811478
140	0x3ecf06a1	0.40434745
141	0xbf56d865	-0.8392394
142	0xbce77765	-0.028255174
143	0xbe2e5edb	-0.17028372
144	0xbde9a93b	-0.11409231
145	0xbef585c4	-0.47953618
146	0xbe7be7f0	-0.24600196
147	0xbf1dec73	-0.6168892
148	0xbc18fc34	-0.009337474
149	0xbd9b0359	-0.07568998
150	0x3e4b59e6	0.19858512
151	0xbece2c2b	-0.40268072
152	0xbea283d5	-0.31741205
153	0x3e643f8a	0.22289863
154	0xc095e88b	-4.6846366
155	0xbcc3ffb0	-0.023925632
156	0xbd814e27	-0.063137345
157	0xbc3b1240	-0.011417925
158	0x3b9e918b	0.0048391274
159	0x3cb75baa	0.022382576
160	0x3d1d8190	0.03845364
161	0x3d2c0b13	0.04200275
162	0x3c236ba3	0.009974393
163	0x3b900788	0.004395429
164	0x3d10e77a	0.035377003
165	0xbbc8ec22	-0.006131665
166	0x3c6f8080	0.014618039
167	0x3c9a9878	0.01887153
168	0x3c0e8379	0.008698338
169	0xbb2918c8	-0.0025802124
170	0x3cf99df0	0.030470818
171	0xbd8101e3	-0.06299188
172	0xbf7e924e	-0.99441993
173	0xbe257433	-0.16157608
174	0x3dbc6646	0.091991946
175	0x3ed54adb	0.41658673
176	0x3df30de3	0.11867883
177	0x3df54caa	0.11977513
178	0xbf14dab7	-0.5814623
179	0xbf07fcb8	-0.53119993
180	0xbe3627f9	-0.17788686
181	0x3bd7a31d	0.006580724
182	0xbf7d1a27	-0.9886803
183	0xbf1ba900	-0.6080475
184	0x3e71d298	0.23615491
185	0xbf441f74	-0.76610494
186	0xbd7b413b	-0.061341505
187	0xbe5bce13	-0.2146533
188	0xbf8dcbf1	-1.1077863
189	0x3dd2c378	0.10291189
190	0x3e8f23a3	0.27956876
191	0xbe5045ac	-0.20339078
192	0xbf65f200	-0.8982239
193	0x3de2911b	0.11062833
194	0xbd5c6db4	-0.05381556
195	0x3e3cd318	0.18439901
196	0xbc519503	-0.012791875
197	0xbebfac93	-0.3743635
198	0xbe8c4549	-0.2739661
199	0x3e5cd273	0.21564655
200	0xbd96c832	-0.07362403
201	0xbd61735e	-0.055041663
202	0x3e7fc0c4	0.24975878
203	0x3bf31415	0.0074181654
204	0x3d66cff0	0.05635065
205	0x3eb692ed	0.3565897
206	0x3f828074	1.0195451
207	0xbd2aa157	-0.041657772
208	0xbec35db5	-0.3815743
209	0x3befeb2c	0.007321736
210	0x3e372441	0.17884924
211	0x3f30c564	0.69051194
212	0x3e97007c	0.29492557
213	0x3ea28837	0.3174455
214	0x3ed8d243	0.42347917
215	0x3e771705	0.24129875
216	0xbf0c0676	-0.5469736
217	0xbe9b5a13	-0.3034216
218	0x3d9910e9	0.074739285
219	0xbe1798fc	-0.14804453
220	0x3e2c14ea	0.16804853
221	0xbe77fcfb	-0.24217598
222	0xbe982ae6	-0.2972023
223	0xbf2420c9	-0.64112526
224	0xbbbcc0c4	-0.005760284
225	0x3daa447e	0.08313845
226	0xbed0ea48	-0.40803742
227	0xbed9dc23	-0.42550763
228	0xbf41c7a7	-0.7569527
229	0xbd698786	-0.05701401
230	0xbfbbb379	-1.4664146
231	0xbd2b87ea	-0.041877665
232	0x3e0ecd88	0.13945591
233	0xbd8beee1	-0.06832672
234	0xbe8f1463	-0.2794524
235	0xbf0666e5	-0.52500755
236	0xbd85ac55	-0.0652701
237	0x3f037507	0.51350445
238	0xbe7013c1	-0.23445036
239	0x3d13a893	0.036049437
240	0x3ecaaf2c	0.3958677
241	0x3f705c06	0.93890417
242	0x3eba1002	0.36340338
243	0x3ec40ef2	0.38292652
244	0x3f390e31	0.7228728
245	0x3e426434	0.18983537
246	0xbe811d59	-0.25217703
247	0x3fba9a84	1.4578404
248	0xbf6d0799	-0.9258972
249	0xbf553085	-0.8327716
250	0x3ee433d2	0.44570786
251	0xbf0225e1	-0.5083905
252	0xbe16aec1	-0.14715101
253	0xbefcbbf7	-0.49362156
254	0x3e946e14	0.28990233
255	0xbd9dd8fc	-0.07707402

fc1.bias f4 [128]
0	0xbe659f06	-0.22423944
1	0x3d708361	0.058719043
2	0x3dc479a6	0.09593515
3	0x3e13f8bb	0.14450352
4	0xbe3374fe	-0.17525098
5	0xbe0dad59	-0.13835658
6	0x3e75e1b9	0.24011888
7	0x3e2cfce1	0.1689334
8	0x3cff3e54	0.03115765
9	0x3e6d6326	0.23182353
10	0xbe5462f5	-0.20740874
11	0x3de4c2a6	0.11169939
12	0x39c96755	0.00038414696
13	0xbd84ff76	-0.06494038
14	0x3c9f2004	0.019424446
15	0x3df6f4a2	0.12058379
16	0x3e454d54	0.1926778
17	0x3d826a5f	0.06367945
18	0xbdf694c4	-0.120400935
19	0xbe487bc3	-0.19578461
20	0x3d5e67f2	0.05429835
21	0xbdaf463d	-0.08558319
22	0x3d62c9c0	0.055368185
23	0x3e1130e0	0.141788
24	0x3e2e02e7	0.16993295
25	0x3d693771	0.05693764
26	0xbce650cb	-0.028114697
27	0xbe48a535	-0.19594271
28	0xbd195eb3	-0.037443828
29	0x3e6cca49	0.2312404
30	0xbea91e33	-0.33030853
31	0xbe578c83	-0.21049695
32	0x3d539a8d	0.051661063
33	0x3e44faaf	0.19236253
34	0xbe24d3c2	-0.16096404
35	0x3d955cb5	0.07293073
36	0xbe1fa01d	-0.15588422
37	0xbdc6d97b	-0.0970945
38	0xbe46d02c	-0.19415349
39	0xbd9cfbd8	-0.07665223
40	0xbdbd244b	-0.09235438
41	0xbd9b8077	-0.07592862
42	0x3e0cd1c9	0.13751902
43	0xbe9a474b	-0.30132517
44	0xbe432f9c	-0.1906113
45	0xbe3d95d1	-0.18514182
46	0x3e5fc2dc	0.21851677
47	0xbe6c1927	-0.2305647
48	0xbceb93d9	-0.028757023
49	0xbd205b9e	-0.039149873
50	0xbda5f489	-0.08103282
51	0x3d8dfe14	0.06933227
52	0x3e0a9836	0.13534626
53	0x3e6c82de	0.23096797
54	0xbe72d8c0	-0.23715496
55	0x3d4f06bd	0.050543536
56	0xbdba4ed3	-0.09097066
57	0xbe74d1d9	-0.23908176
58	0xbdfaada0	-0.122401476
59	0x3e4f263c	0.20229429
60	0xbea542e5	-0.322776
61	0x3dee26e0	0.116285086
62	0x3e7b5456	0.2454389
63	0x3c60d70e	0.013723148
64	0x3c09e0d1	0.008415417
65	0xbe75c8aa	-0.24002329
66	0x3d944369	0.0723942
67	0x3e273926	0.16330394
68	0xbe1a5930	-0.15073085
69	0x3cc8c134	0.024506189
70	0x3c740c32	0.014895486
71	0xbe204abf	-0.15653513
72	0xbe2c9439	-0.16853417
73	0x3e086d1f	0.13322876
74	0x3e42152b	0.18953387
75	0xbdbbc895	-0.09169117
76	0xbe4ddee0	-0.20104551
77	0x3e5604f1	0.20900322
78	0xbaeeb10a	-0.0018210721
79	0x3cbc18ae	0.022960987
80	0xbd95ccda	-0.07314463
81	0xbd6dd041	-0.058059935
82	0xbe5a9af8	-0.21348178
83	0x3d3c137e	0.045917027
84	0xbc38a8e4	-0.011270735
85	0x3c887b76	0.016660433
86	0x3e76703d	0.24066253
87	0xbe250fbd	-0.16119285
88	0xbe4f4f48	-0.20245087
89	0xbe6fe3d2	-0.2342675
90	0xbe223f1e	-0.1584439
91	0x3e43829f	0.19092797
92	0x3e7d77b2	0.24752691
93	0xbd1759b9	-0.0369508
94	0xbc4b1552	-0.01239522
95	0x3d8b3aec	0.06798348
96	0xbe1e415a	-0.15454617
97	0xbe549534	-0.20760041
98	0xbe153828	-0.14572203
99	0x3e347165	0.17621382
100	0x3e3075f6	0.17232499
101	0x3dac0a0e	0.08400355
102	0x3dd7ffa0	0.105468035
103	0xbe13ffc5	-0.14453037
104	0x3da0f780	0.07859707
105	0x3e5ee6dd	0.21767755
106	0xbdad4e6c	-0.084622234
107	0xbe3c8efa	-0.18413916
108	0xbd245b6b	-0.040126245
109	0xbc06d07b	-0.008228417
110	0xbd58459b	-0.052800756
111	0xbde89686	-0.11356835
112	0x3cfcc695	0.03085641
113	0x3dfc9163	0.12332418
114	0x3e0018bf	0.1250944
115	0xbdd5e28b	-0.104436
116	0xbddced05	-0.107873954
117	0x3e5fb71d	0.21847196
118	0x3dff2302	0.12457849
119	0x3d691425	0.056903977
120	0xbde0d7c6	-0.109786555
121	0xbe324c56	-0.17411932
122	0xbe54d068	-0.20782626
123	0xbdcd9089	-0.100373335
124	0xbe1ea0ac	-0.15490979
125	0x3e6cd91f	0.231297
126	0xbe361470	-0.17781234
127	0xbe24690c	-0.16055697

bn1.weight f4 [128]
0	0x3d4ae21d	0.049532045
1	0x3e070c00	0.13188171
2	0x3edbf1dd	0.42957965
3	0x3e8d5e0d	0.27610818
4	0x3e4c4b34	0.19950563
5	0x3e096c94	0.13420326
6	0x3e7dce2b	0.24785678
7	0xbddbbd18	-0.10729426
8	0x3ea90f4f	0.33019492
9	0x3f5c6962	0.860983
10	0x3e3f9b55	0.18711598
11	0xbd80b696	-0.062848255
12	0x3d19359f	0.037404653
13	0x3d445ba7	0.04793897
14	0x3bc50d88	0.006013576
15	0x3e9e4825	0.30914417
16	0x3fe8ddb7	1.8192662
17	0x3fc7172c	1.5553946
18	0x3e942fe8	0.289428
19	0x3f1575db	0.5838296
20	0x3e1fb88a	0.1559774
21	0x3e278bff	0.16361998
22	0x3e1e6322	0.15467504
23	0x3e6d522e	0.2317588
24	0x3e0282db	0.1274523
25	0x3e29d00a	0.16583267
26	0x3fd08ae4	1.6292386
27	0x3e45fdc5	0.19335087
28	0x3e815fd4	0.25268424
29	0x3f33ed01	0.70283514
30	0x4020016c	2.5000868
31	0x3e335eb7	0.175166
32	0x3e7c4888	0.24637043
33	0x3d6a40ac	0.057190582
34	0x3d1e0588	0.038579494
35	0x3e33cd01	0.17558672
36	0x3ea37725	0.31926838
37	0x3e181037	0.14849935
38	0x3d61eca9	0.055157337
39	0x3d1efabe	0.038813345
40	0xbdd9b7c3	-0.10630753
41	0x3ea55c92	0.32297188
42	0x3e8d5304	0.27602398
43	0x4063ebfb	3.561278
44	0x3e1fecca	0.15617672
45	0xbd9b7c40	-0.07592058
46	0x3cb9fd2c	0.02270373
47	0x3e5c7645	0.21529491
48	0x3fe638e9	1.7986118
49	0xbdb3629f	-0.08759045
50	0x3e94d4e2	0.29068667
51	0x3e3865f9	0.1800765
52	0x3dc16523	0.094431184
53	0x3f8f35a5	1.1188246
54	0x3ebb735e	0.36611456
55	0x3e14fd49	0.14549746
56	0x3e67d2d4	0.22639018
57	0x3f27498b	0.6534659
58	0x3e039a0b	0.12851731
59	0x3e98536d	0.2975115
60	0x40242ff9	2.565428
61	0x3e0f9824	0.14022881
62	0x3c218685	0.009858732
63	0x3e8a56b1	0.27019265
64	0x3f4b62ab	0.7944743
65	0x3dd40b34	0.10353699
66	0x3dd82086	0.10553078
67	0x3ed2a2a2	0.41139704
68	0x3e819219	0.25306776
69	0x3d6d7889	0.05797628
70	0x3e24b3e8	0.16084254
71	0x3ee7c188	0.4526484
72	0x3e29faad	0.16599531
73	0x3ecfb13a	0.405649
74	0x3dab9b19	0.08379192
75	0x3eb5b3e7	0.35488817
76	0x3e8a1ba0	0.269742
77	0x3e47b749	0.19503511
78	0x3f019723	0.5062124
79	0x4002ad67	2.0418336
80	0x3ce0c4c6	0.027437579
81	0x3e3c632c	0.18397206
82	0x3e2d4876	0.16922173
83	0x3d59f63c	0.053213343
84	0x3d657106	0.05601599
85	0x3e8e969d	0.27849284
86	0x3dba5b6e	0.0909947
87	0x401a4575	2.4104893
88	0x3fc9fe26	1.5780685
89	0x3e328999	0.17435302
90	0x3e53f5dc	0.20699257
91	0x3e0a2f4a	0.13494602
92	0xbcc52805	-0.024066934
93	0x3de87ae2	0.11351563
94	0x3e0483a5	0.12940843
95	0x3e8e86a2	0.27837092
96	0x3e1bc26f	0.1521089
97	0x3e61be61	0.2204528
98	0x3e189598	0.14900815
99	0x3e23324a	0.15937153
100	0x3e5cbccc	0.21556395
101	0x3e87f682	0.26555258
102	0x3ed9c9f9	0.42536905
103	0x3dfe4290	0.124150395
104	0x3d318ca7	0.043347027
105	0x3def8eb6	0.11697142
106	0x3e3ecd74	0.18633062
107	0x3e7a0e4a	0.24419513
108	0x3e743489	0.23848166
109	0x3da52984	0.08064559
110	0x3f9e5995	1.2371088
111	0x3e30f1d5	0.17279752
112	0x3e169370	0.1470468
113	0x3d1e8f7b	0.038711052
114	0x3e20f55c	0.15718597
115	0x3e869152	0.26282746
116	0x3d0a7b21	0.03380883
117	0x3e771864	0.24130398
118	0x3df7c237	0.120975904
119	0x3fc891b3	1.5669464
120	0x3e0cf900	0.13766861
121	0x3e84e000	0.25952148
122	0x3c667fae	0.014068527
123	0x3d8a99a8	0.06767589
124	0x3c41a077	0.011818043
125	0x3dd08bcc	0.10182914
126	0x3eb0348c	0.3441509
127	0x3ee1c09c	0.44092262

bn1.bias f4 [128]
0	0x3f27289e	0.6529635
1	0xbf0907d9	-0.535276
2	0xbf80ac3e	-1.0052564
3	0xbf1d4e78	-0.6144786
4	0xbecb8c8a	-0.3975566
5	0xbf549ec5	-0.83054763
6	0xbf445692	-0.76694596
7	0xbed29de4	-0.41136086
8	0xbf6e666a	-0.9312502
9	0xbfabd0e5	-1.3423125
10	0xbf0ab5c9	-0.5418363
11	0xbf3a8402	-0.7285768
12	0xbea3ed58	-0.32017016
13	0xbf2d354e	-0.6765946
14	0x3e3af491	0.18257357
15	0xbee29758	-0.4425609
16	0xbfdad1cb	-1.7095274
17	0xbf8a6223	-1.0811199
18	0xbf3a9bb0	-0.7289381
19	0xbf674a64	-0.90347886
20	0xbf0e26f1	-0.5552817
21	0xbf6cdf32	-0.9252807
22	0xbf091def	-0.535613
23	0xbf526a85	-0.82193786
24	0xbed456e8	-0.41472554
25	0xbee7dd4a	-0.45286018
26	0xbfcdc7d8	-1.6076612
27	0xbf1cc293	-0.61234397
28	0xbf017134	-0.5056336
29	0xbf612caa	-0.87958777
30	0xc03ca5ca	-2.947619
31	0xbf2fee86	-0.6872333
32	0xbf3db358	-0.7410178
33	0xbf06080e	-0.5235604
34	0xbf0089ab	-0.50210065
35	0xbf37aa9c	-0.71744704
36	0xbf2da74b	-0.67833394
37	0xbe84d0cc	-0.2594055
38	0xbf895988	-1.0730448
39	0xbf9f9205	-1.2466437
40	0xbf2c6a11	-0.67349344
41	0xbf2b37ce	-0.66882026
42	0xbf861b71	-1.0477124
43	0xbfbd2059	-1.4775497
44	0xbf43825d	-0.76370794
45	0xbf03b49f	-0.5144748
46	0xbe508f2c	-0.20367116
47	0xbf1f7221	-0.6228352
48	0xbfd5fb93	-1.6717399
49	0xbeeeae38	-0.46617293
50	0xbf940675	-1.156447
51	0xbec891e0	-0.39173794
52	0xbf01ebca	-0.5075041
53	0xbf90ca0c	-1.131166
54	0xbf67eb26	-0.90593183
55	0xbef80710	-0.48442888
56	0xbf3c77c3	-0.7362024
57	0xbf7d1b0b	-0.9886939
58	0xbf11c562	-0.5694181
59	0xbf54d81a	-0.83142245
60	0xbfd5fc99	-1.6717712
61	0xbede4d54	-0.43418372
62	0xbd984860	-0.074356794
63	0xbf711455	-0.9417165
64	0xbfaaf5f3	-1.3356308
65	0xbefd3078	-0.4945104
66	0xbf1c7d93	-0.6112911
67	0xbf6aa35b	-0.9165551
68	0xbf46ec94	-0.7770474
69	0xbeecd127	-0.4625332
70	0xbebc6e2a	-0.36802799
71	0xbf18452d	-0.59480554
72	0xbf064a8c	-0.524575
73	0xbf35eebc	-0.71067405
74	0xbead9767	-0.33904573
75	0xbf45c7d1	-0.7725802
76	0xbf4a586a	-0.7904116
77	0xbf5a99ab	-0.8539073
78	0xbf2a8bf0	-0.6661978
79	0xbfb4c717	-1.4123257
80	0xbe621191	-0.22077014
81	0xbf326c85	-0.6969684
82	0xbf40491c	-0.75111556
83	0xbe9dabe9	-0.3079522
84	0xbe7bc2d5	-0.24586041
85	0xbf29813c	-0.6621282
86	0xbebe2864	-0.3714019
87	0xbfc3dbca	-1.5301449
88	0xbfb9201b	-1.4462923
89	0xbefdc4e5	-0.4956428
90	0xbf335ab4	-0.70060277
91	0xbf1e3382	-0.61797345
92	0xbe6ebe5e	-0.23314807
93	0xbedc86ec	-0.43071687
94	0xbf1ae934	-0.6051209
95	0xbf751d48	-0.95747805
96	0xbf2d1ed5	-0.6762517
97	0xbf243dc9	-0.64156777
98	0xbf007ce9	-0.501906
99	0xbf25daaa	-0.6478678
100	0xbf4d461e	-0.80185115
101	0xbf582c17	-0.84442276
102	0xbf945d28	-1.1590929
103	0xbf240183	-0.64064807
104	0xbe3a5aaa	-0.18198648
105	0xbec5c723	-0.38628492
106	0xbf516471	-0.81793886
107	0xbf32ad55	-0.69795734
108	0xbf5215bf	-0.8206443
109	0xbed15452	-0.40884644
110	0xbf8e9d10	-1.1141682
111	0xbf44dca5	-0.76899177
112	0xbf2311be	-0.6369895
113	0x3ef8e349	0.48610905
114	0xbf0f9771	-0.56090456
115	0xbf597b0c	-0.8495338
116	0xbe85c0cb	-0.26123652
117	0xbf42c85e	-0.76086986
118	0xbee51d06	-0.44748706
119	0xbfc0e529	-1.5069934
120	0xbf260f00	-0.6486664
121	0xbf6142a3	-0.87992305
122	0x3f0e69ba	0.55630076
123	0xbeae18b1	-0.34003213
124	0xbe707834	-0.23483354
125	0xbebf97d4	-0.37420523
126	0xbf3d9b11	-0.7406474
127	0xbf474527	-0.77839893

bn1.running_mean f4 [128]
0	0xc1d4219e	-26.516415
1	0xc22b48b3	-42.820995
2	0xc2a3e09c	-81.93869
3	0xc241e607	-48.474636
4	0xc214a5c6	-37.16189
5	0x4289c61d	68.88694
6	0xc20c5096	-35.078697
7	0xc26b28be	-58.789787
8	0xc13901eb	-11.562968
9	0xc322aba8	-162.67053
10	0xc2a70c8e	-83.52452
11	0xc2533647	-52.803005
12	0x42823caf	65.11852
13	0xc2b8c2f1	-92.380745
14	0x41fb8103	31.437994
15	0xc2babc96	-93.36833
16	0xc3859447	-267.15842
17	0xc2bc1708	-94.04498
18	0xc27b5803	-62.83595
19	0xc2e4b473	-114.35244
20	0xc26499b5	-57.150105
21	0xc285bf87	-66.87408
22	0x42c5db4a	98.9283
23	0x4205169a	33.27207
24	0xc182b194	-16.336708
25	0xc228e045	-42.219013
26	0xc37a9fc2	-250.62405
27	0xc1da1f6c	-27.265343
28	0xc120b0cd	-10.043164
29	0xc30b9d89	-139.61537
30	0xc41d4076	-629.0072
31	0x4224eab2	41.229195
32	0xc281864d	-64.76231
33	0xc18ca0e5	-17.578562
34	0x42469e08	49.654327
35	0xc18d3cd9	-17.65471
36	0xc2c81a4a	-100.051346
37	0xc202e65a	-32.724953
38	0xc2193e76	-38.310997
39	0xc271a833	-60.414257
40	0xc290b103	-72.345726
41	0x42ac1e19	86.058784
42	0x425bc945	54.946552
43	0xc3505e20	-208.36768
44	0x42104e5b	36.07652
45	0xc2bb3f8c	-93.624115
46	0xc1d10265	-26.12617
47	0xc24a422f	-50.564632
48	0xc3a5b5d3	-331.4205
49	0xc2e3ee85	-113.96586
50	0x426750a7	57.828762
51	0xc1fd8c18	-31.693405
52	0xc055be98	-3.339758
53	0xc3322548	-178.14563
54	0xc2779920	-61.899536
55	0xc2277f93	-41.874584
56	0xc22decd9	-43.481297
57	0xc2c28b74	-97.27237
58	0x42a70b14	83.52164
59	0xc275e273	-61.47114
60	0xc34f60b5	-207.37776
61	0xc227fbfa	-41.99607
62	0xc0ea38aa	-7.319417
63	0x42a9bfa6	84.87431
64	0xc38de026	-283.75116
65	0x42b0c4dc	88.38449
66	0x418b3eed	17.405725
67	0xc2add242	-86.91066
68	0xc24a2a4b	-50.5413
69	0x429a4dd5	77.152016
70	0x4263410c	56.813522
71	0xc2c70d0f	-99.525505
72	0xc2427081	-48.609867
73	0xc1ddf5c9	-27.745012
74	0x42a05770	80.17078
75	0xc25c8d4d	-55.13799
76	0xc23b2a43	-46.79127
77	0xc2b7d870	-91.92273
78	0xc2121c9a	-36.52793
79	0xc305728f	-133.4475
80	0xc1fa4c0b	-31.28713
81	0x41dce586	27.612072
82	0xc17c20f1	-15.758042
83	0x41e93f89	29.156023
84	0xc215621d	-37.345814
85	0xc2a79dc4	-83.808136
86	0xc285a904	-66.83011
87	0xc3488939	-200.53603
88	0xc2bae49d	-93.44651
89	0xc277376d	-61.804127
90	0xc265cd26	-57.45034
91	0x425ff724	55.99135
92	0xc20b3e41	-34.810795
93	0xc28a4916	-69.142746
94	0xc00870bd	-2.131881
95	0x42a8798f	84.23742
96	0xc1b22e93	-22.272741
97	0xc1e1a769	-28.206743
98	0x4284fcc7	66.493706
99	0xc1a29be2	-20.326115
100	0xc2866099	-67.18867
101	0x42757845	61.36745
102	0xc23e6fdc	-47.609238
103	0xc2bf627e	-95.69237
104	0x41040ba2	8.25284
105	0xc2485390	-50.081604
106	0x427e8775	63.632282
107	0xc22e0290	-43.502502
108	0xc24ed6f3	-51.70991
109	0xc280807a	-64.25093
110	0xc2105da2	-36.09144
111	0x40250ebe	2.5790248
112	0xc1d00875	-26.00413
113	0xc19fd885	-19.980722
114	0xc23cbc41	-47.18384
115	0xc2e751fa	-115.66011
116	0xc21353a5	-36.831684
117	0x429d244d	78.5709
118	0xc224e9fd	-41.228504
119	0xc375347d	-245.20503
120	0x42aa8586	85.26079
121	0xc1ed75ef	-29.682585
122	0x421c71b5	39.111042
123	0xc23ec1c9	-47.689243
124	0xc2459f15	-49.405354
125	0xc1e4e9d3	-28.614172
126	0xc2ca4843	-101.141136
127	0xc2be78f5	-95.236244

bn1.running_var f4 [128]
0	0x44f56951	1963.2911
1	0x450283e2	2088.2427
2	0x4575dbf8	3933.748
3	0x44bade96	1494.9558
4	0x44e229dc	1809.3081
5	0x453e3f97	3043.9744
6	0x4490ed93	1159.4242
7	0x44da4bce	1746.3689
8	0x44b9ea2a	1487.3176
9	0x465b91f8	14052.492
10	0x456e1297	3809.1619
11	0x44bf8141	1532.0392
12	0x450fb8ff	2299.5623
13	0x458252cc	4170.3496
14	0x454f7bb3	3319.7312
15	0x45e641be	7368.218
16	0x476cdebe	60638.742
17	0x468e84e4	18242.445
18	0x45254558	2644.334
19	0x462a3f71	10895.86
20	0x44f03848	1921.7588
21	0x453d32fa	3027.186
22	0x457698b2	3945.5435
23	0x4514cffa	2380.9985
24	0x4493d066	1182.5125
25	0x449d630f	1259.0956
26	0x47502415	53284.082
27	0x44d9243d	1737.1324
28	0x44a99d15	1356.9088
29	0x4683e249	16881.143
30	0x4848b608	205528.12
31	0x44e8d058	1862.5107
32	0x455533d1	3411.2385
33	0x449a8c15	1236.3776
34	0x44cbbe99	1629.9562
35	0x44a7124d	1336.5719
36	0x458386f6	4208.87
37	0x451d4153	2516.0828
38	0x4531b580	2843.3438
39	0x4520e816	2574.5054
40	0x456fc334	3836.2002
41	0x45845915	4235.1353
42	0x452fb8f4	2811.5596
43	0x48112547	148629.11
44	0x44dac388	1750.1104
45	0x456fdb2c	3837.6982
46	0x447e1076	1016.2572
47	0x45046b7c	2118.7178
48	0x47b5bb1d	93046.23
49	0x4599d07c	4922.0605
50	0x452a7acb	2727.6746
51	0x44bb21bd	1497.0543
52	0x44a8a322	1349.0979
53	0x46d7b002	27608.004
54	0x451ed894	2541.5361
55	0x44cc2167	1633.0438
56	0x44d4ce84	1702.4536
57	0x45be1641	6082.7817
58	0x4565d5ab	3677.3542
59	0x45273c3d	2675.765
60	0x479c34af	79977.37
61	0x45074bd5	2164.7395
62	0x44096962	549.6466
63	0x4545f176	3167.0913
64	0x4722d0a6	41680.65
65	0x455b475b	3508.4597
66	0x44b07852	1411.76
67	0x45b1912e	5682.1475
68	0x452c1b03	2753.6882
69	0x4538471f	2948.445
70	0x44d750b7	1722.5223
71	0x4602b33f	8364.812
72	0x44eeed26	1911.4109
73	0x45078066	2168.025
74	0x455c9fe2	3529.9927
75	0x44e068b5	1795.2721
76	0x45069a9f	2153.6638
77	0x459ab599	4950.6997
78	0x4532169d	2849.4133
79	0x46e9240f	29842.03
80	0x44cae93c	1623.2886
81	0x44cc593f	1634.789
82	0x44797357	997.8022
83	0x44c36947	1563.2899
84	0x44ca2a76	1617.3269
85	0x454ddf12	3293.942
86	0x45095697	2197.4119
87	0x47959d6e	76602.86
88	0x466df4bb	15229.183
89	0x451e84a1	2536.2893
90	0x44fbc621	2014.1915
91	0x45313462	2835.274
92	0x44baac43	1493.3832
93	0x451040f0	2308.0586
94	0x44b2b378	1429.6084
95	0x455aeffd	3502.9993
96	0x44afb9b9	1405.8038
97	0x44981116	1216.5339
98	0x4545a54a	3162.3306
99	0x44eeef55	1911.4791
100	0x45345e65	2885.8997
101	0x4552a1db	3370.116
102	0x451ebcae	2539.7925
103	0x4589a9bd	4405.2173
104	0x446e4bf2	953.18665
105	0x44bb0814	1496.2524
106	0x45164fd7	2404.99
107	0x44f2807a	1940.0149
108	0x45035c4c	2101.7686
109	0x45184d7f	2436.8435
110	0x45946b8c	4749.4434
111	0x448f950b	1148.6576
112	0x4493615f	1179.0428
113	0x454add6e	3245.8394
114	0x44ed147c	1896.6401
115	0x45bbd17c	6010.1855
116	0x44d498e0	1700.7773
117	0x45799a67	3993.6501
118	0x44f27873	1939.764
119	0x4747c9da	51145.85
120	0x45623a8b	3619.659
121	0x44c49030	1572.5059
122	0x4589f497	4414.5737
123	0x44f233bf	1937.6171
124	0x449d7056	1259.5105
125	0x44899a74	1100.8267
126	0x458a60e8	4428.1133
127	0x45766544	3942.329

fc2.weight f4 [128, 128]
0	0x3efba694	0.49150527
1	0x3ec7964e	0.3898186
2	0x3eab4066	0.3344757
3	0xbe293bf6	-0.1652678
4	0x3e3d2d1c	0.18474239
5	0xbe8449d2	-0.2583757
6	0xbebc1c88	-0.36740518
7	0x3ecb16ce	0.39665836
8	0x3f765713	0.96226615
9	0x3f836d32	1.0267699
10	0xbf548812	-0.83020127
11	0x3ed4974b	0.41521677
12	0x3e575931	0.21030118
13	0x3ec86a3c	0.3914355
14	0xbe51fe75	-0.20507224
15	0x3f7e2476	0.99274385
16	0x3f914edb	1.135219
17	0xbe7be385	-0.2459851
18	0xbec0cfd6	-0.37658566
19	0x3f1d57c0	0.6146202
20	0x3e2a686c	0.16641396
21	0x3dc54d7e	0.09633921
22	0x3ecdd957	0.4020488
23	0xbf2e2d1a	-0.6803757
24	0xbe95ddb5	-0.29270712
25	0xbe84479b	-0.2583588
26	0x3f6447e9	0.89172226
27	0x3f3bc8ab	0.7335307
28	0x3eba37fa	0.36370832
29	0x3f236150	0.6382036
30	0x3f12d490	0.57355595
31	0x3df4d07d	0.119538285
32	0xbf632f8e	-0.8874444
33	0xbf11eab0	-0.5699873
34	0xbf17d2bc	-0.5930593
35	0x3da9812b	0.0827659
36	0x3f2d43e2	0.67681706
37	0xbce49e7e	-0.027907606
38	0x3e65751d	0.22407956
39	0xbe3d1703	-0.1846581
40	0xbf0494bb	-0.51789445
41	0x3f2774ef	0.654128
42	0xbda38dd1	-0.07986034
43	0x3fb3247a	1.3995507
44	0xbf308679	-0.6895519
45	0x3d813e36	0.06310694
46	0x3f3ab588	0.72933245
47	0x3eb2810f	0.3486409
48	0x3f31ad14	0.6940472
49	0x3f33eaad	0.7027996
50	0xbe4051bd	-0.1878118
51	0xbd9f0099	-0.07763786
52	0xbe91fd6e	-0.28513664
53	0x3f5c85e3	0.86141795
54	0x3edc77e0	0.43060207
55	0x3db1c033	0.08679237
56	0xbe053694	-0.13009101
57	0x3f036b1a	0.513353
58	0x3f04e7e2	0.51916325
59	0x3e9cfb22	0.3066035
60	0xbdf56492	-0.11982073
61	0x3f82e69a	1.0226624
62	0x3de68574	0.11255923
63	0xbed7e3a7	-0.42165872
64	0x3f278b8b	0.654473
65	0x3e82acbd	0.25522414
66	0x3b4d99fa	0.0031372295
67	0x3e2be900	0.16788101
68	0xbea63555	-0.32462564
69	0xbe8145e6	-0.2524864
70	0x3c2c5ccd	0.010520172
71	0x3f2df5a7	0.6795296
72	0xbec5aab1	-0.3860679
73	0x3d1411e8	0.03614989
74	0xbe8f047b	-0.27933106
75	0x3f2f3bcb	0.6845061
76	0xbf2928be	-0.6607779
77	0x3ed19454	0.40933478
78	0x3e2ce1b6	0.16882977
79	0x3e21ca77	0.1579989
80	0xbd9d3022	-0.07675196
81	0xbd42fe8c	-0.047606036
82	0x3e040b78	0.12895
83	0x3e171374	0.14753515
84	0xbe975536	-0.29557198
85	0x3e7c962a	0.24666658
86	0x3ccd074c	0.025027893
87	0xbeb793d7	-0.3585498
88	0x3e5b3065	0.2140518
89	0xbf08e516	-0.5347456
90	0x3f125d48	0.57173586
91	0x3e0775f5	0.13228591
92	0xbef1e117	-0.47242042
93	0xbed1d428	-0.40982175
94	0x3e14b052	0.14520386
95	0x3eba9673	0.3644291
96	0x3f7cced8	0.9875312
97	0x3ecd563c	0.40104854
98	0x3eb63b4b	0.35592112
99	0xbeaa7056	-0.3328883
100	0x3d4b3c67	0.04961815
101	0xbf51a923	-0.8189871
102	0xbe3db566	-0.1852623
103	0x3ea9da18	0.33174205
104	0x3b9fb00d	0.004873282
105	0x3f919b8c	1.1375594
106	0xbebd6a35	-0.36995092
107	0xbeed45dc	-0.4634236
108	0xbca9ad2d	-0.02071246
109	0xbee61e08	-0.44944787
110	0x3dd096b6	0.10184996
111	0xbd555bc5	-0.05208947
112	0xbc9a6418	-0.018846557
113	0xbd5fde6a	-0.05465547
114	0xbf76187f	-0.9613113
115	0x3f132fb8	0.5749469
116	0x3f3d909c	0.7404878
117	0x3e52ec49	0.20597948
118	0x3d405e63	0.046965014
119	0x3f83873f	1.0275649
120	0xbeb1dda5	-0.34739414
121	0x3ce65ede	0.028121408
122	0xbe004561	-0.12526466
123	0x3e334998	0.17508543
124	0x3ec101fc	0.37696826
125	0x3f112aea	0.56706107
126	0xbe90d1a6	-0.2828495
127	0x3e0c4bca	0.13700786
128	0xbe2afb6c	-0.16697472
129	0x3a0642d5	0.0005121653
130	0xbd7f2352	-0.062289543
131	0xbedd3e29	-0.43211487
132	0x3ef3bf36	0.4760682
133	0xbe84b2eb	-0.25917754
134	0x3f0dd4bc	0.5540273
135	0xbf7e0502	-0.9922639
136	0x3d2b182a	0.04177109
137	0x3e6dbd4f	0.23216747
138	0xbdd59bbb	-0.10430094
139	0x3df03909	0.117296286
140	0x3c9b6c0f	0.018972425
141	0x3e3579d4	0.17722255
142	0xbefdf28f	-0.4959912
143	0xbeb846fd	-0.3599166
144	0x3f0bb720	0.545763
145	0x3e1f77e3	0.15573077
146	0x3eac526f	0.33656642
147	0x3f2c3d88	0.6728139
148	0xbd996a4d	-0.074909784
149	0x3f54fd05	0.8319858
150	0xbd035126	-0.03205981
151	0x3cf27200	0.029595375
152	0xbeb36086	-0.3503458
153	0xbe136501	-0.14393999
154	0x3f27d468	0.6555848
155	0xbee59f49	-0.44848087
156	0x3edae024	0.4274913
157	0x3f31a4e1	0.6939221
158	0x3f6c50c7	0.92310756
159	0xbe5e996a	-0.2173821
160	0xbedb8edb	-0.42882428
161	0xbeb37ade	-0.35054678
162	0xbd9bdd41	-0.0761056
163	0x3e0ce10b	0.13757722
164	0x3d8ba718	0.0681898
165	0x3f1c95ea	0.6116625
166	0xbf08a748	-0.5338025
167	0x3e1b1c06	0.15147409
168	0x3d522554	0.05130513
169	0x3e87ac2b	0.2649854
170	0x3eb96722	0.36211497
171	0x3fa2eecc	1.2729125
172	0xbe2b0e9d	-0.16704793
173	0x3e762c1c	0.24040264
174	0xbfb2a54f	-1.3956698
175	0xbe2b50be	-0.1673002
176	0x3deaea40	0.11470461
177	0x3eae233e	0.34011263
178	0x3c0b9ba1	0.008520992
179	0xbee8dd86	-0.4548151
180	0xbe6b9cb3	-0.23008995
181	0x3f1667ab	0.58751935
182	0x3d887372	0.066626444
183	0xbed24782	-0.4107018
184	0x3e880647	0.2656729
185	0x3f197b2e	0.5995358
186	0x3d4bd5ed	0.049764562
187	0x3ded585e	0.1158912
188	0xbeed4759	-0.46343496
189	0xbf2e194b	-0.68007344
190	0xbe04d2a2	-0.12970975
191	0x3eb1599e	0.34638685
192	0x3f7315f5	0.9495538
193	0xbeba465d	-0.36381808
194	0x3ccf9de0	0.025343835
195	0x3f6321e7	0.88723606
196	0xbe091998	-0.1338867
197	0x3dad65b6	0.084666654
198	0xbd204e94	-0.039137438
199	0x3ea5ec83	0.32407007
200	0xbeeb2ce5	-0.4593269
201	0xbe17f870	-0.14840865
202	0xbc92553e	-0.017862912
203	0x3ee91342	0.45522505
204	0xbcfdcea0	-0.030982316
205	0x3ee732ff	0.45156094
206	0x3d310517	0.043217745
207	0x3e7a508c	0.24444789
208	0xbf619874	-0.8812325
209	0x3e9c8a3a	0.30574208
210	0x3e9960bc	0.29956615
211	0xbf012af1	-0.5045615
212	0x3dd8986f	0.105759494
213	0xbd65edf6	-0.05613514
214	0xbe566f5a	-0.20940915
215	0x3ec5422f	0.38527057
216	0xbf364832	-0.7120391
217	0x3f03e479	0.51520497
218	0x3f36a78d	0.7134941
219	0xbe3d81c3	-0.18506531
220	0xbee91f5a	-0.45531732
221	0xbe98dbd1	-0.29855207
222	0x3e4a0a8a	0.19730583
223	0x3e988566	0.29789275
224	0x3f23b659	0.63950115
225	0x3f4077d4	0.75182843
226	0x3e9324d8	0.28739047
227	0x3db88aeb	0.090108715
228	0xbee7fabe	-0.4530849
229	0x3f046334	0.5171387
230	0x3edff6f9	0.43743113
231	0x3ea2b83b	0.31781182
232	0xbe8a1e39	-0.26976183
233	0xbe5aa09c	-0.2135033
234	0xbe9cac89	-0.30600384
235	0xbe24e221	-0.16101886
236	0xbe952699	-0.2913101
237	0x3c60d36e	0.013722284
238	0x3f1cd3d4	0.61260724
239	0xbd6b5cbe	-0.057461493
240	0xbd8565bf	-0.06513547
241	0x3cd5157c	0.026011221
242	0xbecebd94	-0.40379012
243	0x3f0e7c14	0.5565808
244	0xbf13c790	-0.57726383
245	0x3e3172d2	0.17328957
246	0xbe14dc4f	-0.14537166
247	0x3f0e4efa	0.5558926
248	0x3d6f9962	0.058495887
249	0xbe253982	-0.16135219
250	0x3e917de0	0.28416348
251	0x3e6e2a6b	0.23258369
252	0xbdc4a8ce	-0.096025094
253	0x3f306e66	0.68918455
254	0xbefda604	-0.49540722
255	0x3f0b833c	0.5449712

fc2.bias f4 [128]
0	0xbe32a7e6	-0.1744686
1	0xbbf4020c	-0.007446533
2	0xbd84d062	-0.06485058
3	0x3e34fece	0.17675325
4	0xbcd45d6c	-0.025923453
5	0xbd1370e6	-0.03599634
6	0x3e77b5a7	0.24190389
7	0xbeb65cde	-0.35617727
8	0x3dbf028e	0.09326659
9	0x3b8db025	0.0043239766
10	0xbbbad084	-0.0057011265
11	0x3cc034c8	0.023462668
12	0x3e9f339e	0.31094068
13	0x3df1fc1b	0.118156634
14	0xbd1ab30a	-0.0377684
15	0xbdd6d167	-0.10489159
16	0x3e505cfe	0.20347974
17	0x3e79f2b0	0.24408984
18	0x3c87418e	0.016510751
19	0xbe20853e	-0.15675828
20	0x40bd29d7	5.9113574
21	0x3e35c0d9	0.17749347
22	0x3dc96191	0.098330624
23	0x3e33a02c	0.1754157
24	0x3e3538b0	0.17697406
25	0xbca32a7b	-0.019917717
26	0xbe0949ab	-0.13407008
27	0xbd96f63b	-0.073711835
28	0x3db3c306	0.08777432
29	0xbe395eb1	-0.18102528
30	0xbd965b42	-0.07341625
31	0x3fb48f29	1.4106189
32	0x3df54c88	0.11977488
33	0xbdaca87c	-0.08430573
34	0x3edc9fea	0.43090755
35	0xbcfa3cff	-0.030546663
36	0xbe10a274	-0.14124471
37	0x3b573493	0.0032837733
38	0x3cc1239a	0.023576546
39	0x3da340f8	0.07971376
40	0x3b82c541	0.0039907997
41	0xbbe0863e	-0.0068519404
42	0xbd3068e8	-0.043068796
43	0xbd6fa508	-0.058506995
44	0xbeab6e09	-0.33482388
45	0xbc28fe31	-0.01031451
46	0x3d906fe1	0.07052589
47	0x3bfe6da1	0.0077645336
48	0xbd7ba0d3	-0.06143267
49	0x3cc46bf9	0.023977267
50	0xbd41a177	-0.047273125
51	0xbd6285bd	-0.055303324
52	0xbd890142	-0.06689693
53	0xbdeb8220	-0.11499429
54	0x3d637a97	0.055536833
55	0xbe795398	-0.24348295
56	0xbd3db2ac	-0.046312973
57	0xbe9330b5	-0.28748098
58	0xbe1a28ac	-0.15054578
59	0xbc10f518	-0.008847497
60	0xbde659ab	-0.112475716
61	0xbf039c7d	-0.5141066
62	0xbd02bea0	-0.031920075
63	0xbe8e8e47	-0.27842924
64	0xbe27867d	-0.16359897
65	0x3cae3e10	0.021269828
66	0x3a188c70	0.00058192667
67	0xbe0a40a3	-0.1350122
68	0xc06dcb73	-3.7155426
69	0x3c383936	0.011244109
70	0xbdd51e81	-0.10406209
71	0x3d91fcb8	0.071282804
72	0xbe556aad	-0.20841475
73	0x3e846071	0.2585483
74	0x3d6c7e32	0.057737537
75	0xbd269a35	-0.040674407
76	0x3d915f22	0.07098223
77	0xbe2d75bb	-0.16939442
78	0xba5f7af4	-0.00085250963
79	0xbe68117e	-0.22662923
80	0xbd5c167c	-0.05373238
81	0xbd6bf884	-0.05761005
82	0x3db03ac1	0.086049564
83	0xbc6f666d	-0.014611823
84	0xbc371ea7	-0.011176742
85	0x3cabd2bb	0.020974508
86	0x3d5edfdd	0.05441271
87	0x3d783a01	0.06060219
88	0xbee6dd6b	-0.45090804
89	0x3e5249f4	0.20536023
90	0x3bccbb44	0.0062479097
91	0x3cfbeed2	0.030753527
92	0x3b401825	0.0029311266
93	0xbf764fac	-0.9621532
94	0x3e868f28	0.26281095
95	0x3e0fe936	0.14053807
96	0xbd95e92c	-0.07319865
97	0xbde600d9	-0.112306304
98	0xbdc5de99	-0.09661598
99	0x3d888cff	0.06667518
100	0xbda3f557	-0.08005779
101	0xbe20663b	-0.15663998
102	0x40117a2f	2.2730825
103	0xbe89ec56	-0.26938123
104	0x3ccb80b2	0.02484164
105	0x3dd6424d	0.104618646
106	0xbe309c42	-0.17247108
107	0x3d10d160	0.035355926
108	0x3c5b7917	0.013395569
109	0x3db4fb04	0.0883694
110	0x3ba31ef7	0.0049780565
111	0xbdbf3d41	-0.09337855
112	0xbea7b979	-0.32758692
113	0xbe036f74	-0.12835485
114	0x3d6d80b5	0.057984073
115	0xbdf586ec	-0.11988625
116	0xbe9b1cfe	-0.30295557
117	0xbd429d32	-0.047513194
118	0xbcfd78fa	-0.030941475
119	0xbdbc37b2	-0.091903105
120	0x3cb3e358	0.021958992
121	0x3e15592e	0.145848
122	0xbd812bec	-0.063072056
123	0xbd377c7d	-0.044796456
124	0x3d8441e1	0.06457878
125	0xbdc10096	-0.0942394
126	0x3e0f3c5e	0.13987872
127	0xbe349a05	-0.17636879

bn2.weight f4 [128]
0	0xbcbc476f	-0.022983281
1	0x3e5d4a4c	0.21610373
2	0x3e37383a	0.17892542
3	0x3e0a2504	0.13490683
4	0x3df24a63	0.118305944
5	0x3ea61d1f	0.32444093
6	0x3efb05bc	0.49027812
7	0x3f6c02a1	0.9219151
8	0x3e9be1b0	0.30445623
9	0x3e2d4a18	0.16922796
10	0x3ec03238	0.37538314
11	0x3e60ddd1	0.21959616
12	0x3ebc21f4	0.36744654
13	0x3d24a8e5	0.040200133
14	0x3ed9928d	0.42494622
15	0x3ed1aa14	0.40950072
16	0x3ea8b523	0.32950696
17	0x3e9036d8	0.28166842
18	0x3f108c09	0.56463677
19	0x3e891a1a	0.26777726
20	0x3f91a0e7	1.1377228
21	0x3d3158a4	0.043297425
22	0x3e137251	0.14399077
23	0x3ea705d9	0.3262165
24	0x3e0e2425	0.13880976
25	0x3ec14889	0.37750652
26	0x3f276ca4	0.6540015
27	0x3e911050	0.28332758
28	0x3e96d927	0.2946255
29	0x3f3a42cc	0.72758174
30	0x3f1aee28	0.6051965
31	0x3f3fc845	0.7491496
32	0x3f1699dd	0.58828527
33	0x3e935d61	0.2878218
34	0x3f631c05	0.8871463
35	0x3f15e49b	0.5855195
36	0xbd078937	-0.033089843
37	0x3e2d3c3c	0.16917509
38	0x3f2845cf	0.6573152
39	0x3ea0c0c7	0.31397077
40	0x3cf8801c	0.030334525
41	0x3dc0ee64	0.094204694
42	0x3e980b55	0.29696146
43	0x3eab156b	0.33414778
44	0x3eaa9756	0.33318585
45	0x3ef5c011	0.47998098
46	0x3ec39fc9	0.38207844
47	0x3e47c20e	0.1950762
48	0x3e94c655	0.29057565
49	0x3e0bffcf	0.13671802
50	0x3e3cc6bd	0.18435188
51	0x3d398f1c	0.045302495
52	0x3ec03923	0.37543592
53	0x3ebb721c	0.36610496
54	0x3ed457fb	0.41473374
55	0x3e9249cb	0.28571925
56	0x3e182638	0.1485833
57	0x3ec511e3	0.3849021
58	0x3ece033f	0.40236852
59	0x3e4f9926	0.20273265
60	0x3f224dc9	0.6339994
61	0x3f0ec198	0.5576415
62	0x3ec735b1	0.3890815
63	0x3eb25a0b	0.34834322
64	0x3e84142d	0.25796643
65	0x3ea33ba4	0.3188144
66	0x3e9c3071	0.30505708
67	0x3eaf1be1	0.34200957
68	0x3f94b18f	1.1616687
69	0x3e8572b5	0.26064077
70	0x3e475aa5	0.19468172
71	0x3dcd3816	0.10020463
72	0x3e06cb57	0.13163505
73	0x3ec2c747	0.38042662
74	0x3ec14fbb	0.37756142
75	0x3f10bd5a	0.5653893
76	0x3e8fc6ff	0.2808151
77	0x3eb9d916	0.36298436
78	0x3e45d520	0.19319582
79	0x3e45856b	0.19289176
80	0x3e8e4432	0.27786404
81	0x3e913f2a	0.28368503
82	0x3ef53865	0.47894588
83	0x3ec5ab3a	0.38607198
84	0x3f3263e3	0.69683665
85	0x3ef23ccc	0.4731201
86	0xbd036235	-0.03207608
87	0x3e577b55	0.21043141
88	0x3e2ed2b9	0.17072572
89	0x3ddc9dc1	0.10772277
90	0x3e3d2b76	0.1847361
91	0x3e353260	0.17694998
92	0x3e2870a1	0.16449215
93	0x3eee66dd	0.46562853
94	0x3e85d343	0.26137742
95	0x3e9892fc	0.2979964
96	0x3eae4786	0.34038943
97	0x3ec46332	0.3835693
98	0x3ecff149	0.40613773
99	0x3e68563e	0.22689149
100	0x3edb0a5d	0.42781344
101	0x3e38e110	0.18054605
102	0x3f6e3dee	0.9306325
103	0x3ef7d534	0.4840485
104	0x3e87817d	0.2646598
105	0x3e94ff45	0.29101005
106	0x3ebd500e	0.3697514
107	0x3e5ed961	0.21762611
108	0x3e28ef17	0.16497456
109	0x3ebb9c12	0.3664251
110	0x3e495b13	0.19663648
111	0x3e3a3e2f	0.18187784
112	0x3efbadb8	0.49155974
113	0x3eaea5ab	0.3411077
114	0x3cf454fd	0.029825682
115	0x3eaba96c	0.33527696
116	0x3ebd7552	0.3700357
117	0x3e5812c2	0.21100906
118	0x3de884ae	0.11353432
119	0x3e292527	0.16518079
120	0x3ddc3545	0.10752348
121	0x3f30d8f6	0.69081056
122	0x3f124c39	0.57147557
123	0x3e915716	0.28386754
124	0x3e8f64db	0.28006634
125	0x3e703ff6	0.23461899
126	0x3f1b6ec4	0.6071589
127	0x3f1074af	0.56428045

bn2.bias f4 [128]
0	0xbf6f2834	-0.9342072
1	0xbfc40f61	-1.5317193
2	0xbf8d57b5	-1.1042391
3	0xbf928a89	-1.1448528
4	0xbf38427c	-0.7197645
5	0xbf838e27	-1.0277756
6	0xbf9f96be	-1.2467878
7	0xbf8e61f3	-1.1123642
8	0xbf90f953	-1.1326088
9	0xbf351763	-0.7073881
10	0xbfe9578a	-1.822984
11	0xbf3cd190	-0.73757267
12	0xbf8ed2ac	-1.1158042
13	0xbf93c215	-1.1543604
14	0xbf7b1d96	-0.9809202
15	0xbfc2b029	-1.521001
16	0xbf8eaa6f	-1.1145762
17	0xbf75d5a9	-0.96029145
18	0xbfc34808	-1.5256357
19	0xbf8a1aa4	-1.078938
20	0xbf9c057a	-1.2189171
21	0xbdc53f2f	-0.09631192
22	0xbf00971e	-0.50230587
23	0xbfa7fb40	-1.312355
24	0xbf53a63c	-0.8267553
25	0xbf9f2499	-1.2433044
26	0xbfcd5642	-1.6041949
27	0xbf7796cf	-0.9671449
28	0xbfbee206	-1.4912727
29	0xbfdde1e5	-1.7334563
30	0xbfd8f6bd	-1.6950299
31	0xbeef7a83	-0.46773157
32	0xbf4f3cba	-0.80952036
33	0xbf81f50c	-1.0152907
34	0xbe6001aa	-0.21875635
35	0xbfca5ffc	-1.5810542
36	0xbf9d16bd	-1.2272564
37	0xbf76a835	-0.96350414
38	0xbfd51fbb	-1.6650308
39	0xbf80d74c	-1.0065703
40	0xbfa6121e	-1.2974279
41	0xbfa5365b	-1.2907213
42	0xbffa2986	-1.9543922
43	0xbf89fe16	-1.0780666
44	0xbf814f9c	-1.010242
45	0xbfb40d1f	-1.4066504
46	0xbf63ab7d	-0.88933545
47	0xbf5c3e84	-0.8603289
48	0xbfb97d46	-1.4491355
49	0xbf95d7b7	-1.1706456
50	0xbf78fdde	-0.9726237
51	0xbf8b5e5c	-1.0888171
52	0xbf905b90	-1.1277943
53	0xbf8b80ee	-1.0898721
54	0xbf9140f3	-1.1347946
55	0xbf4d9d28	-0.80317926
56	0xbf770197	-0.964868
57	0xbf72b9e6	-0.9481491
58	0xbfa13290	-1.2593555
59	0xbf521fe9	-0.8207994
60	0xbffdaba8	-1.981801
61	0xbf51a0ca	-0.8188597
62	0xbf9e034c	-1.2344756
63	0xc00f73cf	-2.2414434
64	0xbf99d5b1	-1.2018338
65	0xbf8813fc	-1.0631099
66	0xbf8c5f9a	-1.0966675
67	0xbf896048	-1.0732508
68	0xbfb8349a	-1.4391053
69	0xbf93783d	-1.1521069
70	0xbf837f87	-1.0273293
71	0xbfb5e0d2	-1.4209235
72	0xbf7218f2	-0.94569314
73	0xbf6f9ff2	-0.9360343
74	0xbff78651	-1.9337865
75	0xbfc88d4e	-1.5668123
76	0xbfaa1b09	-1.32895
77	0xbf698112	-0.9121257
78	0xbfb4b78d	-1.4118515
79	0xbfbab468	-1.4586306
80	0xbf85cad0	-1.0452518
81	0xbfa35bf0	-1.2762432
82	0xbf98b917	-1.1931485
83	0xbfa0a01b	-1.254886
84	0xbfce88a5	-1.6135451
85	0xbf9a26aa	-1.2043049
86	0xbfb3c695	-1.4044977
87	0xbf80a1f8	-1.0049429
88	0xbf844fff	-1.0336913
89	0xbfa5e44f	-1.2960299
90	0xbf6b1c1e	-0.9183978
91	0xbf0b89b9	-0.54507023
92	0xbf4b6f8c	-0.7946708
93	0xbf8a794b	-1.0818266
94	0xbfbd7661	-1.4801751
95	0xbf8f6a0e	-1.120424
96	0xbf73b782	-0.95201886
97	0xbfbb87a7	-1.4650773
98	0xbf87a707	-1.0597848
99	0xbf99ef32	-1.2026122
100	0xbf9cab61	-1.2239801
101	0xbf494276	-0.78617036
102	0xbf0a7641	-0.5408669
103	0xbfbe21ca	-1.4854062
104	0xbf3de227	-0.74173206
105	0xbf80e089	-1.0068523
106	0xbf82ec79	-1.0228416
107	0xbf5e875f	-0.8692531
108	0xbf708884	-0.93958306
109	0xbf84ad94	-1.0365472
110	0xbf88cd26	-1.0687606
111	0xbf956fd1	-1.1674749
112	0xbf99b7d8	-1.200923
113	0xbf8319f6	-1.0242298
114	0xbe3df1ed	-0.18549319
115	0xbf5d292d	-0.86390954
116	0xbf91cd03	-1.139069
117	0xbfc3d5d8	-1.5299635
118	0xbf8e4e1a	-1.1117585
119	0xbfb39623	-1.4030193
120	0xbfa0f4bf	-1.257469
121	0xbfebe458	-1.842906
122	0xbfea4986	-1.8303688
123	0xbf9b25c6	-1.2120903
124	0xbfab0959	-1.3362228
125	0xbf9140b2	-1.1347868
126	0xbf29ef3f	-0.66380686
127	0xbfffe4ce	-1.9991701

bn2.running_mean f4 [128]
0	0x3f293da9	0.6610971
1	0x3f091914	0.5355389
2	0x3e968a28	0.2940228
3	0x3f4da006	0.803223
4	0x3deb95ab	0.11503156
5	0x3d2bfb67	0.041987803
6	0x3f489c3c	0.78363395
7	0x3f3f87f6	0.74816835
8	0x3f8a9f59	1.0829879
9	0xbdf72bed	-0.12068925
10	0x3d0d51ae	0.034501724
11	0xbe78afef	-0.24285863
12	0x3e9a3af8	0.30123115
13	0xbd839c5c	-0.064263076
14	0x3f2e66d1	0.68125635
15	0xbd7d6d9c	-0.06187211
16	0x3d38d020	0.04512036
17	0x3e3a7254	0.18207675
18	0x3ec31d88	0.38108468
19	0x3e8eec3a	0.27914602
20	0x40e4693a	7.137845
21	0xbee9835c	-0.45608032
22	0x3f8c6045	1.0966879
23	0xbd431c10	-0.047634184
24	0x3f66f35a	0.90215075
25	0x3d93f795	0.07224957
26	0x3de286e6	0.11060886
27	0x3e3e1dc8	0.18566048
28	0x3ed0c1b8	0.40772796
29	0x3d19f22c	0.03758447
30	0x3eef5d5b	0.46750912
31	0x401c636f	2.443569
32	0x3f904b9b	1.1273073
33	0xbed085d5	-0.40727106
34	0x403f5d1d	2.9900582
35	0x3f7f6a63	0.9977171
36	0x3f1ef5cf	0.62093824
37	0xbce2cca5	-0.027685473
38	0x3f3135ad	0.6922253
39	0x3e957bc9	0.29196003
40	0x3f8545ac	1.0411887
41	0x3e7b03df	0.24513195
42	0x3fbf3a95	1.4939753
43	0x3f0f915d	0.5608118
44	0xbdac0e9f	-0.08401226
45	0x3f1136a6	0.5672401
46	0x3ed2426f	0.4106631
47	0x3e37b7f4	0.17941266
48	0x3ecdd909	0.40204647
49	0xbf996cfb	-1.1986383
50	0x3f062a1d	0.5240801
51	0x3ec7839a	0.38967592
52	0x3f133355	0.575002
53	0x3e5e8a11	0.21732356
54	0x3e8eb0ca	0.27869254
55	0xbe646a63	-0.22306208
56	0xbea3d68c	-0.31999624
57	0xbeac7431	-0.33682397
58	0xbe7ed87e	-0.24887273
59	0x3fbcac35	1.4740053
60	0x3f2796ad	0.6546429
61	0x3fd45d89	1.6591045
62	0x3f4559b4	0.7709
63	0xbe4b1951	-0.19833876
64	0x3f55da07	0.8353581
65	0x3f06c92c	0.52650714
66	0x3eef47dc	0.46734512
67	0x3ea84a20	0.32869053
68	0xc0083ed3	-2.1288345
69	0x3f128fb1	0.57250506
70	0x3d4f5722	0.050620206
71	0x3e910134	0.2832123
72	0x3f65aee3	0.8971998
73	0x3f6ebd8f	0.93257993
74	0x3ed3bb8c	0.41354024
75	0x3f2a3bea	0.6649767
76	0xbe7feece	-0.2499344
77	0x3efe2266	0.4963562
78	0x3ef02c54	0.4690882
79	0x3edb7e26	0.4286968
80	0x3eee5537	0.4654939
81	0xbc4d369d	-0.012525228
82	0x3f23f617	0.6404738
83	0x3f2544a5	0.6455787
84	0x3edb2f34	0.4280945
85	0x3eccc0bb	0.39990792
86	0x3e9784fc	0.29593647
87	0x3da8bc33	0.08239021
88	0x3ea575f6	0.3231656
89	0x3ed5ad69	0.41733864
90	0x3fa40a70	1.2815685
91	0x3f9755f9	1.1823112
92	0x3f204ee8	0.626204
93	0xbdd3ab63	-0.10335424
94	0x3f7878cf	0.9705934
95	0x3f70db5d	0.9408472
96	0x3f3a5f49	0.72801644
97	0x3e612912	0.21988323
98	0x3ec3982c	0.38202035
99	0x3cbc42eb	0.022981128
100	0x3e9f3bb2	0.3110023
101	0xbecae6fc	-0.39629352
102	0x40765302	3.8488164
103	0xbe8ba6a5	-0.27275577
104	0x3da7f652	0.08201279
105	0x3ebba6f3	0.3665081
106	0x3f10366b	0.56333035
107	0x3f0885fb	0.5332944
108	0x3f97933b	1.1841806
109	0x3ed269d2	0.4109636
110	0x3f0cb77f	0.5496749
111	0x3ef1b3a9	0.47207382
112	0x3eb2db20	0.34932804
113	0xbe721325	-0.23640116
114	0xbf828d04	-1.0199285
115	0x3f1147f1	0.567504
116	0x3e325577	0.17415415
117	0x3ec5d895	0.386418
118	0x3df55619	0.119793124
119	0x3ecc6c80	0.3992653
120	0x3f07bc42	0.53021634
121	0x3ee52429	0.4475415
122	0xbe2eb68e	-0.17061827
123	0x3e12e222	0.14344075
124	0xbecf64b7	-0.40506527
125	0x3ea069f0	0.31330824
126	0x3f42735c	0.75957274
127	0x3e818d42	0.25303084

bn2.running_var f4 [128]
0	0x3eb14b35	0.3462769
1	0x3e5e7947	0.21725951
2	0x3ee8bbda	0.4545582
3	0x3deb6bf2	0.11495198
4	0x3e0c2183	0.13684659
5	0x3f14acd7	0.5807623
6	0x3e55b6af	0.2087047
7	0x3fafe62a	1.3742115
8	0x3ec57804	0.38568127
9	0x3ec26344	0.3796636
10	0x3dd88367	0.10571938
11	0x3e311b11	0.17295481
12	0x3e2adcf2	0.16685846
13	0x3db133f3	0.08652487
14	0x3f4f7c73	0.8104927
15	0x3e657cf6	0.2241095
16	0x3ea0cc20	0.31405735
17	0x3e90c2b3	0.28273544
18	0x3e0d7ce7	0.13817178
19	0x3e494485	0.19655044
20	0x40387871	2.8823512
21	0x3f5bf3ee	0.8591908
22	0x3f52005e	0.8203181
23	0x3b933309	0.004492168
24	0x3ef4c68a	0.47807723
25	0x3d336516	0.043797575
26	0x3e3c9452	0.18415955
27	0x3f0ba9ca	0.5455595
28	0x3e833ada	0.25630838
29	0x3e451df0	0.19249701
30	0x3e41adae	0.1891391
31	0x3fe00c7a	1.7503808
32	0x3f83de78	1.0302267
33	0x3e1dc9f1	0.15409066
34	0x407f431c	3.988471
35	0x3ea8f070	0.3299594
36	0x3f1f47f1	0.6221915
37	0x3f0c9b0c	0.5492408
38	0x3e31914d	0.17340584
39	0x3f54873d	0.8301886
40	0x3ea5f08c	0.32410085
41	0x3e5da05a	0.216432
42	0x3e3ec28b	0.186289
43	0x3f2abac4	0.6669123
44	0x3e8bc65b	0.2729977
45	0x3ec6b155	0.3880717
46	0x3f080997	0.5313963
47	0x3e9794cb	0.29605708
48	0x3dbcd226	0.0921977
49	0x3d65a57d	0.056066025
50	0x3f296adf	0.661787
51	0x3d959e1a	0.07305546
52	0x3f672026	0.9028343
53	0x3f2bc2aa	0.6709391
54	0x3efc9347	0.49331114
55	0x3efb89a6	0.49128455
56	0x3ee52d3f	0.44761083
57	0x3eb98a98	0.3623855
58	0x3dda3ebd	0.10656498
59	0x3e8475fb	0.25871262
60	0x3e2f2419	0.17103614
61	0x3f9087ab	1.1291403
62	0x3f1c4d4f	0.61055464
63	0x3e38ee4f	0.18059658
64	0x3d99d944	0.07512143
65	0x3e725888	0.23666584
66	0x3edf017f	0.4355583
67	0x3e8c934a	0.27456123
68	0x40d6de76	6.714656
69	0x3f05e4c3	0.5230219
70	0x3ebb51e1	0.36585906
71	0x3d9a0189	0.07519824
72	0x3eb4bcf3	0.35300407
73	0x3f08d95b	0.5345666
74	0x3e4c2639	0.19936456
75	0x3e889467	0.26675722
76	0x3d4b5503	0.04964162
77	0x3ea908ff	0.33014676
78	0x3e147960	0.14499426
79	0x3e7a66db	0.24453299
80	0x3e8deecc	0.2772125
81	0x3d6f5573	0.0584311
82	0x3ed2a35f	0.41140267
83	0x3ed1b6a7	0.40959665
84	0x3eca9484	0.39566433
85	0x3f48cce7	0.78437656
86	0x3e01d1c7	0.1267768
87	0x3e1e202d	0.15441962
88	0x3effea08	0.4998324
89	0x3ccdf359	0.025140451
90	0x3f0b796f	0.5448217
91	0x3f2e46db	0.68076867
92	0x3d530aab	0.051523846
93	0x3f2ecf56	0.6828512
94	0x3f082866	0.53186643
95	0x3e96bf8b	0.2944301
96	0x3efa61ba	0.48902684
97	0x3e05d134	0.13068086
98	0x3e9850b4	0.29749072
99	0x3f60d552	0.878255
100	0x3e0ef528	0.13960707
101	0x3d96116a	0.0732754
102	0x4005f88d	2.0932953
103	0x3dc4b3d0	0.09604609
104	0x3eaec6a0	0.34135914
105	0x3e8b59bd	0.27216902
106	0x3f115d0a	0.5678259
107	0x3e7ef0a5	0.24896486
108	0x3e835fef	0.2565913
109	0x3f2c1ba8	0.672297
110	0x3f04288f	0.5162439
111	0x3f22ccb1	0.63593584
112	0x3ee86cc0	0.4539547
113	0x3efd20f0	0.49439192
114	0x3e9d5c4d	0.30734482
115	0x3e8535f1	0.26017717
116	0x3ec662f3	0.38747367
117	0x3f11cab2	0.56949914
118	0x3e49def2	0.19713953
119	0x3e610b68	0.21977007
120	0x3e972421	0.29519752
121	0x3e83fd7e	0.25779337
122	0x3de173ad	0.110083915
123	0x3f12b0fe	0.5730132
124	0x3e035931	0.12826993
125	0x3ee8dc7a	0.4548071
126	0x3eb99640	0.36247444
127	0x3e1b8231	0.15186383
