neural_networks/neural_network.pth (torch, 87334 bytes, 18 tensors)

fc1.weight f4 [128, 17]
-0.116147116 -0.08411357 -0.16729033 0.45773518 0.7009016 -0.0540324 -0.0756293 0.07966852
-0.08883967 0.42649978 0.5614487 -0.0014639861 0.68467325 0.07726684 0.16609329 0.44570503
-1.8469576 0.004675556 -0.12776724 -0.11667379 -1.6158429 -0.33555442 0.015695468 -0.045141768
0.20580922 0.12847419 -0.15981805 -0.02165707 0.12787572 -0.09342372 0.10080451 0.10873183
-0.057772886 0.0335588 -0.20735651 -0.01686318 0.057529926 7.044003 0.02152395 0.10988686
-0.15510674 -0.086237036 0.27005002 -0.045692008 -0.017149765 0.015711606 -0.016338129 0.009526115
-0.005546206 -0.02545009 0.0020327694 -0.16600773 -0.48389468 -0.26296335 -0.54479545 0.47800606
0.024446767 0.13792072 -0.28191456 -0.017788028 -0.11089138 0.013105266 0.56717443 -0.36737138
0.011701919 -0.52928865 0.32469252 -0.7916525 -0.2311639 -0.83373415 0.24638323 -0.031106366
0.24736813 0.11407872 -0.046165828 0.09735734 0.2551634 0.21194763 -0.113267034 0.89765203
0.14754821 -1.1189648 -0.8336988 -0.36684763 -0.054452583 -0.0012321929 0.02284945 -0.022006882
-4.420912 0.059411503 0.136487 -0.2782005 -0.26900247 -0.063420855 0.0048252926 0.029647786
-0.0050128973 -0.0038706732 -0.045340266 -0.024698533 0.022757892 0.013330433 -0.08151312 0.0551444
0.5008662 0.26084673 -0.4847637 -0.050179813 -0.2193645 -0.12960525 -0.1269483 -0.5523498
-0.38095444 -0.31022355 -0.2025507 -0.23627405 0.623194 -1.5617168 0.42786026 -0.10929462
-0.48787144 0.55419683 0.28650996 0.20101815 -0.22755635 -0.24785744 0.2844667 -0.023526035
-0.9038836 -0.7651744 -0.46256658 -0.07182826 -0.6142872 -0.16290303 -0.6098727 -0.1452254
-0.20160177 -0.29524967 -2.3880167 0.008398693 -0.015866306 -0.083953604 -0.28977522 0.18697073
0.13225788 0.14128482 -0.3223095 0.07617032 -0.22099364 0.17609 0.3840573 -0.8356287
0.10420068 0.046842527 0.069400676 -0.16963406 0.7652839 -0.8799849 0.2490924 0.0015814899
-0.0034245597 0.111226566 -0.6281957 -1.1764406 -0.50153023 -1.0627185 0.52155924 -0.04446588
0.17969415 0.069739215 -0.13260281 -0.21198879 0.2634715 0.071826935 0.16457032 -0.110344976
0.0005085502 0.17189075 -0.06045156 0.2822781 -1.1153651 -0.07880581 0.2864548 -0.5863539
0.45838696 0.9152566 -0.15944003 -0.000103391096 0.107682705 0.20660111 -0.63067067 0.3084742
-0.1001872 -0.121821515 0.07924818 0.010283928 -1.0857579 -0.07134758 0.47168946 -1.0469594
0.5394465 0.90267515 -0.98341244 -0.21867456 0.046111763 0.39902535 0.46437544 -0.20191216
0.6938738 -0.2610793 0.1751844 0.15794964 0.052749164 0.3439231 -0.4608394 0.6271737
0.1225538 -0.021890905 0.35594603 -1.581346 1.1496567 -0.24215157 -0.0038680483 -5.155485
0.008967062 0.0018819134 -0.056663148 0.02168653 -0.1874705 0.0032228143 0.05914093 -0.00792417
0.029970814 0.010509026 -0.047905035 -0.012364673 -0.02328174 0.018740421 -0.04050971 0.18345074
-0.1482944 -0.12875785 0.018143121 0.18458012 0.12129746 0.15243544 -0.0466733 0.8778941
-0.345713 -1.5852468 -1.0127819 -0.10880485 0.08052839 -0.5438988 -0.08502294 0.09013263
00000000: 8ade edbd bc43 acbd 284e 2bbe 445c ea3e
00000010: 4a6e 333f 1451 5dbd 89e3 9abd 4029 a33d
00000020: 93f1 b5bd 2e5e da3e 1abb 0f3f 39e3 bfba
00000030: bf46 2f3f 143e 9e3d 5c14 2a3e 7333 e43e
00000040: 1b69 ecbf 6835 993b 6ad5 02be abf2 eebd
00000050: f1d3 cebf cacd abbe c893 803c 93e6 38bd
00000060: a7bf 523e bd8e 033e 58a7 23be 2b6a b1bc
00000070: daf1 023e ef54 bfbd 9872 ce3d cbae de3d
00000080: 43a3 6cbd f474 093d 4455 54be a724 8abc
00000090: 80a4 6b3d 7968 e140 ff52 b03c 5d0c e13d
000000a0: 4dd4 1ebe 0b9d b0bd ff43 8a3e 8b27 3bbd
000000b0: aa7d 8cbc a0b5 803c 8ad7 85bc 6c13 1c3c
000000c0: f3bc b5bb b57c d0bc 3638 053b eefd 29be
000000d0: 0bc1 f7be 22a3 86be b777 0bbf 36bd f43e
000000e0: 9644 c83c 173b 0d3e 1b57 90be 33b8 91bc
000000f0: 051b e3bd 78b7 563c 5832 113f 1a18 bcbe
00000100: 68b9 3f3c 767f 07bf 193e a63e bda9 4abf
00000110: 3bb6 6cbe 9a6f 55bf e34b 7c3e c7d2 febc
00000120: 124e 7d3e 1ba2 e93d 6118 3dbd 4963 c73d
00000130: c7a4 823e cd08 593e 8cf8 e7bd 86cc 653f
00000140: e116 173e 3d3a 8fbf 496d 55bf 74d3 bbbe
00000150: ac09 5fbd 8881 a1ba c52e bb3c c747 b4bc
00000160: 1c78 8dc0 7a59 733d 40c3 0b3e 4c70 8ebe
00000170: b1ba 89be cbe2 81bd 7d1d 9e3b eadf f23c
00000180: 3b43 a4bb 1fab 7dbb b7b6 39bd 9454 cabc
00000190: c26e ba3c e367 5a3c 5af0 a6bd 18df 613d
000001a0: c438 003f b48d 853e f332 f8be 5989 4dbd
000001b0: 16a1 60be 3db7 04be bcfe 01be cc66 0dbf
000001c0: 760c c3be 9fd5 9ebe 7369 4fbe d3f1 71be
000001d0: a489 1f3f 56e6 c7bf 8010 db3e dcd5 dfbd
000001e0: 49ca f9be d8df 0d3f 6fb1 923e b4d7 4d3e
000001f0: 8804 69be 57ce 7dbe 9fa5 913e acb9 c0bc
00000200: ea64 67bf 78e2 43bf 87d5 ecbe b21a 93bd
00000210: ed41 1dbf 0dd0 26be 9e20 1cbf f8b5 14be
00000220: b270 4ebe f72a 97be 44d5 18c0 ac9a 093c
00000230: 0efa 81bc deef abbd 6b5d 94be 4175 3f3e
00000240: 9c6e 073e f8ac 103e c005 a5be 2fff 9b3d
00000250: 284c 62be f050 343e 29a3 c43e c3eb 55bf
00000260: 2b67 d53d f3dd 3f3d f121 8e3d 8db4 2dbe
00000270: a5e9 433f b146 61bf 1412 7f3e ff49 cf3a
00000280: 946e 60bb c1ca e33d 6fd1 20bf 9b95 96bf
00000290: 4964 00bf 2907 88bf e884 053f db21 36bd
000002a0: be01 383e 6fd3 8e3d 08c9 07be 9713 59be
000002b0: bde5 863e 001a 933d 1f85 283e 8cfc e1bd
000002c0: 3a50 053a 2104 303e 0e9c 77bd c186 903e
000002d0: 49c4 8ebf f164 a1bd 34aa 923e 4a1b 16bf
000002e0: b2b1 ea3e 424e 6a3f 3f44 23be acd3 d8b8
000002f0: c088 dc3d 3e8f 533e a273 21bf 55f0 9d3e
00000300: f22e cdbd 8f7d f9bd df4c a23d ec7d 283c
00000310: 1dfa 8abf ae1e 92bd 4881 f13e c402 86bf
00000320: 2a19 0a3f b815 673f ebc0 7bbf 39ec 5fbe
00000330: b0df 3c3d 0d4d cc3e 9ec2 ed3e 10c2 4ebe
00000340: b7a1 313f 30ac 85be 8a63 333e 8dbd 213e
00000350: 820f 583d b016 b03e 24f3 ebbe 758e 203f
00000360: 7dfd fa3d 8e54 b3bc 8f3e b63e 8c69 cabf
00000370: f327 933f 95f6 77be 157f 7dbb bcf9 a4c0
00000380: 96ea 123c 89aa f63a 9e17 68bd f3a7 b13c
00000390: 44f8 3fbe da35 533b c33d 723d 61d4 01bc
000003a0: 5a85 f53c 0d2e 2c3c 1238 44bd 3395 4abc
000003b0: 59b9 bebc 8385 993c 82ed 25bd 83da 3b3e
000003c0: 7dda 17be 19d9 03be e2a0 943c 9202 3d3e
000003d0: cd6a f83d 0918 1c3e 812c 3fbd abbd 603f
000003e0: 4b01 b1be 5ee9 cabf d6a2 81bf 14d5 debd
000003f0: 12ec a43d f43c 0bbf 8220 aebd 7597 b83d

fc1.bias f4 [128]
0.18336874 -0.2287346 0.35154712 0.10414356 -0.10085623 0.008163138 -0.1511536 -0.049495023
-0.25621235 0.07633547 -0.1181007 -0.09374303 -0.20878701 0.1051593 -0.2085728 0.1734104
0.18721113 -0.032788437 -0.021273019 -0.114335254 0.18602255 -0.055124614 0.22360447 0.12619454
-0.23952255 -0.08496563 -0.1707809 0.040695854 0.203126 0.12708406 0.11677839 -0.17620915
-0.090776116 0.07462592 -0.000760202 0.06522709 0.21034923 -0.10885943 -0.10046399 0.1509823
-0.17758214 -0.0041045 -0.040961217 0.11306646 -0.1816992 0.077391356 0.20779039 0.10963224
-0.11531691 -0.067528985 0.101228096 -0.08213966 0.10196031 -0.1882583 0.11806576 0.036485575
0.14319114 -0.23258176 0.09271525 0.18021026 -0.2666019 -0.019242758 -0.22550806 -0.06015665
-0.16951281 -0.05862337 -0.036670543 0.26139516 0.14762093 -0.08609219 0.031852074 0.12736572
-0.08630962 -0.14838962 -0.12996572 0.07416365 -0.01422684 -0.13827428 0.22634181 0.14659415
-0.17311311 0.013964945 -0.058324613 -0.214608 -0.0877891 0.11685073 -0.13412216 0.2269235
-0.11563002 -0.17844805 0.054334253 0.048336912 0.26353112 0.01033999 -0.008643592 -0.22360094
0.11121391 -0.16548994 0.09006606 0.005906887 -0.22217461 0.0017100383 0.09636759 0.06460438
0.08631414 0.038749486 -0.10625216 -0.22195484 -0.088716716 0.12951858 -0.016984126 0.16385041
0.2376883 0.108960874 0.20958121 0.13491532 -0.17562786 0.04206152 -0.12866965 0.17305948
-0.23456676 -0.15551092 0.09778352 0.06828096 0.04282486 0.11844431 0.1998956 0.044266783
00000000: 04c5 3b3e 6739 6abe fcfd b33e 3849 d53d
00000010: b68d cebd afbe 053c 02c8 1abe 4bbb 4abd
00000020: 442e 83be c555 9c3d c8de f1bd 59fc bfbd
00000030: 43cc 55be c25d d73d 1c94 55be 7f92 313e
00000040: 46b4 3f3e 2b4d 06bd c144 aebc 9a28 eabd
00000050: b27c 3e3e 59ca 61bd 92f8 643e 2439 013e
00000060: 6645 75be 7602 aebd 30e1 2ebe b2b0 263d
00000070: 4300 503e 5322 023e 8229 ef3d 2c70 34be
00000080: d4e8 b9bd 79d5 983d 4b48 47ba c895 853d
00000090: ca65 573e b1f1 debd 10c0 cdbd 1b9b 1a3e
000000a0: 18d8 35be 0b7f 86bb f3c6 27bd 638f e73d
000000b0: 5b0f 3abe 5c7f 9e3d 01c7 543e de86 e03d
000000c0: 462b ecbd a34c 8abd ad50 cf3d d738 a8bd
000000d0: 91d0 d03d c9c6 40be 76cc f13d e671 153d
000000e0: b3a0 123e ea29 6ebe 7ee1 bd3d 0a89 383e
000000f0: 0b80 88be fda2 9dbc 96eb 66be d266 76bd
00000100: c494 2dbe 0f1f 70bd da33 16bd 96d5 853e
00000110: f129 173e 1a51 b0bd 5277 023d 296c 023e
00000120: 19c3 b0bd 73f3 17be bc15 05be 1de3 973d
00000130: b117 69bc c697 0dbe 26c6 673e c71c 163e
00000140: 9044 31be 3acd 643c cae5 6ebd 33c2 5bbe
00000150: c6ca b3bd 6f4f ef3d 5257 09be a25e 683e
00000160: 6fcf ecbd 16bb 36be 988d 5e3d edfc 453d
00000170: 8ded 863e 1069 293c da9d 0dbc a5f7 64be
00000180: 1ec4 e33d 3276 29be 8e74 b83d 8f8e c13b
00000190: be81 63be 5d23 e03a 5f5c c53d 4d4f 843d
000001a0: 78c5 b03d c8b7 1e3d bc9a d9bd 2148 63be
000001b0: 1cb1 b5bd 85a0 043e 4b22 8bbc 67c8 273e
000001c0: 9064 733e e126 df3d 759c 563e 3e27 0a3e
000001d0: cad7 33be b348 2c3d fac1 03be 8136 313e
000001e0: 4532 70be 413e 1fbe ba42 c83d e3d6 8b3d
000001f0: 1f69 2f3d ee92 f23d 6fb1 4c3e 1651 353d

bn1.weight f4 [128]
0.39527294 0.4050784 2.055745 0.31967422 0.49328622 0.78312427 0.47726223 0.5865445
1.1105168 0.37833104 0.23307514 0.510306 0.6377964 1.7262462 0.46456605 0.59781235
0.42390272 1.1777462 1.1790038 0.402102 0.27949736 1.8660717 0.3082264 0.6517669
1.6480296 0.26667628 0.50988543 0.65500695 0.4628431 0.3566849 0.044147782 0.14464165
0.7016321 0.49276885 0.40077725 0.12788838 1.4494232 0.3578427 0.5593125 1.1255577
0.41552556 1.4197932 0.44192958 0.26655075 0.65994173 0.22688484 0.46138787 0.24620615
0.187292 1.0074079 0.4564713 2.3293397 0.38251925 0.30056167 0.47796002 0.016525887
0.4329142 0.42890763 0.1761599 0.8472662 1.647648 1.430094 0.22645277 0.45214647
0.27068818 0.7657868 0.29773027 0.50017726 0.4122812 0.32128012 0.5036434 0.2954302
0.2532454 0.053914487 0.37012225 0.3944997 0.45651838 0.2706917 2.0859647 0.51328963
0.76971793 0.5188111 0.34043518 0.67933565 0.49730653 0.51147366 0.46393353 0.18363093
0.71795005 0.57576215 0.42341235 0.3478552 0.21580161 2.013345 0.55789924 0.7857178
2.0075753 0.5594468 0.50751907 0.39099252 0.41773194 0.38444516 0.36667743 0.49110493
0.48614907 1.0579344 0.39846236 0.41181096 0.46170592 0.53864276 0.68461823 0.5798547
0.11936685 0.36524156 0.27638608 0.38324326 0.3942936 0.6902707 0.6081697 0.2696977
0.35570627 0.40013927 0.4101294 0.39005494 0.4084537 0.54038954 0.4600493 0.34965396
00000000: 3761 ca3e 7066 cf3e 5391 0340 57ac a33e
00000010: 0390 fc3e d57a 483f b75b f43e c827 163f
00000020: 6a25 8e3f 9bb4 c13e 40ab 6e3e 6aa3 023f
00000030: a046 233f a3f5 dc3f 9adb ed3e 3b0a 193f
00000040: c709 d93e 63c0 963f 99e9 963f 50e0 cd3e
00000050: 471a 8f3e 70db ee3f dacf 9d3e 32da 263f
00000060: a2f2 d23f cb89 883e da87 023f 89ae 273f
00000070: c5f9 ec3e 679f b63e 4ed4 343d f11c 143e
00000080: 299e 333f 334c fc3e ad32 cd3e 2cf5 023e
00000090: b386 b93f 2937 b73e 1b2f 0f3f 4612 903f
000000a0: c4bf d43e c9bb b53f 9844 e23e 5779 883e
000000b0: f1f1 283f 8054 683e 083b ec3e 771d 7c3e
000000c0: 79c9 3f3e bef2 803f 9bb6 e93e e713 1540
000000d0: 90d9 c33e 38e3 993e 2db7 f43e 4c61 873c
000000e0: eea6 dd3e c899 db3e 4363 343e 70e6 583f
000000f0: 21e6 d23f 520d b73f 3ce3 673e be7f e73e
00000100: a497 8a3e 9b0a 443f 1a70 983e 9e0b 003f
00000110: 8516 d33e d47e a43e c6ee 003f a142 973e
00000120: 62a9 813e 70d5 5c3d aa80 bd3e ddfb c93e
00000130: c7bc e93e 1a98 8a3e 7280 0540 f366 033f
00000140: 3c0c 453f ced0 043f 854d ae3e f1e8 2d3f
00000150: f69e fe3e f0ef 023f b288 ed3e bf09 3c3e
00000160: 93cb 373f 2665 133f 81c9 d83e 141a b23e
00000170: 19fb 5c3e a5da 0040 7cd2 0e3f cd24 493f
00000180: 1d7c 0040 e837 0f3f c5ec 013f 2c30 c83e
00000190: f6e0 d53e ffd5 c43e 25bd bb3e 1b72 fb3e
000001a0: 88e8 f83e 656a 873f 4203 cc3e e3d8 d23e
000001b0: b864 ec3e 7ee4 093f 2443 2f3f 5c71 143f
000001c0: 9b76 f43d f100 bb3e 7a82 8d3e 7638 c43e
000001d0: dae0 c93e 95b5 303f 02b1 1b3f d115 8a3e
000001e0: 221f b63e 0edf cc3e 7bfc d13e 48b5 c73e
000001f0: d820 d13e f856 0a3f 958b eb3e d805 b33e

bn1.bias f4 [128]
-0.65658736 -0.5658391 -1.9012064 -0.5508361 -0.87360585 -0.893656 -0.6447232 -0.7468918
-1.0894463 -0.34242833 -0.5458844 -0.4642963 -0.8433733 -1.0216093 -0.38179746 -0.66070324
-1.0434844 -0.67323923 -0.4394793 -0.8321903 -0.7219229 -1.7962596 -0.24694031 -0.86353844
-0.9355405 -0.30730453 -0.51576936 -1.0043541 -0.7551916 -0.5425967 0.24143323 -0.3307294
-0.75191194 -0.60642445 -0.5085521 -0.28457364 -1.2724426 -0.38483074 -0.7874101 -1.2715379
-0.6588298 -0.90535986 -0.8687484 -0.077958144 -0.62447953 0.014048239 -0.7002526 -0.27199963
-0.5812753 -0.88643354 -0.72822297 -1.6959062 -0.53757596 -0.29355514 -0.65921056 -0.16615596
-0.41219512 -0.7777442 -0.09963386 -0.9457465 -1.5408744 -0.5677887 -0.20983651 -0.6910073
-0.2884886 -1.2879703 -0.29060397 -0.5945866 -0.28699383 -0.6866725 -0.7674456 -0.7374602
-0.1929646 -0.15711305 -0.7515489 -0.69743407 -0.92523456 -0.31450158 -1.4980888 -0.57420456
-0.80097204 -0.5557757 -0.6482922 -1.049688 -0.97122866 -1.031683 -0.48908812 -0.10639251
-0.9169944 -0.6892994 -0.49023142 -0.54010624 -0.009965987 -1.6106918 -0.7011698 -0.98284173
-1.7800312 -0.5215733 -0.53650767 -0.8845006 -0.7674127 -0.28358358 -0.6647169 -1.1214063
-0.62663937 -0.46225935 -0.62776846 -0.72751343 -1.0269642 -0.63965577 -0.72974354 -0.696478
0.0132014295 -0.8949749 -0.87347996 -0.46433067 -0.90464425 -0.55156225 -0.0045942604 -0.4148234
-0.36678624 -0.42748833 -0.22890347 -0.7502369 -0.7415555 -0.6123375 -0.5646502 -0.50613177
00000000: 1c16 28bf d5da 10bf bb5a f3bf 9803 0dbf
00000010: a2a4 5fbf a4c6 64bf 940c 25bf 4d34 3fbf
00000020: fa72 8bbf c452 afbe 14bf 0bbf 3fb8 edbe
00000030: 50e7 57bf 18c4 82bf f57a c3be d923 29bf
00000040: e690 85bf 6859 2cbf 6e03 e1be 6c0a 55bf
00000050: f0cf 38bf d6eb e5bf ecdd 7cbe db10 5dbf
00000060: 957f 6fbf 0557 9dbe 7609 04bf ad8e 80bf
00000070: 3d54 41bf 9ee7 0abf 463a 773e 5d55 a9be
00000080: 4d7d 40bf a23e 1bbf 7830 02bf a3b3 91be
00000090: 66df a2bf 8908 c5be b593 49bf c1c1 a2bf
000000a0: 12a9 28bf aac5 67bf 4c66 5ebf 85a8 9fbd
000000b0: e4dd 1fbf 962a 663c c143 33bf 8943 8bbe
000000c0: 75ce 14bf 4fed 62bf d26c 3abf 7413 d9bf
000000d0: 949e 09bf dc4c 96be 06c2 28bf ca24 2abe
000000e0: 3d0b d3be 3e1a 47bf d60c ccbd 711c 72bf
000000f0: 5f3b c5bf 9a5a 11bf 62df 56be dbe5 30bf
00000100: c7b4 93be 36dc a4bf 0bca 94be d436 18bf
00000110: dbf0 92be c5c9 2fbf 5177 44bf 31ca 3cbf
00000120: 8398 45be 3ee2 20be 8265 40bf 0a8b 32bf
00000130: 2cdc 6cbf 5a06 a1be 60c1 bfbf 12ff 12bf
00000140: 810c 4dbf 5147 0ebf 7af6 25bf 2d5c 86bf
00000150: 71a2 78bf 300e 84bf c269 fabe 51e4 d9bd
00000160: 25c0 6abf ed75 30bf 9dff fabe 6744 0abf
00000170: 6148 23bc 262b cebf dd7f 33bf 849b 7bbf
00000180: 10d8 e3bf d485 05bf 9158 09bf a26e 62bf
00000190: 2975 44bf de31 91be e32a 2abf 3e8a 8fbf
000001a0: 706b 20bf 42ad ecbe 6fb5 20bf 523e 3abf
000001b0: 9073 83bf 7bc0 23bf 79d0 3abf 624c 32bf
000001c0: cf4a 583c 131d 65bf 629c 5fbf c0bc edbe
000001d0: c496 67bf 2f33 0dbf 738b 96bb bc63 d4be
000001e0: 68cb bbbe c0df dabe ac65 6abe 870f 40bf
000001f0: 95d6 3dbf 27c2 1cbf ea8c 10bf da91 01bf

bn1.running_mean f4 [128]
35.10025 -60.29575 212.33212 -41.812916 -40.73428 -132.39987 -37.19304 -66.71499
-59.867123 -47.399868 6.1025085 -35.36992 35.230095 -88.671364 -54.90321 4.4114127
15.076641 -71.659355 98.92763 -10.662749 -34.656715 -213.92865 -41.496513 81.08169
-93.29345 -13.444971 51.313606 -59.267952 7.685679 0.89166224 20.7774 -36.84698
-48.725296 -52.65154 -32.707676 -32.944237 -172.04071 -21.05206 -46.336876 -106.132
-0.5147584 -80.32994 21.775724 -70.976776 -74.47088 -20.875624 23.239048 20.929035
-5.292658 -83.12713 -72.96305 -115.37915 -20.004658 10.889729 -19.019556 15.1309805
-63.14564 -35.137074 0.2574553 -93.450935 -143.12743 98.91517 -12.783965 26.56285
-72.69918 -53.67456 -82.46236 -49.445583 -51.12696 20.253954 108.433075 -7.484185
-71.41897 64.86095 15.990638 -8.546127 54.969467 47.285793 -110.07446 -14.728369
-108.543594 -52.693707 -39.606064 -24.127861 -33.486816 22.167332 -71.76991 -10.7386875
-69.36249 -80.57206 -24.405903 -11.684217 -61.845284 -144.31546 -61.12043 -55.671547
-203.97795 -56.22389 -49.29692 22.58579 -60.30295 -16.668814 -61.196247 69.98859
-49.153965 92.360855 -28.999767 -32.02141 73.94227 -52.37836 -41.040623 -43.021603
8.453415 -26.402756 0.4591274 -53.61263 -1.4358709 -73.989296 80.95553 22.569473
94.67776 -26.939339 -76.17126 22.439451 42.985577 -47.609806 -46.344803 -58.891453
00000000: a866 0c42 d92e 71c2 0655 5443 6d40 27c2
00000010: e7ef 22c2 5e66 04c3 acc5 14c2 136e 85c2
00000020: ef77 6fc2 7799 3dc2 c047 c340 cc7a 0dc2
00000030: 9eeb 0c42 bd57 b1c2 e39c 5bc2 4b2a 8d40
00000040: ec39 7141 9751 8fc2 f2da c542 9f9a 2ac1
00000050: 7aa0 0ac2 bced 55c3 6efc 25c2 d329 a242
00000060: 3f96 bac2 9a1e 57c1 2241 4d42 6212 6dc2
00000070: 15f1 f540 fa43 643f 1d38 a641 4f63 13c2
00000080: b4e6 42c2 2d9b 52c2 a9d4 02c2 e6c6 03c2
00000090: 6c0a 2cc3 9e6a a8c1 f658 39c2 9643 d4c2
000000a0: 35c7 03bf eea8 a0c2 af34 ae41 1cf4 8dc2
000000b0: 17f1 94c2 4701 a7c1 92e9 b941 aa6e a741
000000c0: 745d a9c0 1741 a6c2 15ed 91c2 20c2 e6c2
000000d0: 8a09 a0c1 543c 2e41 0d28 98c1 7f18 7241
000000e0: 2395 7cc2 5d8c 0cc2 2ed1 833e e1e6 bac2
000000f0: 9f20 0fc3 91d4 c542 1f8b 4cc1 b880 d441
00000100: fb65 91c2 c0b2 56c2 baec a4c2 47c8 45c2
00000110: 0282 4cc2 1908 a241 bcdd d842 727e efc0
00000120: 83d6 8ec2 ceb8 8142 a7d9 7f41 f0bc 08c1
00000130: bce0 5b42 a724 3d42 2026 dcc2 66a7 6bc1
00000140: 5216 d9c2 5bc6 52c2 9c6c 1ec2 dc05 c1c1
00000150: 80f2 05c2 b256 b141 328a 8fc2 aad1 2bc1
00000160: 98b9 8ac2 e524 a1c2 4a3f c3c1 8ef2 3ac1
00000170: 9261 77c2 c250 10c3 527b 74c2 aaaf 5ec2
00000180: 5bfa 4bc3 43e5 60c2 0c30 45c2 b3af b441
00000190: 3936 71c2 bb59 85c1 f5c8 74c2 28fa 8b42
000001a0: a99d 44c2 c2b8 b842 86ff e7c1 ed15 00c2
000001b0: 71e2 9342 7183 51c2 9929 24c2 1f16 2cc2
000001c0: 3041 0741 d838 d3c1 bf12 eb3e 5573 56c2
000001d0: 9eca b7bf 85fa 93c2 3be9 a142 488e b441
000001e0: 035b bd42 c483 d7c1 af57 98c2 ff83 b341
000001f0: 3bf1 2b42 7170 3ec2 1461 39c2 d990 6bc2

bn1.running_var f4 [128]
2626.284 2042.1061 30712.46 1474.7225 1934.7456 12057.667 2341.1262 2643.576
4295.1055 3011.3645 1381.1812 2539.129 2910.5164 13453.375 3005.422 1767.1589
1630.4062 7588.582 7317.0244 1339.8004 1277.7731 31231.557 2060.7534 4176.231
14119.27 1115.1531 2555.1714 3064.6514 1503.094 1913.7316 987.53625 1737.9507
3301.7878 1927.0277 1698.83 1437.2596 20015.592 1646.4246 1199.1 7740.685
2229.899 8619.411 1673.4628 3567.9744 2907.7239 1398.1707 2819.3308 1758.9023
1101.7898 6846.3267 2171.008 18275.32 1502.5394 1830.0332 1260.7494 992.7787
4518.5264 1868.6769 1678.6826 4290.1875 20184.223 6544.948 1122.278 2262.3792
2644.3433 2464.655 3398.1362 2308.6462 2287.0242 1734.3793 5429.361 1215.6427
3915.152 2435.0518 1515.0465 2590.8872 3591.9707 2942.425 20893.697 2022.0077
6372.605 2612.0693 1070.5851 1586.9559 738.43085 2439.2017 3336.7678 952.10706
4408.4893 4630.208 1362.6075 2418.7854 2655.7004 29754.824 2104.0662 2988.7036
39874.57 2550.194 1998.6277 1912.1102 3307.0598 1403.3727 2418.2212 4253.376
2259.5845 5708.807 2032.1356 1801.0243 3675.9602 2384.8496 3466.4263 1890.1139
824.0135 1471.938 2065.939 3377.7805 1671.6589 6846.5225 4391.484 1701.2208
4785.216 1466.9326 3263.8398 2053.1711 2621.701 2287.1843 2274.2527 3111.7717
00000000: 8b24 2445 6543 ff44 ecf0 ef46 1f57 b844
00000010: dcd7 f144 ab66 3c46 0552 1245 3739 2545
00000020: d838 8645 d535 3c45 cca5 ac44 10b2 1e45
00000030: 43e8 3545 8035 5246 c1d6 3b45 16e5 dc44
00000040: 00cd cb44 a824 ed45 32a8 e445 9d79 a744
00000050: bdb8 9f44 1dff f346 0ecc 0045 d981 8245
00000060: 149d 5c46 e664 8b44 beb2 1f45 6c8a 3f45
00000070: 02e3 bb44 6937 ef44 52e2 7644 6c3e d944
00000080: 9b5c 4e45 e3e0 f044 8f5a d444 4fa8 b344
00000090: 2f5f 9c46 96cd cd44 33e3 9544 7be5 f145
000000a0: 625e 0b45 a5ad 0646 cf2e d144 97ff 5e45
000000b0: 95bb 3545 76c5 ae44 4b35 3045 e0dc db44
000000c0: 46b9 8944 9df2 d545 21b0 0745 a4c6 8e46
000000d0: 43d1 bb44 10c1 e444 fb97 9d44 d631 7844
000000e0: 3634 8d45 a995 e944 d8d5 d144 8011 8645
000000f0: 72b0 9d46 9687 cc45 e548 8c44 1166 0d45
00000100: 7e45 2545 7b0a 1a45 2e62 5445 574a 1045
00000110: 63f0 0e45 23cc d844 e3aa a945 91f4 9744
00000120: 6fb2 7445 d430 1845 7d61 bd44 32ee 2145
00000130: 887f 6045 cde6 3745 653b a346 3fc0 fc44
00000140: d724 c745 1c41 2345 b9d2 8544 975e c644
00000150: 939b 3844 3a73 1845 498c 5045 da06 6e44
00000160: eac3 8945 aab1 9045 7153 aa44 912c 1745
00000170: 35fb 2545 a675 e846 0f81 0345 42cb 3a45
00000180: 92c2 1b47 1b63 1f45 16d4 f944 8703 ef44
00000190: f5b0 4e45 ed6b af44 8a23 1745 02eb 8445
000001a0: 5a39 0d45 7566 b245 5704 fe44 c720 e144
000001b0: 5dbf 6545 980d 1545 d2a6 5845 a543 ec44
000001c0: dd00 4e44 04fe b744 061f 0145 7d1c 5345
000001d0: 16f5 d044 2ef4 d545 df3b 8945 11a7 d444
000001e0: ba89 9545 d85d b744 70fd 4b45 bd52 0045
000001f0: 37db 2345 f3f2 0e45 0b24 0e45 597c 4245

fc2.weight f4 [128, 128]
0.64571273 0.3201745 0.6283858 -0.42837653 -0.69909304 0.0717017 0.4928538 0.34762606
-1.278014 -0.37456006 0.2652805 -0.25446698 0.25966796 -0.21584886 -1.0080757 -0.25189227
0.5582907 -0.07701345 0.5615496 0.51895 -0.17849325 0.118680894 0.2886209 -0.0031979028
0.29938653 -0.3740326 0.050718464 0.5527703 -0.4066603 0.31153467 -0.13990217 -0.56274486
0.29580083 0.010822114 0.005855543 0.27776644 -0.33191988 0.10452063 -0.027936585 0.09372083
-0.5339783 0.65166354 -0.1766557 0.62223667 0.24083859 -0.88913655 0.95130026 -0.49192217
0.29949957 0.5940404 0.21748076 -0.37694073 -0.1692054 -0.15565406 0.06483303 -0.25505033
-0.23859456 0.51913756 -0.05484636 0.7524141 -0.9556731 0.81450665 0.14154284 0.319447
0.4082292 -0.10227255 -0.2034874 0.41046557 0.18014286 0.7319094 0.78693265 -1.1622221
-0.18950538 0.19060439 0.35809854 0.41503045 0.028777206 0.46263465 -0.15916508 0.5097479
0.6229084 -0.7033501 0.39578366 0.5982081 -0.41909942 -0.37923658 0.025698794 -0.106409155
0.81390077 0.23022991 0.2832342 -0.8141922 -0.07620163 0.25601184 -0.009653507 0.5333278
0.15322731 0.11074073 -0.06856172 -0.34673417 0.74850225 0.34992433 0.06682157 0.15155275
0.53805315 0.53671217 0.23805887 0.18339264 -0.01184412 0.36240506 0.09346439 0.4505547
0.70480955 0.06291704 0.82242996 0.5631656 0.8738287 0.05203696 0.109123506 0.37364736
-0.739692 0.6048548 -0.9492156 1.0836775 -1.1011778 0.30993676 -0.29833877 0.29233184
-0.8418343 -0.9547763 -0.768052 0.19425055 0.40878543 0.6640542 0.42277825 0.016011646
0.6199491 -0.6803746 0.54934466 0.48305762 0.6946891 1.0982962 -0.19936253 0.2921367
0.096630566 0.522336 -0.50452995 0.05460705 0.24051379 -0.118882954 -0.22364807 0.191573
0.25099203 0.8941611 -0.22912915 0.08852882 -0.51107436 0.7014855 0.46130064 -0.76358336
-1.6034884 0.4863528 -0.16081354 0.17291145 0.46298963 0.4321062 -0.19027786 0.14803395
-0.49518073 -0.47340846 -0.69907695 -0.2993122 0.051135592 0.52385306 -0.5472643 -0.9779275
-0.67371607 1.1087004 0.55221826 0.1897662 -0.20262858 0.21354562 -0.47950742 -0.6987182
0.31950006 0.03314792 0.5369928 -0.14027098 1.3968507 0.18147397 -0.79547817 0.14943463
-0.0047466056 0.50560313 0.019826705 -0.32102013 -0.120848626 0.10269553 0.35090744 -0.3754533
-0.027395342 0.45552683 -0.572403 -0.8397173 0.427645 0.9193631 -0.41892722 0.47978342
-0.8170306 0.6762516 -0.09044908 -0.7102668 0.4044525 0.21211433 -0.032154664 1.2001258
0.52189714 0.49951428 0.17969273 -0.7521171 0.059472144 -2.4774554 0.9182437 0.46080348
1.9479178 -0.21275643 -0.4282107 -0.20171241 0.41139746 -0.31019628 -0.4731813 -0.98384154
-0.38588002 -0.13489485 0.20223126 -0.043187447 0.18842779 0.14921188 0.13473867 0.6641633
-0.21691649 -0.27733785 0.20492625 0.061524797 -1.1901569 -0.11485044 -0.13526677 -0.51353145
-0.60419035 0.5317309 0.394002 -0.91316354 0.62367284 -1.5219941 -0.7860805 0.19453183
00000000: 6e4d 253f e9ed a33e e4dd 203f 2b54 dbbe
00000010: c3f7 32bf 57d8 923d 5557 fc3e 0bfc b13e
00000020: f695 a3bf 56c6 bfbe d8d2 873e 7f49 82be
00000030: 33f3 843e 7c07 5dbe a008 81bf 06f8 80be
00000040: 24ec 0e3f 3ab9 9dbd b7c1 0f3f e8d9 043f
00000050: efc6 36be f80e f33d 1ec6 933e e893 51bb
00000060: 3149 993e 3381 bfbe 2abe 4f3d 5b82 0d3f
00000070: c735 d0be 7981 9f3e 8442 0fbe 0c10 10bf
00000080: 3573 973e 3c4f 313c dbdf bf3b 6737 8e3e
00000090: 67f1 a9be e90e d63d 44db e4bc b5f0 bf3d
000000a0: cdb2 08bf 6cd3 263f 3be5 34be e74a 1f3f
000000b0: 649e 763e 749e 63bf 6a88 733f 39dd fbbe
000000c0: 0258 993e 0813 183f 47b3 5e3e 60fe c0be
000000d0: 2e44 2dbe c763 1fbe 2ec7 843d f595 82be
000000e0: 2252 74be 33e6 043f 94a6 60bd 369e 403f
000000f0: fea6 74bf 8283 503f 9bf0 103e 8f8e a33e
00000100: 6b03 d13e 4574 d1bd 005f 50be 8b28 d23e
00000110: 5f77 383e 6a5e 3b3f 6b74 493f b2c3 94bf
00000120: b30d 42be cc2d 433e b158 b73e df7e d43e
00000130: 2dbe eb3c 73de ec3e 2cfc 22be d77e 023f
00000140: ed76 1f3f c10e 34bf 28a4 ca3e 2b24 193f
00000150: 3394 d6be 4c2b c2be 4786 d23c 0bed d9bd
00000160: cd5b 503f 64c1 6b3e 1304 913e e66e 50bf
00000170: 9a0f 9cbd fc13 833e be29 1ebc 2c88 083f
00000180: 9fe7 1c3e 09cc e23d 166a 8cbd 2487 b1be
00000190: d89d 3f3f 4829 b33e bfd9 883d a530 1b3e
000001a0: dabd 093f f865 093f b4c5 733e 48cb 3b3e
000001b0: d70d 42bc 288d b93e 426a bf3d 1baf e63e
000001c0: 666e 343f a6da 803d c58a 523f 9f2b 103f
000001d0: 3db3 5f3f b524 553d 257c df3d b54e bf3e
000001e0: 745c 3dbf c4d7 1a3f cbff 72bf f2b5 8a3f
000001f0: 65f3 8cbf 08b0 9e3e dcbf 98be 85ac 953e
00000200: 7482 57bf 386c 74bf 0e9f 44bf 9ee9 463e
00000210: 534c d13e 75ff 293f 6476 d83e db2a 833c
00000220: fcb4 1e3f 082d 2ebf daa1 0c3f 5453 f73e
00000230: 25d7 313f f894 8c3f b125 4cbe f192 953e
00000240: 3fe6 c53d d0b7 053f e028 01bf a4ab 5f3d
00000250: 3f49 763e e878 f3bd 0004 65be b62b 443e
00000260: 0782 803e bee7 643f d5a0 6abe 994e b53d
00000270: c5d5 02bf 8e94 333f 992f ec3e 337a 43bf
00000280: 1c3f cdbf 3c03 f93e 4eac 24be b30f 313e
00000290: fa0c ed3e 063d dd3e 33d8 42be 3696 173e
000002a0: 5488 fdbe 9862 f2be b5f6 32bf 733f 99be
000002b0: 8e73 513d 3c1b 063f 8319 0cbf 7559 7abf
000002c0: a878 2cbf e5e9 8d3f 2d5e 0d3f 1252 423e
000002d0: de7d 4fbe b4ab 5a3e ff81 f5be 32df 32bf
000002e0: 8395 a33e 1dc6 073d 5c78 093f 32a3 0fbe
000002f0: 01cc b23f 50d4 393e 75a4 4bbf 6405 193e
00000300: 6a89 9bbb 356f 013f 9d6b a23c c05c a4be
00000310: 7c7f f7bd 0952 d23d 24aa b33e 6a3b c0be
00000320: 326c e0bc d03a e93e 0189 12bf b7f7 56bf
00000330: 49f4 da3e 615b 6b3f a17d d6be 2ca6 f53e
00000340: eb28 51bf d31e 2d3f 5e3d b9bd 0cd4 35bf
00000350: 6614 cf3e 8034 593e 9cb4 03bd b99d 993f
00000360: 0d9b 053f 56c0 ff3e 5f01 383e bf8a 40bf
00000370: 1099 733d a18e 1ec0 0512 6b3f 6fee eb3e
00000380: 5f55 f93f d2dc 59be 6f3e dbbe b38d 4ebe
00000390: b0a2 d23e 0cd2 9ebe d244 f2be 0add 7bbf
000003a0: 1192 c5be e021 0abe b615 4f3e 52e5 30bd
000003b0: 37f3 403e 00cb 183e eff8 093e 9b06 2a3f
000003c0: 5b1f 5ebe 3aff 8dbe 30d8 513e 6d01 7c3d
000003d0: 1057 98bf b536 ebbd 5f83 0abe cc76 03bf
000003e0: 38ac 1abf 841f 083f a1ba c93e 16c5 69bf
000003f0: 06a9 1f3f b4d0 c2bf 923c 49bf 5a33 473e

fc2.bias f4 [128]
-0.22308479 -0.062233575 0.13881496 0.0341617 -0.11215873 -0.08565669 0.2259434 0.1314716
-0.31156674 -0.28197047 -0.32870972 0.30495057 -0.013175028 0.1071514 0.15338613 0.08521789
0.09128164 0.07971566 -0.3654323 -0.015949007 -0.06159736 0.0079395445 0.11878896 0.15135932
-0.055884693 -0.22350399 -0.04340057 -0.15641111 -0.054016422 0.22092682 0.048871566 0.18630134
0.37587723 0.16796461 -0.25329143 0.25567952 0.10784465 0.12452662 -0.075947836 0.15257125
-0.02975746 -0.14369617 -0.16777831 -0.041515533 -0.15056534 0.24686089 0.11936003 0.08161939
0.03671427 -0.095307626 0.5461175 0.020305017 0.39273927 -0.3420081 0.30219948 0.0064541185
0.23764433 0.81855214 0.011029264 -0.09373111 0.12563305 -0.081704475 0.01753815 0.05065879
-0.05929394 0.047835138 0.30519727 -0.078241795 0.005026241 -1.9713364 0.0015705624 0.0008665642
0.027865311 -0.26931047 0.19059679 -0.041020367 0.16766196 0.04033416 0.015668327 0.149588
0.09601688 0.1593393 0.14016925 -0.040428903 0.01927467 -0.050991543 0.0063176374 0.06191069
0.35833824 0.10268033 0.043673083 -0.06611353 0.20036718 -0.2662972 0.973844 0.0017891519
-0.19827017 0.0982877 0.10094261 0.10610287 -0.11610654 -0.013732868 0.11706057 -0.4912497
0.5416762 -0.048826504 0.034099977 -0.35290065 0.07477476 0.1221939 -0.041275803 0.057767477
0.11866414 -0.13358366 -0.16313697 -0.0032996696 -0.16034907 0.27736902 -0.14612928 0.08740692
0.09305888 0.10351454 0.11031218 -0.10403426 0.16170685 0.09057756 0.00682018 0.082412586
00000000: 5770 64be a2e8 7ebd 8225 0e3e 24ed 0b3d
00000010: 7ab3 e5bd c66c afbd b55d 673e 7ea0 063e
00000020: ad85 9fbe 6f5e 90be a44c a8be 7b22 9c3e
00000030: 13dc 57bc 3172 db3d 4111 1d3e b886 ae3d
00000040: def1 ba3d f741 a33d f119 bbbe 7ea7 82bc
00000050: 834d 7cbd dd14 023c a047 f33d f0fd 1a3e
00000060: 59e7 64bd 3bde 64be ccc4 31bd 3c2a 20be
00000070: 5340 5dbd a43a 623e 8d2d 483d c7c5 3e3e
00000080: fb72 c03e eafe 2b3e 6aaf 81be 6de8 823e
00000090: a8dd dc3d d007 ff3d 8a8a 9bbd a33b 1c3e
000000a0: ebc5 f3bc 1725 13be 14ce 2bbe 310c 2abd
000000b0: cd2d 1abe 1ac9 7c3e 0873 f43d 1128 a73d
000000c0: b461 163d a530 c3bd 5bce 0b3f b556 a63c
000000d0: 1f15 c93e b01b afbe e4b9 9a3e 127d d33b
000000e0: 0959 733e a28c 513f 16b4 343c 19f6 bfbd
000000f0: f3a5 003e ad54 a7bd 2bac 8f3c 977f 4f3d
00000100: 34de 72bd c7ee 433d d142 9c3e 3c3d a0bd
00000110: 2ab3 a43b c054 fcbf 54db cd3a 242a 633a
00000120: cb45 e43c 10e3 89be ce2b 433e f904 28bd
00000130: 94af 2b3e 6f35 253d dd5a 803c 992d 193e
00000140: 7fa4 c43d d729 233e 8788 0f3e c798 25bd
00000150: eae5 9d3c 82dc 50bd 2f04 cf3b 1096 7d3d
00000160: 1c78 b73e 114a d23d 8ce2 323d 8866 87bd
00000170: 0e2d 4d3e 1b58 88be d74d 793f fa81 ea3a
00000180: 5607 4bbe 104b c93d 00bb ce3d 764c d93d
00000190: 44c9 edbd d3ff 60bc 74bd ef3d 1585 fbbe
000001a0: 4bab 0a3f 4dfe 47bd 6bac 0b3d 65af b4be
000001b0: 8223 993d cc40 fa3d d110 29bd 979d 6c3d
000001c0: 2f06 f33d 28ca 08be 610d 27be 453f 58bb
000001d0: 8c32 24be 5003 8e3e eaa2 15be 6602 b33d
000001e0: a795 be3d 6eff d33d 5aeb e13d ea0f d5bd
000001f0: 7b96 253e ba80 b93d d17b df3b eec7 a83d

bn2.weight f4 [128]
0.6649158 0.27968436 0.23847534 0.23839453 0.8307214 0.5792972 0.37825996 0.18784085
1.2331276 0.42819545 0.63172126 1.0689322 0.22612679 0.25136596 1.1760733 0.37991577
0.37991413 0.47204956 0.6073917 1.0875659 0.6260486 0.84925693 0.3457546 0.22193766
0.4400536 0.35563678 0.285698 0.2239441 0.09502186 0.24113803 0.37554148 0.2649317
0.3985496 0.46047044 0.59021074 0.4102195 0.36455858 0.45668584 0.46928245 0.62226105
0.18465059 0.48724684 0.37609857 0.37013417 0.4564044 0.5000461 0.61819625 0.2739715
0.38165668 0.19231462 0.7545094 0.31914398 0.42667854 0.37094223 0.33457315 0.2598505
0.41882563 1.0444187 0.29057446 0.30985972 0.27811304 0.30143142 0.29180324 0.24189247
0.4730474 0.14203645 0.39412126 0.35127342 0.49320278 0.5212555 0.3677528 0.33053535
0.54073924 0.46623987 0.7283755 0.5033841 0.27138904 0.54135257 0.41928345 0.47445476
0.5095505 0.3273998 0.3593534 0.32728285 0.473217 0.21276094 0.30354276 0.46994323
0.79070985 0.37054038 -0.007750665 0.45747945 0.5185793 0.35886976 0.47046447 0.29836166
0.2683455 0.3369299 0.27297267 0.418568 0.7464056 0.21183468 0.3511182 0.3931533
0.5011595 0.42654923 0.414038 0.6505273 0.22276108 0.23442863 0.56912875 0.29971978
0.8571114 0.43417615 0.3171311 0.525917 0.38958883 0.49849027 0.39906213 0.3738728
0.4984075 0.49729565 0.35617542 0.44922572 0.5802845 0.3618488 0.10848723 0.18012577
00000000: ec37 2a3f ca32 8f3e e132 743e b21d 743e
00000010: 28aa 543f d24c 143f 4aab c13e 5a59 403e
00000020: 20d7 9d3f 6f3c db3e 7cb8 213f c5d2 883f
00000030: c88d 673e 0ab3 803e 9289 963f 5284 c23e
00000040: 1b84 c23e 7bb0 f13e 067e 1b3f 5c35 8b3f
00000050: b944 203f e768 593f bf06 b13e a043 633e
00000060: b54e e13e 0616 b63e 0247 923e 9a51 653e
00000070: d29a c23d e3ec 763e f946 c03e 21a5 873e
00000080: b10e cc3e c8c2 eb3e 0d18 173f 4a08 d23e
00000090: 6ca7 ba3e bad2 e93e ca45 f03e 804c 1f3f
000000a0: 0b15 3d3e 6b78 f93e fe8f c03e 3a82 bd3e
000000b0: d6ad e93e 0503 003f 1c42 1e3f fe45 8c3e
000000c0: 8168 c33e 20ee 443e 8727 413f d766 a33e
000000d0: 9c75 da3e 24ec bd3e 2c4d ab3e 200b 853e
000000e0: 5070 d63e 83af 853f 2dc6 943e efa5 9e3e
000000f0: d564 8e3e 3855 9a3e 3c67 953e a9b2 773e
00000100: 4533 f23e 0172 113e 43ca c93e 1cda b33e
00000110: 1385 fc3e 0071 053f 184a bc3e ee3b a93e
00000120: e36d 0a3f feb6 ee3e d176 3a3f c8dd 003f
00000130: 81f3 8a3e 1596 0a3f 52ac d63e bceb f23e
00000140: e771 023f f2a0 a73e 2bfd b73e 9e91 a73e
00000150: 8049 f23e 01de 593e f569 9b3e 669c f03e
00000160: f66b 4a3f 78b7 bd3e 4af9 fdbb bf3a ea3e
00000170: 9dc1 043f c7bd b73e b8e0 f03e dcc2 983e
00000180: 9564 893e 1382 ac3e 13c3 8b3e 8b4e d63e
00000190: 7014 3f3f 31eb 583e c4c5 b33e 644b c93e
000001a0: fd4b 003f a964 da3e cafc d33e f588 263f
000001b0: 7b1b 643e 0f0e 703e 6cb2 113f df74 993e
000001c0: a76b 5b3f 564c de3e 025f a23e 7fa2 063f
000001d0: 3078 c73e 1e3a ff3e df51 cc3e 416c bf3e
000001e0: 452f ff3e 899d fe3e a05c b63e ea00 e63e
000001f0: 868d 143f 3f44 b93e 8e2e de3d e472 383e

bn2.bias f4 [128]
-0.32748735 -0.9330865 -0.898323 -0.703077 -0.4312064 -1.494452 -0.40984845 -0.87823117
-0.59542173 -1.3762761 -1.6434021 -0.47858313 -0.9514352 -0.8428146 -1.5296003 -1.4241097
-1.0155482 -1.5761617 -1.0102855 -0.27476847 -1.4733884 -2.1723545 -1.2831045 -0.7575932
-1.1904696 -1.2656364 -0.93857604 -0.7702254 -0.3141687 -0.97130626 -1.2296067 -0.7939769
-0.26231277 -0.90202546 -1.5013158 -0.7032744 -0.9049279 -1.2340088 -1.5267372 -1.6827542
-0.64026797 -1.2200155 -1.0034854 -0.936563 -1.0819724 -1.6546711 -0.49828532 -0.9296666
-1.0867878 -0.99129915 -0.28018543 -1.1035713 -1.5021443 -0.44012782 -0.96209484 -0.81909364
-1.3981242 -0.5322364 -0.8815582 -1.0739666 -0.588187 -0.9636901 -0.94955796 -1.0139035
-1.1183133 -0.42232248 -1.2865405 -1.0730904 -1.7519151 -0.2164229 -1.0974215 -0.8230207
-1.6777552 -1.0999272 -0.33570367 -1.4517605 -0.874367 -1.52444 -0.9658318 -1.0794591
-1.0223278 -1.0022188 -1.0236136 -1.1153823 -1.5999415 -1.0042851 -0.8371792 -1.3496544
-1.3796827 -0.90456533 -0.05000232 -0.93846244 -1.537983 -0.96391946 -0.26556614 -1.0816648
-0.7476183 -1.1032166 -0.7665145 -0.5734959 -1.6602412 -1.1096464 -1.1475499 -0.8388729
-1.0939817 -1.0343575 -0.91576415 -1.6700653 -0.96980214 -0.95299715 -1.5777122 -0.8243464
-1.0728037 -1.1343473 -1.1057512 -1.3610032 -1.0732986 -1.4512969 -1.644805 -0.90702146
-1.1936228 -1.740217 -1.0094746 -1.2759311 -1.594733 -1.2157134 -0.26320106 -0.79647034
00000000: 6cac a7be c2de 6ebf 7ff8 65bf dbfc 33bf
00000010: 16c7 dcbe 344a bfbf a8d7 d1be c2d3 60bf
00000020: 8f6d 18bf d129 b0bf 005b d2bf d908 f5be
00000030: 4291 73bf b3c2 57bf f1c9 c3bf 3a49 b6bf
00000040: 7cfd 81bf abbf c9bf 0951 81bf 74ae 8cbe
00000050: fe97 bcbf db07 0bc0 c53c a4bf a1f1 41bf
00000060: 4f61 98bf 6000 a2bf 8546 70bf 7e2d 45bf
00000070: b8da a0be 87a7 78bf c163 9dbf 1242 4bbf
00000080: dc4d 86be 24eb 66bf 1e2b c0bf cb09 34bf
00000090: 5ba9 67bf 00f4 9dbf 206c c3bf 7d64 d7bf
000000a0: 9ae8 23bf 7829 9cbf 3672 80bf 98c2 6fbf
000000b0: 127e 8abf 43cc d3bf 411f ffbe a1fe 6dbf
000000c0: dd1b 8bbf c8c5 7dbf 7774 8fbe d341 8dbf
000000d0: 4446 c0bf 6f58 e1be d94b 76bf 1fb0 51bf
000000e0: bcf5 b2bf a540 08bf ccad 61bf bd77 89bf
000000f0: 6c93 16bf 65b4 76bf 3b16 73bf 97c7 81bf
00000100: e424 8fbf a73a d8be 5cad a4bf 075b 89bf
00000110: c13e e0bf f79d 5dbe 4f78 8cbf 7cb1 52bf
00000120: afc0 d6bf 6aca 8cbf 5ae1 abbe 4ad3 b9bf
00000130: 84d6 5fbf da20 c3bf c140 77bf b72b 8abf
00000140: a3db 82bf b548 80bf c505 83bf d9c4 8ebf
00000150: e2ca ccbf 6a8c 80bf 6051 56bf 7ac1 acbf
00000160: 7199 b0bf 9891 67bf 3ccf 4cbd 133f 70bf
00000170: a0dc c4bf 6dc3 76bf 49f8 87be fe73 8abf
00000180: ea63 3fbf 3436 8dbf 4b3a 44bf a1d0 12bf
00000190: c982 d4bf e508 8ebf eae2 92bf 60c0 56bf
000001a0: 9807 8cbf d465 84bf 856f 6abf b3c4 d5bf
000001b0: f444 78bf 9ff7 73bf 79f2 c9bf 5e08 53bf
000001c0: a251 89bf 4b32 91bf 4189 8dbf 5a35 aebf
000001d0: d961 89bf 19c4 b9bf f888 d2bf 8f32 68bf
000001e0: a2c8 98bf 6ebf debf 7736 81bf b651 a3bf
000001f0: 3620 ccbf 7f9c 9bbf 4ac2 86be 7be5 4bbf

bn2.running_mean f4 [128]
0.54249185 0.3172396 0.02383268 0.12036406 1.4019072 0.87560624 2.1910317 0.4012963
0.58985585 -0.065412275 0.017451668 1.2005901 -0.15393221 -0.33048463 1.1977437 0.3301344
0.07798833 0.191753 -0.14898199 1.2479742 0.20714453 0.30690402 0.17953098 0.49834687
0.36958176 0.73878145 -0.04232002 0.1001742 -0.8774917 0.18551521 0.98730975 0.096062414
1.9440403 0.4563704 -0.18549603 -0.10017512 0.01007541 0.07584987 0.3557809 0.17994419
0.34795207 -0.12785734 -0.27027604 0.11184543 0.5336639 0.02804529 1.0483034 0.8154552
0.13209555 -0.3295051 1.5194768 -0.13559029 0.27453905 -0.13992383 -0.030175209 0.300558
0.49167645 1.5717106 0.43469158 -0.10764413 -0.103214346 0.05918427 0.1029064 0.05835704
-0.5668188 -0.06904126 -0.7488468 0.4201792 0.09148407 -1.1376228 -0.7187916 0.46117958
0.56111544 0.34488693 0.9485276 0.11195819 0.34142557 0.16438988 0.4239438 -0.31005785
0.715457 0.110566534 -0.11147987 0.3607509 0.1320007 0.3455045 0.23952328 -0.16497864
0.5344457 0.30292952 0.12136155 -0.31075725 0.61326563 -0.17306039 2.2997818 0.18070589
-0.18726163 0.14656019 0.28271934 1.3021854 0.27939838 0.83616596 0.5096826 0.37574276
0.7802086 0.17726864 -0.557706 0.7386318 0.31339628 0.1653579 0.2720637 0.40245476
1.230634 0.085153826 0.44224304 1.0003088 0.30579507 0.17402242 0.12524417 -0.10005938
0.78269404 0.47993734 0.43515307 -0.019231662 0.39250365 0.51377606 -0.16741148 -0.34632924
00000000: bfe0 0a3f 3b6d a23e c13c c33c 6f81 f63d
00000010: b271 b33f bb27 603f dd39 0c40 b576 cd3e
00000020: cb00 173f dff6 85bd cdf6 8e3c f0ac 993f
00000030: 68a0 1dbe 4835 a9be aa4f 993f 6007 a93e
00000040: 58b8 9f3d e65a 443e bc8e 18be 9ebd 9f3f
00000050: b21d 543e 8622 9d3e f8d6 373e 5227 ff3e
00000060: d239 bd3e c820 3d3f c257 2dbd 2228 cd3d
00000070: 4ca3 60bf b3f7 3d3e 55c0 7c3f 5fbc c43d
00000080: 50d6 f83f 62a9 e93e acf2 3dbe 9d28 cdbd
00000090: 5513 253c 2d57 9b3d ea28 b63e 4a43 383e
000000a0: c626 b23e 09ed 02be 9f61 8abe 380f e53d
000000b0: 339e 083f 3cbf e53c ce2e 863f acc1 503f
000000c0: 0e44 073e e4b4 a8be 377e c23f 2ed8 0abe
000000d0: 6290 8c3e 3148 0fbe 0032 f7bc bde2 993e
000000e0: 04bd fb3e d02d c93f e58f de3e 8774 dcbd
000000f0: 0b62 d3bd 356b 723d 97c0 d23d cb07 6f3d
00000100: 091b 11bf 8165 8dbd 6db4 3fbf ba21 d73e
00000110: 005c bb3d a09d 91bf ba02 38bf bb1f ec3e
00000120: 43a5 0f3f 0595 b03e b4d2 723f 564a e53d
00000130: 55cf ae3e d255 283e 290f d93e e7bf 9ebe
00000140: 3128 373f b570 e23d 8f4f e4bd 58b4 b83e
00000150: 312b 073e f7e5 b03e 9745 753e 29f0 28be
00000160: 6fd1 083f 9419 9b3e 688c f83d 931b 9fbe
00000170: fafe 1c3f be36 31be a02f 1340 f70a 393e
00000180: 83c1 3fbe e013 163e 97c0 903e 03ae a63f
00000190: 4e0d 8f3e f90e 563f 8f7a 023f 5b61 c03e
000001a0: c0bb 473f e985 353e d2c5 0ebf f916 3d3f
000001b0: 7a75 a03e 9553 293e ef4b 8b3e 8d0e ce3e
000001c0: 6a85 9d3f 2165 ae3d ae6d e23e 1e0a 803f
000001d0: 2c91 9c3e ef32 323e 0240 003e efeb ccbd
000001e0: a35e 483f 59ba f53e 62cc de3e b88b 9dbc
000001f0: 3df6 c83e d486 033f ea6d 2bbe 1152 b1be

bn2.running_var f4 [128]
0.9399311 0.54045844 0.21219783 0.5322747 1.8986614 0.7637475 1.0831977 0.21411881
2.7943497 0.4052179 0.36750597 1.952536 0.22168195 0.3620914 3.4909124 0.31322283
0.23367788 0.19019277 0.68199897 1.6491299 0.25617906 0.2669249 0.3307446 0.37494865
0.5906113 0.33806393 0.19829503 0.25696453 0.5233997 0.19239959 0.40682247 0.54987556
2.1207826 0.8161713 0.3708088 0.19866358 0.18698187 0.4186248 0.25410214 0.13754956
0.3215272 0.29676268 0.1553769 0.5477362 0.76792675 0.14431114 1.6749867 0.41554585
0.16952749 0.24442072 1.4341131 0.17919372 0.30185768 0.64977646 0.12485947 0.28839797
0.22220923 1.1646893 0.37580225 0.2838424 0.19646032 0.15384376 0.20186087 0.2117301
0.14576446 0.13042486 0.27114192 0.4668643 0.1423805 0.791608 0.240244 0.3575943
0.21154776 0.8543403 1.3968393 0.35193107 0.31308687 0.79338753 0.85930604 0.27025002
1.036807 0.17858185 0.22573107 0.6161194 0.082359605 0.27265623 0.37497422 0.26539388
0.79834557 0.45177764 0.19982293 0.44234958 0.4269213 0.43874165 1.6129047 0.3458093
0.11825051 0.38994765 0.3630814 0.8129072 0.35277426 0.31668994 0.19163133 0.780716
0.6975222 0.59316415 0.22550969 0.45887482 0.16381642 0.110172026 0.25431642 0.44525805
1.4188069 0.43791273 0.31054294 0.38487893 0.6781707 0.2929601 0.18527737 0.25412685
0.7105138 0.18227953 0.34825003 0.16406234 0.19529265 0.16163944 0.34712487 0.14486219
00000000: 539f 703f 7c5b 0a3f 634a 593e 2843 083f
00000010: 5607 f33f f584 433f 39a6 8a3f f641 5b3e
00000020: a0d6 3240 b878 cf3e be29 bc3e b3ec f93f
00000030: 9800 633e 0b64 b93e 1c6b 5f40 be5e a03e
00000040: 4149 6f3e e5c1 423e 7c97 2e3f b016 d33f
00000050: e729 833e 61aa 883e 5b57 a93e 45f9 bf3e
00000060: 4d32 173f b716 ad3e da0d 4b3e db90 833e
00000070: 86fd 053f 6604 453e 094b d03e a5c4 0c3f
00000080: e7ba 0740 9af0 503f a7da bd3e 776e 4b3e
00000090: 2d78 3f3e fd55 d63e ad19 823e cbd9 0c3e
000000a0: 379f a43e 47f1 973e 1f1b 1f3e 7138 0c3f
000000b0: d996 443f 4dc6 133e f765 d63f 6dc2 d43e
000000c0: 9d98 2d3e 6d49 7a3e 0591 b73f 8f7e 373e
000000d0: 178d 9a3e c057 263f 52b6 ff3d e6a8 933e
000000e0: d18a 633e 8a14 953f 2769 c03e cb53 913e
000000f0: e52c 493e 3889 1d3e 9eb4 4e3e c6cf 583e
00000100: 4743 153e 188e 053e 1dd3 8a3e d608 ef3e
00000110: 32cc 113e d2a6 4a3f 8602 763e 9a16 b73e
00000120: fa9f 583e 0cb6 5a3f a1cb b23f 4f30 b43e
00000130: ec4c a03e 721b 4b3f 7bfb 5b3f 365e 8a3e
00000140: 17b6 843f 29de 363e 0c26 673e 00ba 1d3f
00000150: 27ac a83d 9999 8b3e 9ffc bf3e b5e1 873e
00000160: 6060 4c3f 664f e73e 629e 4c3e a57b e23e
00000170: 6e95 da3e bfa2 e03e a973 ce3f eb0d b13e
00000180: 532d f23d 38a7 c73e cee5 b93e b01a 503f
00000190: d49e b43e 2f25 a23e 013b 443e 01dd 473f
000001a0: d190 323f 9bd9 173f 03ec 663e a4f1 ea3e
000001b0: 7ebf 273e dfa1 e13d c335 823e ddf8 e33e
000001c0: 779b b53f 1936 e03e 7cff 9e3e da0e c53e
000001d0: 989c 2d3f defe 953e 5ab9 3d3e ea1c 823e
000001e0: 3be4 353f 7ca7 3a3e d44d b23e f5ff 273e
000001f0: ccfa 473e cf84 253e 5aba b13e c156 143e

fc3.weight f4 [4, 128]
0.020170838 -0.89929575 -0.07762509 -0.015505059 0.008014038 0.13013744 0.022471689 -0.07641645
-0.11797261 0.077653326 -0.1380029 -0.072784126 -0.026222194 0.0005652533 -0.011036865 -0.009961558
-0.1199905 -0.07644028 -1.5161554 0.06164108 0.018668916 0.07891631 0.5148358 -0.011920333
0.011655411 0.73521554 -0.0048554107 -0.8750818 0.00081996375 -1.0212363 1.37295 -1.1536183
0.028179908 0.01964569 0.112368286 0.02781914 -0.030301526 1.0978366 1.0853363 -0.090955265
-0.09146997 -0.10611094 0.0714779 0.97228247 -0.031798225 0.006639112 1.2598312 -0.78825456
-0.049461212 0.78912836 0.043687407 -0.034577657 0.04117262 0.01083874 0.059202187 0.014197327
0.04376216 0.035923917 -0.8360477 -0.049711503 0.032657325 -0.036370154 -0.102427125 -0.74509627
-0.002737653 -0.026827978 -0.025328087 -0.06680528 0.43823388 0.01037501 -0.23284647 -0.24216004
0.7454632 0.094188385 0.0414923 -0.12559295 -0.9495358 -0.12929581 0.32236737 0.17705083
-0.0032873242 -0.06784133 0.11042165 -0.097258575 -0.0414827 -0.055140045 -1.1845325 1.8102261
0.040114358 0.054929465 0.13924442 -0.0058182357 -0.083382376 -0.08128931 -0.007827409 -0.4504532
0.019211432 1.5960754 -0.5890723 -0.01805817 -0.24500117 -0.0016091145 -0.07208089 -0.14061305
-0.08716477 0.35211635 -0.074572325 -0.029703746 0.033563167 -0.10287825 0.7027593 -1.349949
-0.21496466 0.48223332 -0.061706252 -0.029013252 -0.12673543 0.89873654 -0.09962268 0.028032763
-0.46175674 1.0600177 0.5379367 1.4031196 -0.009258791 0.025479548 0.05938844 -0.015060478
0.07658294 -0.2110138 -0.07943698 0.003009152 0.028260944 0.10021891 0.015681034 -0.07444563
-0.31519938 -0.15778542 1.067363 -0.19339238 -0.012443334 0.058150202 -0.06653326 -0.02287079
-0.3422186 0.9249848 0.016526273 0.14350256 0.049840257 -0.025169464 0.0019266666 -0.06458291
-0.16237503 0.0873366 -0.06018484 0.030056955 0.19150743 0.007318755 0.0722397 -0.16136031
1.1045085 0.43354666 0.14952403 0.055320494 -0.041883785 -0.069105454 -0.046885073 2.672416
-0.4154693 -1.5054632 0.034002468 0.03033048 0.09402095 -0.071336456 -0.0050103245 -0.09729789
-0.031224422 -0.028827079 0.08842979 -0.084403805 0.12692359 -0.00055699126 0.08566999 0.010700483
0.10238033 0.14128774 -0.018407593 -0.23205133 0.12522924 0.1330134 -0.37232935 0.0050395774
0.2689444 0.001077723 0.24927041 -0.6604459 -0.061913125 0.013994382 -0.25990996 0.03338033
0.35924417 0.767706 0.103509925 -0.033752933 -0.015972722 0.0004433393 -1.1986412 0.5908001
-0.90437156 -0.25650775 0.22566628 -1.1813992 0.6053695 0.04133411 0.017794903 -0.019762525
-0.022986682 -0.06691221 0.04061928 -0.09849053 -0.01663179 -0.25173882 1.4011137 -0.08619478
0.0884132 -0.02788051 -0.039318465 -0.058525186 0.190497 0.029365683 -0.1641539 -0.017743142
-0.052639358 0.005030983 -0.25061688 0.074588805 0.05435405 -0.28280932 -0.06895942 -0.15847145
0.35870454 -0.11891905 -0.04421466 -0.10217493 0.8967515 0.026970224 0.16767249 -0.11130513
1.2267079 -0.009154519 0.113029204 0.005647653 -0.1732207 -0.12092912 0.26976967 -0.12400707
00000000: 503d a53c 3f38 66bf e7f9 9ebd ee08 7ebc
00000010: 504d 033c c042 053e 8c16 b83c 3a80 9cbd
00000020: a09b f1bd b508 9f3d a250 0dbe d80f 95bd
00000030: edcf d6bc 822d 143a f8d3 34bc cd35 23bc
00000040: 94bd f5bd b98c 9cbd 6111 c2bf 5b7b 7c3d
00000050: 8eef 983c e09e a13d 47cc 033f 804d 43bc
00000060: 56f6 3e3c 1637 3c3f 231a 9fbb 5c05 60bf
00000070: d6f2 563a dfb7 82bf d3bc af3f c4a9 93bf
00000080: 8dd9 e63c 00f0 a03c 5821 e63d f7e4 e33c
00000090: e83a f8bc e985 8c3f 4dec 8a3f c146 babd
000000a0: 9c54 bbbd b150 d9bd 0163 923d 81e7 783f
000000b0: db3e 02bd e88c d93b 2642 a13f 0dcb 49bf
000000c0: d797 4abd 5104 4a3f 91f1 323d 4da1 0dbd
000000d0: 9fa4 283d f894 313c fe7d 723d e89b 683c
000000e0: f33f 333d f524 133d 3907 56bf 4a9e 4bbd
000000f0: b0c3 053d dff8 14bd 50c5 d1bd a1be 3ebf
00000100: 326a 33bb 59c6 dbbc d97c cfbc 35d1 88bd
00000110: 3160 e03e f2fb 293c 4e6f 6ebe cdf8 77be
00000120: add6 3e3f d7e5 c03d d4f3 293d 709b 00be
00000130: c714 73bf 1f66 04be 560d a53e d04c 353e
00000140: 2670 57bb 65f0 8abd bf24 e23d 812f c7bd
00000150: c3e9 29bd 87da 61bd c39e 97bf 7db5 e73f
00000160: f44e 243d b8fd 603d 1796 0e3e e6a6 bebb
00000170: 61c4 aabd 027b a6bd 883e 00bc cda1 e6be
00000180: 4b61 9d3c 334c cc3f 71cd 16bf baee 93bc
00000190: 96e1 7abe ece8 d2ba 259f 93bd defc 0fbe
000001a0: 7183 b2bd 9848 b43e 60b9 98bd 4555 f3bc
000001b0: 8879 093d d5b1 d2bd 09e8 333f 21cb acbf
000001c0: b21f 5cbe 49e7 f63e b2bf 7cbd 33ad edbc
000001d0: efc6 01be 9913 663f fa06 ccbd f7a4 e53c
000001e0: 616b ecbe a9ae 873f 38b6 093f 6c99 b33f
000001f0: 2fb2 17bc 7cba d03c 4b41 733d 39c0 76bc
00000200: 84d7 9c3d 0014 58be dbaf a2bd 3135 453b
00000210: 7f83 e73c 923f cd3d 8375 803c f376 98bd
00000220: d061 a1be 8092 21be 5a9f 883f a708 46be
00000230: 20df 4bbc e82e 6e3d 9742 88bd 865b bbbc
00000240: 4737 afbe cecb 6c3f 1b62 873c 56f2 123e
00000250: 4c25 4c3d 3130 cebc 3488 fc3a 0b44 84bd
00000260: a445 26be 88dd b23d 6184 76bd 013a f63c
00000270: 861a 443e 2bd2 ef3b 68f2 933d a33b 25be
00000280: 8960 8d3f d4f9 dd3e d41c 193e be97 623d
00000290: 558e 2bbd 2987 8dbd 900a 40bd dd08 2b40
000002a0: 64b8 d4be 05b3 c0bf 2c46 0b3d a077 f83c
000002b0: 0e8e c03d d918 92bd a62d a4bb 1e44 c7bd
000002c0: 5cca ffbc c426 ecbc ae1a b53d e7db acbd
000002d0: 42f8 013e 0d03 12ba bf73 af3d 1451 2f3c
000002e0: c7ac d13d bcad 103e 85cb 96bc dd9e 6dbe
000002f0: 183c 003e aa34 083e f4a1 bebe 0a23 a53b
00000300: 15b3 893e 6242 8d3a be40 7f3e fc12 29bf
00000310: 9e98 7dbd b148 653c eb12 85be d0b9 083d
00000320: daee b73e 6188 443f 03fd d33d 8440 0abd
00000330: 3ad9 82bc fe6f e839 136d 99bf ad3e 173f
00000340: e584 67bf fc54 83be 1015 673e 1738 97bf
00000350: 7ff9 1a3f f54d 293d 9ec6 913c 05e5 a1bc
00000360: 914e bcbc 4509 89bd 6760 263d 67b5 c9bd
00000370: 643f 88bc e9e3 80be b257 b33f e486 b0bd
00000380: fb11 b53d ab65 e4bc 660c 21bd 1bb8 6fbd
00000390: a511 433e 4d90 f03c f617 28be 115a 91bc
000003a0: 5e9c 57bd f2da a43b db50 80be 04c2 983d
000003b0: 5aa2 5e3d 62cc 90be 993a 8dbd 5746 22be
000003c0: 1fa8 b73e d58b f3bd 6e1a 35bd 1741 d1bd
000003d0: 8291 653f a9f0 dc3c 56b2 2b3e f2f3 e3bd
000003e0: c404 9d3f d6fc 15bc db7b e73d f20f b93b
000003f0: c460 31be b0a9 f7bd 401f 8a3e 6bf7 fdbd

fc3.bias f4 [4]
41.372196 37.00879 49.97097 39.72835
00000000: 217d 2542 0009 1442 46e2 4742 d5e9 1e42

bn3.weight f4 [4]
24.88922 24.584835 37.2854 26.039726
00000000: 1f1d c741 bead c441 4024 1542 5c51 d041

bn3.bias f4 [4]
13.925383 13.259311 9.061914 13.601072
00000000: 5ece 5e41 2326 5441 9afd 1041 fe9d 5941

bn3.running_mean f4 [4]
41.49636 37.18663 50.02034 39.909046
00000000: 46fc 2542 1cbf 1442 d414 4842 dda2 1f42

bn3.running_var f4 [4]
0.05184624 0.14041601 0.004113823 0.09743451
00000000: b95c 543d 37c9 0f3e 40cd 863b bf8b c73d
